.idea/shelf/Changes1/best_model_4.pth (torch, 127927 bytes, 9 tensors)

weight_ih_l0 f4 [200, 1]
0	0xbdccf3d8	-0.10007447
1	0xbd8db1e7	-0.06918698
2	0xbce92297	-0.028458877
3	0x3da7565a	0.08170767
4	0x3dd8eb17	0.10591715
5	0x3d8436a9	0.06455738
6	0x3cae548e	0.021280553
7	0x3e98302a	0.29724246
8	0xbe193660	-0.14962149
9	0xbd308fb2	-0.04310579
10	0x3d7a4520	0.06110108
11	0x3a623ff1	0.0008630744
12	0x3ddfa902	0.109209076
13	0x3da1461f	0.07874703
14	0x3da1feac	0.07909903
15	0xbe3fbc24	-0.18724114
16	0xbb9e9a80	-0.004840195
17	0xbc1d1367	-0.009587145
18	0x3e01ad48	0.12663758
19	0xbb3e0418	-0.002899414
20	0x3e6f98fb	0.23398201
21	0x3e0d9570	0.13826537
22	0x3d992569	0.074778385
23	0x3df64c45	0.12026266
24	0xbeb934de	-0.36173147
25	0x3e05ce8c	0.13067073
26	0x3e8a60b5	0.27026907
27	0xbe07b0f1	-0.13251092
28	0x3dde29e4	0.10847834
29	0x3e6ab708	0.22921383
30	0xbd410bff	-0.04713058
31	0x3e26a234	0.16272813
32	0xbdf47b40	-0.119375706
33	0x3d4e9e9b	0.050444227
34	0xbbcd56c3	-0.0062664463
35	0x3ebbc376	0.36672562
36	0xbe03edd7	-0.12883697
37	0xbccf5db3	-0.025313234
38	0xbe02b428	-0.12764037
39	0xbd2745a3	-0.040837895
40	0xbe54b310	-0.20771432
41	0xbd2f42aa	-0.042788185
42	0x3e8775d5	0.26457086
43	0xbe53ea97	-0.20694958
44	0xbda58c1f	-0.080833666
45	0x3dbd6fab	0.092498146
46	0xbcdaa4f8	-0.026689991
47	0xbd5c3ef8	-0.05377099
48	0xbd960654	-0.07325426
49	0x3e868200	0.26271057
50	0xbc27065d	-0.010194388
51	0x3c54f5c8	0.012998052
52	0xbc80cb22	-0.015721861
53	0x3dfbfd3e	0.123041615
54	0xbc0f7a56	-0.0087571945
55	0x3dc4de3e	0.09612702
56	0x3d930fe2	0.07180764
57	0x3e695213	0.22785215
58	0xbe4b9521	-0.19881107
59	0xbe04b862	-0.12960961
60	0xbe02fc60	-0.12791586
61	0x3dd2f6da	0.103009894
62	0x3e031aba	0.12803164
63	0xbd9191b1	-0.071078666
64	0xbe1ad694	-0.15120918
65	0xbeba090f	-0.36335036
66	0x3d1f0d89	0.038831268
67	0xbd75c087	-0.05999806
68	0xbc100787	-0.008790857
69	0x3c2f8696	0.01071324
70	0x3ebe4169	0.3715928
71	0x3e08d91b	0.13364069
72	0xbe0351e6	-0.1282421
73	0x3e12b677	0.14327417
74	0xbec2b5cc	-0.38029325
75	0xbd897112	-0.067110196
76	0x3d9d40b2	0.07678355
77	0xbe6ac795	-0.22927697
78	0xbd6699e2	-0.056299098
79	0x3e7152e2	0.23566774
80	0xbd25d6f2	-0.04048819
81	0xbb296d5d	-0.002585254
82	0xbc88f6ce	-0.016719248
83	0xbce9aa53	-0.0285236
84	0xbddfd4eb	-0.10929283
85	0x3e61bcd6	0.22044691
86	0x3df8ff52	0.121580735
87	0xbb67ba60	-0.003535889
88	0x3c037598	0.008023642
89	0x3da24e4a	0.07925089
90	0xbe253e1a	-0.16136971
91	0xbdccf29d	-0.10007212
92	0x3e79ab80	0.24381828
93	0x3c0d7547	0.008633918
94	0x3df50181	0.119631775
95	0x3dc78f33	0.0974411
96	0x3d7dd656	0.061971985
97	0xbe158f67	-0.14605485
98	0xbd8ebb46	-0.06969313
99	0x3e3b30a3	0.18280272
100	0xbdf20031	-0.11816443
101	0x3de63802	0.112411514
102	0xbe4d1cbe	-0.20030496
103	0x3df41d17	0.11919611
104	0xbd7f9225	-0.062395234
105	0xbe43c9f8	-0.19120014
106	0x3e42b340	0.19013691
107	0xbeb33d32	-0.35007626
108	0xbd9ab87e	-0.0755472
109	0xbdd5903c	-0.10427901
110	0x3e00e628	0.12587798
111	0xbd86d190	-0.065829396
112	0x3db3f783	0.087874435
113	0x3e1bf799	0.1523117
114	0xbd9e4aa9	-0.07729084
115	0xbe2eff27	-0.1708952
116	0xbe007b94	-0.12547141
117	0x3e3d3dee	0.18480656
118	0x3dcff171	0.10153473
119	0xbde8a62a	-0.11359818
120	0x3f3847c6	0.7198452
121	0x3dc4fd03	0.09618571
122	0x3d644ede	0.055739276
123	0xbe7dd94a	-0.2478992
124	0x3e75e9d5	0.24014981
125	0xbe9a7ef2	-0.30174977
126	0x3e5da454	0.21644717
127	0x3ddb5e7f	0.10711383
128	0xbd47a8b3	-0.04874487
129	0x3ea9797c	0.33100498
130	0xbd3b12fb	-0.045672398
131	0x3e6422d4	0.22278911
132	0xbdb86dff	-0.09005355
133	0x3e415b6c	0.18882531
134	0xbc65f699	-0.014035844
135	0x3eef30c6	0.467169
136	0xbd87478e	-0.06605445
137	0x3da9b902	0.082872406
138	0x3cbcbaed	0.023038352
139	0xbdd262fa	-0.102727845
140	0x3cad344a	0.021143097
141	0xbc390adf	-0.011294096
142	0xbe940d50	-0.28916407
143	0xbd6a0b29	-0.05713955
144	0x3e026753	0.12734728
145	0x3cad10a4	0.021126099
146	0xbd6aa791	-0.05728871
147	0x3e30f70b	0.1728174
148	0x3dcef3e0	0.10105109
149	0xbeb36ac1	-0.35042384
150	0xbe2a7153	-0.16644792
151	0x3de093f3	0.10965719
152	0xbc70726f	-0.014675721
153	0x3e1632b6	0.14667782
154	0xbd8a9c4e	-0.06768094
155	0x3e47f6b7	0.19527708
156	0x3d93b459	0.07212133
157	0x3eb1385a	0.34613305
158	0xbea23499	-0.31680754
159	0x3d966d1e	0.07345031
160	0xbe0f632d	-0.14002676
161	0x3c8ec374	0.017427184
162	0x3ceb4cfe	0.028723236
163	0xbd2b2236	-0.041780673
164	0xbdf7bc1b	-0.12096425
165	0xbe511587	-0.20418368
166	0x3cea8bb6	0.028631072
167	0xbdcf4543	-0.101206325
168	0xbd8c60fa	-0.06854434
169	0x3be89f8e	0.0070990985
170	0x3ed775f6	0.42082185
171	0x3d14124e	0.03615027
172	0xbe0b5d5f	-0.13609837
173	0x3d353e45	0.044248838
174	0xbde766c3	-0.11298897
175	0x3d889096	0.066682026
176	0x3de45b70	0.11150253
177	0xbe4940b2	-0.19653586
178	0x3ce091c0	0.027413249
179	0x3ec6aa17	0.38801643
180	0xbe484619	-0.1955799
181	0x3de483a2	0.111579195
182	0x3d462fb3	0.048385333
183	0x3e002594	0.12514335
184	0xbe4f7e91	-0.20263125
185	0x3eaa8886	0.33307284
186	0xbe327229	-0.17426361
187	0x3de97a99	0.11400337
188	0xbe037091	-0.1283591
189	0x3d44524a	0.04793004
190	0xbe9c6e53	-0.3055292
191	0x3c0ec1a7	0.0087131625
192	0xbcaf7a07	-0.021420492
193	0x3da88310	0.08228123
194	0x3dc779c0	0.09740019
195	0xbd994e1b	-0.074856006
196	0xbde7575d	-0.1129596
197	0xbd948d41	-0.072535045
198	0xbd4bda01	-0.04976845
199	0x3ec38e54	0.38194525

weight_hh_l0 f4 [200, 50]
0	0x3d84236d	0.064520694
1	0xbd91e8a9	-0.071244545
2	0x3dd2afc7	0.10287433
3	0xbd52c336	-0.0514557
4	0x3d1edd1b	0.03878508
5	0xbbbef584	-0.0058276076
6	0x3db097b5	0.08622686
7	0xbd933393	-0.071875714
8	0xbd80115e	-0.062533125
9	0xbd7d1e54	-0.0617965
10	0xbd6ac0c0	-0.057312727
11	0xbcc56831	-0.024097534
12	0x3c032d32	0.008006381
13	0x3dbd08a4	0.09230164
14	0xbe028d9b	-0.1274933
15	0xbcbef98a	-0.023312349
16	0x3e023dbf	0.12718867
17	0xbd774fe3	-0.06037892
18	0xbe1f800d	-0.15576191
19	0x3d89b8bb	0.06724688
20	0xbd16baaf	-0.03679913
21	0x3de6377c	0.112410516
22	0xbd226351	-0.039645497
23	0xbe1d290d	-0.15347691
24	0xbe118ade	-0.1421313
25	0x3d2b22d1	0.04178125
26	0xbd416910	-0.047219336
27	0x3e442cef	0.19157766
28	0xbbb1ac3e	-0.005422144
29	0xbd3a508f	-0.045486983
30	0xbdc084ba	-0.094003156
31	0x3d20adbb	0.039228182
32	0xbd0aa11f	-0.033845063
33	0x3dc6346d	0.09677968
34	0x3c5f15e8	0.013616063
35	0x3d07159f	0.032979604
36	0xbe1b5e24	-0.1517263
37	0x3de3117a	0.11087318
38	0xbdc432dc	-0.09580013
39	0x3da1afb0	0.07894838
40	0x3e4a4527	0.19752942
41	0xbdb10b30	-0.08644712
42	0xbc82d7e3	-0.015972083
43	0xbc909b8f	-0.017652301
44	0xbdab3fb9	-0.083617635
45	0xbbba7c6f	-0.005691103
46	0x3d68c68e	0.05682998
47	0x3cd0801a	0.025451709
48	0xbd802302	-0.06256677
49	0xbdc605a5	-0.09669045
50	0xbdc38cc8	-0.09548336
51	0xbda4588a	-0.080247
52	0x3ded7c80	0.11596012
53	0x3b33c7fd	0.0027432435
54	0x3db78491	0.08960832
55	0x3cbcf4b2	0.023065899
56	0xbcdc7f4d	-0.02691617
57	0xbdda0835	-0.106460966
58	0xbd97a740	-0.07404947
59	0xbbba9e29	-0.0056951237
60	0xbd49358b	-0.04912333
61	0x3ce1a930	0.027546495
62	0x3c94af18	0.018149897
63	0xbccfaf87	-0.025352253
64	0xbcb0f901	-0.02160311
65	0xbd2767e4	-0.040870562
66	0xbd734b05	-0.059397716
67	0x3e166596	0.1468719
68	0xbc7d7315	-0.015469332
69	0xbdf03996	-0.11729734
70	0x3e212f5f	0.15740727
71	0x3d6fd7bd	0.058555353
72	0x3dc05ed3	0.09393086
73	0xbdae2244	-0.085026294
74	0xbdb5e7de	-0.08882116
75	0xbe37b833	-0.1794136
76	0xbdb287b9	-0.08717293
77	0x3ddf62e5	0.109075345
78	0x3d17c18a	0.037049808
79	0x3e0ea1fa	0.13928977
80	0xbb838814	-0.0040140245
81	0xbc9c5450	-0.019083172
82	0xbd92af40	-0.071623325
83	0x3cd644c5	0.026155839
84	0x3d9e0851	0.0771643
85	0x3e87be20	0.2651224
86	0xbde8fecf	-0.11376726
87	0x3c03b59e	0.008038906
88	0x3dc02ec0	0.09383917
89	0x3d99f151	0.075167306
90	0xbd8621a1	-0.06549383
91	0x3cebb6d4	0.028773703
92	0x3b7fc036	0.0039024479
93	0x3e43084b	0.19046132
94	0xbd971872	-0.073777094
95	0xbca0cb52	-0.0196282
96	0x3da99388	0.082800925
97	0x3deb8e0a	0.11501701
98	0xbe0692d3	-0.13141946
99	0xbc6cd96e	-0.014456136
100	0x3dca3ac2	0.098744884
101	0x3dc42886	0.09578042
102	0x3d6ce7f7	0.057838406
103	0xbd75788c	-0.059929416
104	0x3db1b1e5	0.08676509
105	0xbd86a20c	-0.06573877
106	0xbdad45f3	-0.084606074
107	0xbe8cc603	-0.2749482
108	0xbe3e58fa	-0.1858863
109	0xbda8b4f3	-0.08237638
110	0x3daa50c6	0.083161876
111	0x3d90b57c	0.070658654
112	0xbe0097ad	-0.1255786
113	0x3ce9196e	0.028454509
114	0x3cdb2efe	0.026755806
115	0xbda62e74	-0.08114329
116	0xbd5652ab	-0.052324932
117	0x3aba7925	0.0014226778
118	0xbdf719b1	-0.12065447
119	0xbc8ab9d6	-0.016934317
120	0x3ee6215f	0.44947335
121	0x3d8733be	0.06601666
122	0xba842921	-0.0010083058
123	0xbdd86791	-0.10566629
124	0xbbaf6e2e	-0.0053537106
125	0xbe5d9b82	-0.21641353
126	0x3e253552	0.16133621
127	0xbd3d3de3	-0.046201598
128	0x3df10a2e	0.1176952
129	0x3e4a6868	0.1976639
130	0xbdce45d4	-0.100719124
131	0x3bae95dd	0.0053279237
132	0xbddafcd5	-0.10692755
133	0xbd5ad508	-0.05342582
134	0xbd9a2daf	-0.07528245
135	0x3eabdc05	0.335663
136	0x3db05aef	0.08611094
137	0x3d5f6017	0.054534998
138	0x3dd25f99	0.1027214
139	0xbd1e2832	-0.038612552
140	0xbdaa3559	-0.083109565
141	0x3c894ca8	0.016760185
142	0x3bc414b2	0.0059839124
143	0xbd77d564	-0.06050624
144	0x391f8e9e	0.0001521655
145	0x3dc0de87	0.09417444
146	0x3d38f4ce	0.04515534
147	0x3dc405f2	0.095714465
148	0x3cec55bb	0.028849473
149	0xbe47278d	-0.19448681
150	0xbd30b8e5	-0.04314508
151	0x3d596b1b	0.05308066
152	0xbdced8a5	-0.100999154
153	0x3a2f2e72	0.0006682641
154	0xbd0c8102	-0.03430272
155	0xbddd9fb4	-0.108214766
156	0x3dd06200	0.10174942
157	0xbe0c3c15	-0.13694794
158	0x3d27a695	0.04093035
159	0xbd3ef722	-0.046622403
160	0xbc86b4b1	-0.016443582
161	0x3c404c19	0.011736893
162	0xbc93cec2	-0.018042926
163	0xbd8bc83d	-0.06825302
164	0xbaeaa2f5	-0.0017901348
165	0xbd7d9f68	-0.0619196
166	0x3db8412f	0.08996808
167	0xbcc2403d	-0.023712272
168	0xbde6ad18	-0.11263484
169	0xbd761dbb	-0.060086947
170	0x3dee807c	0.116456
171	0xbdcad57c	-0.09904
172	0x3de3c54f	0.11121618
173	0xbd0795fa	-0.033102013
174	0xbe2ab9f6	-0.16672501
175	0xbe4cc47e	-0.19996831
176	0xbb8e67a0	-0.004345849
177	0x3e13857a	0.14406386
178	0x3c668b37	0.014071277
179	0x3d5020d3	0.050812554
180	0xbd0a8efe	-0.033827774
181	0x3d9c8da3	0.076442026
182	0x3de82870	0.11335838
183	0x3d1d87df	0.038459655
184	0x3d1fd771	0.03902382
185	0xbb0d8d7d	-0.0021599226
186	0x3d6600e6	0.0561532
187	0xbde57cf1	-0.11205471
188	0xbd97cfc8	-0.07412678
189	0x396d8517	0.00022651661
190	0x3d8ee11e	0.069765314
191	0xbded9853	-0.11601319
192	0xbd9634a0	-0.07334256
193	0x3d92b8ee	0.07164179
194	0xbd3ef889	-0.04662374
195	0xbd190a00	-0.037363052
196	0x3c9b1fa7	0.018935991
197	0xbd97befe	-0.07409476
198	0xbd920898	-0.071305454
199	0xbd85d455	-0.0653464
200	0xbe22621d	-0.1585774
201	0xbe01e31c	-0.12684292
202	0x3d17d2a2	0.03706611
203	0xbe197896	-0.14987406
204	0xbcbd0fa7	-0.023078753
205	0x3dc62bd2	0.09676327
206	0x3cb557ce	0.022136595
207	0x3dc28f70	0.09500015
208	0x3cd0ccf3	0.025488352
209	0x3c9c3e67	0.019072725
210	0x3e0239c9	0.12717356
211	0xbbfbc6fb	-0.0076836324
212	0xbded74fd	-0.11594579
213	0x3dcacd74	0.09902468
214	0xbe00bc81	-0.12571909
215	0x3d16aa8c	0.03678374
216	0x3e1b8514	0.15187484
217	0xbdd12e82	-0.10213949
218	0x3db80ac1	0.08986426
219	0xbe40f930	-0.18845057
220	0x3e9f8980	0.31159592
221	0xbdcc8fa9	-0.099883385
222	0x3da3344e	0.07968961
223	0xbdd850f3	-0.10562315
224	0xbc18e0a6	-0.009330904
225	0xbe195a4a	-0.14975849
226	0xbdba3a84	-0.09093192
227	0x3e079bb8	0.13242996
228	0x3c08f971	0.008360253
229	0x3e17f588	0.14839756
230	0xbb98b4fd	-0.0046602474
231	0x3cc738e1	0.024319114
232	0xbd2c5708	-0.042075187
233	0xbd97e7d3	-0.07417264
234	0xbdbef0b2	-0.09323253
235	0x3ba93493	0.005163738
236	0xbc6166a4	-0.013757382
237	0xbd2d9a43	-0.042383444
238	0x3c377e7b	0.011199589
239	0xbca13150	-0.019676834
240	0x3e612952	0.21988419
241	0x3dd721d5	0.105045
242	0x3e3a27c3	0.1817923
243	0x3de008f4	0.10939208
244	0x3d917b79	0.07103629
245	0x3ddea33e	0.1087098
246	0x3dd56727	0.104200654
247	0x3e2c3ce7	0.16820107
248	0x3d6108ab	0.054939907
249	0x3b61c26a	0.0034448155
250	0xbdec4720	-0.115370035
251	0xbd1f4bfa	-0.038890816
252	0xbdbf8c86	-0.093529746
253	0xbde0e51c	-0.10981199
254	0x3d600136	0.054688655
255	0xbd4d3339	-0.050097678

bias_ih_l0 f4 [200]
0	0xbc508290	-0.012726441
1	0xbdfe6a22	-0.12422587
2	0x3d030633	0.031988334
3	0xbdab515e	-0.08365129
4	0xbe21c38c	-0.15797251
5	0xbdeb028f	-0.114750974
6	0xbd7477aa	-0.059684433
7	0x3c61a2c6	0.013771718
8	0xbdd6d805	-0.10490421
9	0xbdbe44a4	-0.09290436
10	0xbe3bd44a	-0.183427
11	0xbba9697a	-0.0051700445
12	0x3da9392c	0.08262858
13	0xbde2c5f9	-0.110729165
14	0xbd3916a5	-0.04518761
15	0xbb88b3b6	-0.004171814
16	0x3e09cd0a	0.13457122
17	0x3de3fd29	0.11132271
18	0xbda50c79	-0.080590196
19	0x3b3469b4	0.0027528824
20	0x3f80f233	1.0073913
21	0x3d0970f3	0.033554982
22	0xbd2edcc6	-0.042691015
23	0x3d9bbacf	0.0760399
24	0xbdb4f826	-0.08836393
25	0xbd59fa2c	-0.053217098
26	0x3dc9e4bd	0.098580815
27	0xbdeada8d	-0.114674665
28	0xbe0057b9	-0.12533464
29	0xbdbc1e2a	-0.09185441
30	0x3dadd9fd	0.084888436
31	0xbd6bb6a6	-0.057547234
32	0xbe18011e	-0.14844176
33	0xbe0323f7	-0.12806688
34	0x3d028013	0.031860422
35	0xbcb4fc47	-0.022092951
36	0x3cc9ce68	0.024634555
37	0xbcdee43e	-0.027208444
38	0xbb0a20fc	-0.002107679
39	0x3dbed286	0.09317498
40	0xbcaeb00f	-0.021324186
41	0x3d674c8b	0.05646948
42	0xbd400841	-0.04688287
43	0xbeabb11e	-0.33533567
44	0xbcb19bc5	-0.021680722
45	0xbda95282	-0.0826769
46	0x3de8fd39	0.113764234
47	0xbccdf4b4	-0.025141098
48	0x3d88885d	0.06666634
49	0xbe1c8531	-0.15285183
50	0xbe1221c9	-0.142707
51	0xbd2de902	-0.04245854
52	0xbe05557a	-0.13020888
53	0x3e0da663	0.13833003
54	0x3d955c20	0.07292962
55	0x3d84009d	0.064454295
56	0xbdbb9778	-0.0915975
57	0x3daba7af	0.083815925
58	0xbe529e79	-0.20568265
59	0xbe24fcd2	-0.16112068
60	0xbcd306a1	-0.025759997
61	0xbd2b44ef	-0.041813787
62	0xbd0c1a7b	-0.03420494
63	0x3ba2cbbb	0.004968134
64	0xbba9cd90	-0.0051819757
65	0x3da26ce3	0.07930925
66	0x3c8a3a03	0.016873365
67	0xbc04616b	-0.008079867
68	0xbdae6fe0	-0.08517432
69	0xbd06b7f2	-0.032890268
70	0xbf1c8b9e	-0.6115054
71	0xbce014ad	-0.027353609
72	0x3c05d662	0.008168789
73	0xbdcd3216	-0.10019319
74	0x3d5fe250	0.054659188
75	0xbe1b5583	-0.15169339
76	0xbd2f9565	-0.042867083
77	0xbd8f2447	-0.06989341
78	0xbe0c0d37	-0.13676916
79	0xbe0b2e0e	-0.13591787
80	0xbdffbd24	-0.124872476
81	0xbe395051	-0.18097045
82	0xbdf228dc	-0.118241996
83	0xbc864e58	-0.01639478
84	0xbbe7a582	-0.0070692906
85	0xbde9065d	-0.11378167
86	0xbd36cdd7	-0.044629898
87	0xbd2b2922	-0.041787274
88	0xbe0323d8	-0.12806642
89	0xbc8bb8c1	-0.017055871
90	0xbe9217c4	-0.28533757
91	0xbd01c99f	-0.03168642
92	0x3e8180d5	0.25293604
93	0xbe62789b	-0.2211632
94	0xbe483f3b	-0.1955537
95	0xbe0dd1ba	-0.13849536
96	0x3d75f10c	0.060044333
97	0x3d5543f0	0.052066743
98	0x3bf9c4db	0.007622344
99	0xbd935e50	-0.07195723
100	0x3dee90be	0.11648701
101	0xbbd12c3f	-0.0063834484
102	0xbddf0ec2	-0.10891487
103	0xbd321c62	-0.0434841
104	0x3db64b05	0.089010276
105	0x3d52d99c	0.05147706
106	0xbcce799f	-0.025204478
107	0x3dbff9ce	0.09373818
108	0xbd285b40	-0.041102648
109	0x3c35c038	0.011093192
110	0x3d9febe2	0.07808663
111	0xbdfe17e5	-0.12406901
112	0xbba5f2cc	-0.005064344
113	0xbd0fb1f8	-0.035081834
114	0x3d0c670c	0.03427796
115	0x3d226950	0.039651215
116	0xbc37f847	-0.0112286275
117	0xbdfa5be5	-0.12224559
118	0xbd8a918b	-0.06766041
119	0x3dcca982	0.099932685
120	0xbe180a12	-0.14847592
121	0x3d976ea4	0.0739415
122	0xbcfbf3a4	-0.030755825
123	0xbd9fbcb8	-0.07799667
124	0xbe0f67a3	-0.14004378
125	0xbc9efe95	-0.019408504
126	0xbc87951d	-0.016550595
127	0x3d882919	0.06648464
128	0x3d6fc446	0.05853679
129	0xbde74b45	-0.112936534
130	0x3ce4c90d	0.0279279
131	0x3d689812	0.05678565
132	0xbce664b9	-0.0281242
133	0xbdb05fa9	-0.08611996
134	0x3c132a21	0.008982212
135	0xbe3f3656	-0.18673071
136	0x3d94f1b1	0.072726615
137	0xbd9426f3	-0.072339915
138	0xbb95881b	-0.004563344
139	0x3d1a3c30	0.037655056
140	0x3c8f8d7b	0.017523518
141	0x3d89ed6a	0.06734736
142	0xbde886a1	-0.113538034
143	0x3dae80dc	0.08520672
144	0xbd8c819a	-0.06860657
145	0x3d41832a	0.04724423
146	0xbceb2115	-0.028702298
147	0x3cc15d29	0.023603993
148	0xbcb4ade1	-0.022055568
149	0xbc037988	-0.008024581
150	0xb9dec2dd	-0.00042488324
151	0x3cb6ecd3	0.022329723
152	0x3b5c8239	0.0033646955
153	0xbde5dbfb	-0.112235986
154	0xbdef6276	-0.11688702
155	0x3dd4e3dd	0.10395024
156	0xbdb5944d	-0.08866177
157	0xbe0b6ddf	-0.13616131
158	0xbc93eecc	-0.018058203
159	0xbe043b3c	-0.12913221
160	0xbcbc0e46	-0.022956025
161	0xbdbd1e4f	-0.092342965
162	0xbdf078eb	-0.11741813
163	0xbdb2b460	-0.0872581
164	0x3db0719e	0.08615421
165	0xbe044e56	-0.12920508
166	0x3d56c71b	0.052435976
167	0x3d49ecf9	0.04929826
168	0xbd606562	-0.054784186
169	0xbe82595b	-0.25458798
170	0x3f8b846a	1.0899785
171	0x3cb1c341	0.02169955
172	0x3d829227	0.063755326
173	0xbdbdfe63	-0.09277036
174	0x3c1a54a5	0.009419595
175	0xbd9a31c4	-0.07529023
176	0x3dbe5113	0.092928074
177	0xbd876f4d	-0.06613026
178	0xbe066c75	-0.1312731
179	0xbe2d6ad6	-0.16935286
180	0xbe356c62	-0.17717126
181	0x3d569539	0.052388404
182	0xbe1b3b4a	-0.15159336
183	0xbdd6e61e	-0.1049311
184	0xbd53c35a	-0.051699974
185	0x3d9dc053	0.077026986
186	0xbd61376e	-0.054984502
187	0xbc6a57eb	-0.014303188
188	0x3debf065	0.11520461
189	0x3dc40fc0	0.095733166
190	0xbe6c34f8	-0.23067081
191	0x3d6817ba	0.056663252
192	0x3e134d12	0.14384869
193	0xbeb6ab0c	-0.35677373
194	0xbdc30369	-0.09522135
195	0x3df3fd9c	0.119136065
196	0x3d5b5766	0.053550147
197	0x3b86364d	0.0040958286
198	0xbda0ff74	-0.07861224
199	0xbc40945c	-0.011754122

bias_hh_l0 f4 [200]
0	0x3de4f428	0.111793816
1	0x3d94659e	0.072459444
2	0x3dd09786	0.10185151
3	0x3d795bad	0.060878444
4	0x3da1e813	0.07905593
5	0xbd8c56f4	-0.068525225
6	0xbcd47f5f	-0.025939642
7	0xbe1f0644	-0.15529734
8	0xbb642824	-0.0034813965
9	0x3da613cb	0.08109244
10	0xbdd011ba	-0.10159631
11	0xbdf53268	-0.11972505
12	0xbd84d6a7	-0.06486254
13	0xbde87d83	-0.113520645
14	0x3dbc9927	0.09208899
15	0xbcd58a66	-0.02606697
16	0x3ceb8d21	0.028753819
17	0xbdc9d908	-0.098558486
18	0x3c2e0d9f	0.010623365
19	0xbd956cc5	-0.07296137
20	0x3f9a73bf	1.2066573
21	0xbd102f41	-0.035201315
22	0x3d47749c	0.04869519
23	0xbe019430	-0.12654185
24	0x3d6841d6	0.05670341
25	0x3cebaeff	0.028769968
26	0x3e0bb6f5	0.13644011
27	0x3d09001f	0.03344738
28	0xba84f4e7	-0.0010143787
29	0x3d7ffbf8	0.062496156
30	0xbcd5509d	-0.026039416
31	0xbe2fcfe4	-0.17169148
32	0xbdbc1c04	-0.09185031
33	0xbdc2a744	-0.0950456
34	0x3cdb1675	0.026744107
35	0xbda8ae7f	-0.082364075
36	0xbe30ef54	-0.17278796
37	0xbbb06227	-0.0053827944
38	0xbd495bb6	-0.049159728
39	0x3d2b3477	0.04179808
40	0xbd8d7fb6	-0.069091246
41	0x3da7404f	0.08166563
42	0x3da61d76	0.08111088
43	0xbea57fdb	-0.32324108
44	0x3bd1e11d	0.0064050094
45	0x3dc1c77c	0.09461877
46	0xbdeff3b7	-0.11716407
47	0x3c6a8a96	0.014315268
48	0x3e0914f9	0.13386907
49	0xbd00ead4	-0.03147395
50	0x3de7b23a	0.11313291
51	0x3d725f16	0.059172712
52	0x3dd3e390	0.103461385
53	0x3daecd4c	0.08535251
54	0x3db0dce8	0.086358845
55	0xbdc8257a	-0.09772773
56	0x3ce109e8	0.027470544
57	0x3e10cc10	0.14140344
58	0xbdb907f4	-0.0903472
59	0x3daed831	0.08537329
60	0x3d817e91	0.06322969
61	0xbd93eb3d	-0.072226025
62	0xbc398ddd	-0.011325327
63	0xbe1084ee	-0.14113209
64	0xbe1e85cc	-0.15480727
65	0x3dca1264	0.09866789
66	0xbd179a16	-0.037012182
67	0xbe05c4cf	-0.13063358
68	0xbd94901a	-0.07254048
69	0xbdf4e6ce	-0.11958085
70	0xbf00de5a	-0.5033928
71	0x3b5b2e06	0.003344418
72	0x3d29af18	0.041426748
73	0x3d8f26a5	0.06989793
74	0xbe055771	-0.13021637
75	0x3c01e823	0.007928881
76	0x3dc4de90	0.09612763
77	0xbdf37b2e	-0.11888729
78	0x3bda7c8e	0.00666768
79	0x3d93f9ac	0.072253555
80	0xbd2521e9	-0.040315542
81	0xbe73b50d	-0.23799534
82	0x3db93a73	0.090443514
83	0xbe252f37	-0.16131292
84	0xbe326d6b	-0.17424552
85	0xbbde00e3	-0.006775008
86	0xbe333ae6	-0.17502937
87	0x3dc7d228	0.09756881
88	0x3d0d39cb	0.034478944
89	0x3df66a78	0.12032026
90	0xbe431e60	-0.19054556
91	0xbdc655f5	-0.09684364
92	0x3eb9bf88	0.3627894
93	0xbdfb0029	-0.1225589
94	0xbe71e9b0	-0.23624301
95	0x3d6ee7fd	0.05832671
96	0x3d100503	0.03516103
97	0x3bb90ce7	0.00564729
98	0x3c468bf0	0.012118325
99	0xbdd031da	-0.101657584
100	0xbc9043e0	-0.01761049
101	0xbc123f5f	-0.008926242
102	0xba72686d	-0.0009247128
103	0xbd604f19	-0.054762933
104	0xbce4d16e	-0.027931895
105	0x3cbd8cf4	0.0231385
106	0xbd63631e	-0.055514447
107	0x3ca866a3	0.020556754
108	0x3bf630b5	0.0075131305
109	0x3d426d40	0.04746747
110	0xbdfde4b3	-0.123971365
111	0x3da4b11c	0.080415934
112	0x3d81e950	0.06343329
113	0xbd82d36f	-0.06387984
114	0x3d814d1d	0.06313536
115	0x3e35590a	0.17709747
116	0x3d562e62	0.052290328
117	0x3d2b0c47	0.041759755
118	0x3d062e6a	0.032759108
119	0xbda0e1e2	-0.07855584
120	0xbb3abbda	-0.0028493316
121	0x3cee6377	0.029100163
122	0xbdcf42ad	-0.10120139
123	0x3e088211	0.13330866
124	0xbe2bef26	-0.16790447
125	0x3d3ab0b9	0.045578692
126	0xbc2242a9	-0.009903588
127	0xbdd3d335	-0.10343019
128	0xbc685a00	-0.014181614
129	0xbbb05808	-0.005381588
130	0xba2be14c	-0.0006556704
131	0xbdb39897	-0.087693386
132	0x3dcec2f6	0.100957796
133	0x3d68bc4e	0.056820206
134	0x3d719202	0.058977135
135	0x3d16874a	0.036750115
136	0x3c9be4f7	0.019030077
137	0x3daa623f	0.0831952
138	0xbe03a462	-0.12855676
139	0x3d36edb7	0.044660296
140	0x3d715f24	0.058928624
141	0xbdd4f60f	-0.103984945
142	0x3d8c67ae	0.06855713
143	0xbd2ed8cf	-0.042687234
144	0xbd16a048	-0.03677395
145	0x3da4061e	0.08008979
146	0xbc6bad92	-0.014384644
147	0xbd8137ca	-0.06309469
148	0xbcc911d8	-0.024544641
149	0x3dab0362	0.083502546
150	0xbdd69a5e	-0.10478662
151	0xbbb7575c	-0.005595131
152	0xbdca46a7	-0.09876757
153	0x3db20d24	0.086939126
154	0x3d099cf9	0.033596966
155	0xbc7ff67e	-0.015622733
156	0x3d30c9b5	0.043161113
157	0xbe187b9a	-0.148909
158	0xbdd11a45	-0.10210089
159	0xbd367cdd	-0.044552673
160	0xbde6cbee	-0.11269365
161	0x3ddea37d	0.10871027
162	0x3dcd57c4	0.100265056
163	0xbd553547	-0.052052762
164	0xbd8c4824	-0.06849697
165	0xbe28ac62	-0.16472009
166	0xbdf45182	-0.11929609
167	0x3b3f9861	0.0029235112
168	0x3bee1245	0.0072653615
169	0xbe7ac8e0	-0.2449069
170	0x3f92b9c5	1.1462942
171	0xbdec6016	-0.115417644
172	0xbe054e4b	-0.13018148
173	0xbe049211	-0.12946345
174	0x3d8a0129	0.067385025
175	0xbda178f9	-0.07884402
176	0xbd58b9bf	-0.052911516
177	0x3d89bfc2	0.06726028
178	0xbdde574b	-0.108564936
179	0xbd7c17be	-0.06154608
180	0xbde9ee2e	-0.11422382
181	0xbe1638f2	-0.1467016
182	0xbb73ec3a	-0.003721966
183	0xbdfa231b	-0.12213727
184	0x3d1627a5	0.0366589
185	0xbd3a19fd	-0.04543494
186	0xbe26d350	-0.16291547
187	0x3da4027f	0.080082886
188	0x3d72ecdc	0.059307918
189	0xbdc44354	-0.09583154
190	0xbe7c8470	-0.24659896
191	0x3d856c4b	0.06514796
192	0x3e252e48	0.16130936
193	0xbea29bc6	-0.3175947
194	0xbd9f5449	-0.07779748
195	0x3da55c90	0.080742955
196	0x3d8acc84	0.067772895
197	0x3d5c3d41	0.053769354
198	0x3d78b1d4	0.060716465
199	0xbe0712eb	-0.1319081

weight_ih_l1 f4 [200, 50]
0	0xbdacc387	-0.084357314
1	0xbd2eb18b	-0.042649787
2	0x3de390e7	0.11111622
3	0x3d755a00	0.059900284
4	0x3dcba556	0.09943645
5	0x3d443e57	0.047911014
6	0x3da06e2b	0.07833513
7	0xbd4d96d8	-0.050192684
8	0x3c6c8455	0.014435847
9	0x3d615528	0.055012852
10	0xbaf972f9	-0.0019031457
11	0xbd801a29	-0.0625499
12	0x3c8646aa	0.016391117
13	0xbcef2c73	-0.029196
14	0xbdb43819	-0.08799762
15	0xbb9a2de1	-0.004705176
16	0xbde43ea1	-0.11144758
17	0x3e0e91fc	0.13922876
18	0x3dbc6661	0.09199215
19	0x3cb7659e	0.022387322
20	0x3d3165cb	0.043309968
21	0xbd73753c	-0.059437975
22	0xbdd25d92	-0.10271753
23	0xbe35f60f	-0.17769645
24	0xbd3b5692	-0.045736857
25	0xbe698dc7	-0.2280799
26	0x3dbd947a	0.09256835
27	0x3dcb626f	0.09930884
28	0x3cc3ef1d	0.023917729
29	0x3de2bad0	0.11070788
30	0x3d8c4bd8	0.068504035
31	0x3dcfb095	0.10141102
32	0x3d0e227b	0.034700852
33	0xbc257052	-0.01009758
34	0xbdc7d637	-0.09757655
35	0x3e521f09	0.20519651
36	0xbdbcea71	-0.09224404
37	0xbdc5bf4b	-0.09655627
38	0x3da4d15c	0.08047745
39	0x3d5f0f94	0.054458216
40	0x3e43d94d	0.19125862
41	0xbd9c21b8	-0.07623619
42	0xbda5f5af	-0.08103501
43	0x3d4a0059	0.049316738
44	0xbde50801	-0.11183167
45	0x3d9f1ba0	0.07768941
46	0x3c3f257a	0.01166665
47	0x3c540f7b	0.012943144
48	0x3d840746	0.064467
49	0xbda3c7b8	-0.07997078
50	0xbe4f27d9	-0.20230044
51	0xbd405ef5	-0.046965558
52	0xbd9ea516	-0.077463314
53	0xbdd9418c	-0.10608205
54	0xbdb59074	-0.08865443
55	0x3ddcc22b	0.10779222
56	0x3d7d3716	0.061820112
57	0xbe011b1d	-0.12607999
58	0x3d6d226e	0.057894163
59	0x3bfa74f2	0.0076433355
60	0xbe08b2ae	-0.13349411
61	0x3e271eba	0.16320315
62	0xbd11212e	-0.035432033
63	0x3dd33426	0.10312681
64	0xbdfc4043	-0.123169445
65	0x3ddf87e1	0.10914589
66	0x3ddba1c9	0.107242174
67	0xbe09a48a	-0.13441673
68	0x3e184f2c	0.14873952
69	0x3d258c84	0.04041721
70	0x3f369131	0.71315295
71	0xbd8a4849	-0.067520685
72	0xbd253329	-0.040331993
73	0xbd9f4aaa	-0.07777913
74	0xbe93f408	-0.2889712
75	0xbe74ca5f	-0.23905323
76	0xbce1b190	-0.027550489
77	0x3db8d625	0.0902522
78	0xbd2ed6c7	-0.042685296
79	0x3e18dd1d	0.14928098
80	0x3e08a5e1	0.13344528
81	0x3e0554d7	0.13020645
82	0x3e01097f	0.12601279
83	0x3d37f4e5	0.044911284
84	0x3d7c67dd	0.06162249
85	0x3cc4cf7a	0.024024714
86	0xbe206d8a	-0.15666786
87	0x3dc03778	0.0938558
88	0x3d0d1256	0.034441315
89	0xbe014469	-0.12623753
90	0x3c99b00b	0.018760702
91	0x3d5946fc	0.05304621
92	0xbf5a7d04	-0.8534701
93	0xbe3f26ba	-0.18667117
94	0x3db8237c	0.08991143
95	0x3d1d44d8	0.038395733
96	0xbd9cf28b	-0.07663449
97	0x3e6d560a	0.23177353
98	0xbe688e16	-0.22710451
99	0xbe95338e	-0.29140896
100	0xbe1115dd	-0.14168496
101	0xbd79320b	-0.06083874
102	0x3cf598f5	0.029980162
103	0xbcdbf682	-0.026850943
104	0x3d13fd8c	0.036130473
105	0xbdb9b208	-0.0906716
106	0x3ce92e9f	0.028464613
107	0xbe2d3403	-0.16914372
108	0xbb87d8c6	-0.0041457145
109	0x3d655b5f	0.05599534
110	0xbda08a6a	-0.078389004
111	0x3cfaa9d3	0.030598557
112	0xbe08e0c6	-0.13366994
113	0xbd9478bd	-0.072495915
114	0xbd4f01f1	-0.05053896
115	0x3de06f6b	0.10958751
116	0x3cdcbe9d	0.02694636
117	0x3e11638c	0.1419813
118	0xbb959216	-0.004564534
119	0x3cb19803	0.02167893
120	0x3e989481	0.298008
121	0xbcf520e7	-0.029922916
122	0xbd05f8ce	-0.03270798
123	0x3d31cd31	0.043408576
124	0x3df36f9e	0.11886524
125	0xbe1c54d9	-0.15266742
126	0x3d37ec25	0.04490294
127	0x3c715f18	0.014732145
128	0x3dbfd2a4	0.093663484
129	0x3bb8b1dc	0.005636437
130	0x3d011cef	0.031521734
131	0x3d8dd4c0	0.069253445
132	0x3c22e672	0.009942638
133	0x3db6c362	0.08923985
134	0xbe34fc66	-0.17674407
135	0x3e083aad	0.13303633
136	0xbd245c5c	-0.040127143
137	0xbda34aef	-0.07973277
138	0xbd84951f	-0.06473755
139	0xbcf89cea	-0.03034826
140	0x3de13dd6	0.109981224
141	0x3e2a429a	0.16626969
142	0x3e1b4203	0.151619
143	0x3dd2593e	0.10270928
144	0xbd50d32f	-0.05098265
145	0x3cfac665	0.03061218
146	0x3d9980f3	0.07495298
147	0xbd3a7159	-0.045518253
148	0xbd825913	-0.06364646
149	0xbe43d6d6	-0.19124922
150	0x3d8dc57c	0.06922433
151	0xbdd71503	-0.105020545
152	0xbde8e3ce	-0.11371575
153	0xbe06ab49	-0.13151278
154	0xbe15238a	-0.14564338
155	0xbd9cccc5	-0.07656244
156	0xbca55914	-0.020184077
157	0xbddc4064	-0.10754469
158	0xbd08d16d	-0.03340285
159	0x3d8003b5	0.06250707
160	0xbd9ff841	-0.078110225
161	0xbdbbe7ad	-0.09175048
162	0x3c786c71	0.015162573
163	0x3da7bfeb	0.08190902
164	0x3d24464c	0.040106103
165	0xbe092ff5	-0.133972
166	0xbd61f081	-0.055161003
167	0x3daee49e	0.08539699
168	0x3bacc323	0.0052722855
169	0xbd79eab4	-0.061014846
170	0x3debbc38	0.11510509
171	0x3deb018e	0.11474906
172	0xbdf95398	-0.12174147
173	0xbc8579a1	-0.016293349
174	0xbe153b3c	-0.14573377
175	0xbe0232b1	-0.1271465
176	0x3d335cb2	0.043789573
177	0xbd8c32de	-0.0684564
178	0xbde59ab9	-0.11211152
179	0x3e273575	0.16328986
180	0xbc2d6c3e	-0.010584889
181	0x3cdcfd90	0.026976377
182	0xbd9369a5	-0.071978845
183	0x3daa0da3	0.08303382
184	0xbde4c102	-0.11169626
185	0x3dacabb1	0.08431185
186	0x3db39514	0.08768669
187	0xbdd0c58c	-0.10193929
188	0xbda3ab54	-0.079916626
189	0xbd8e48a2	-0.06947447
190	0x394026e7	0.00018325039
191	0xbd76a0db	-0.060211997
192	0x3bd745c8	0.006569598
193	0x3e0f1b5c	0.1397528
194	0x3c1a67f8	0.009424202
195	0xbd6e61ab	-0.058198612
196	0x3df02ee4	0.11727694
197	0x3d34844b	0.044071477
198	0xbddb32e1	-0.10703064
199	0x3d11f6dd	0.035635818
200	0x3afb0b80	0.0019153208
201	0xbd896ab7	-0.06709807
202	0x3d9d4bfe	0.0768051
203	0xbd80fbf2	-0.06298055
204	0xbda5cab5	-0.08095304
205	0x3a662f7b	0.0008780879
206	0xbe12c282	-0.14332011
207	0xbd82631f	-0.06366562
208	0xbe11c223	-0.14234214
209	0xbced7484	-0.028986223
210	0x3e256f30	0.16155696
211	0xbdd0088b	-0.101578794
212	0xbd782655	-0.06058343
213	0xbda37e4a	-0.07983072
214	0xbe19a0f2	-0.15002802
215	0x3dc0232f	0.09381711
216	0x3d942271	0.07233132
217	0xbd0e4338	-0.034732074
218	0xbd71b70b	-0.059012454
219	0x3dec0977	0.11525243
220	0xbe81595d	-0.2526349
221	0xbc8b9717	-0.017039819
222	0xbd5982c7	-0.053103235
223	0xbdf9f055	-0.12204043
224	0xbdc4a4fb	-0.0960178
225	0xbdb9037c	-0.09033868
226	0xbde49544	-0.11161283
227	0x3ccec367	0.02523966
228	0x3de8aaf4	0.11360732
229	0x3d4331af	0.047654804
230	0x3da44336	0.08020632
231	0x3c1091ad	0.008823794
232	0x3da4d09f	0.08047604
233	0x3dd69e49	0.10479409
234	0x3d3a5860	0.045494437
235	0x3cb02116	0.021500152
236	0xbd2984dc	-0.04138647
237	0xbde09ef7	-0.1096782
238	0x3c9b83e7	0.018983794
239	0xbe1f6bfb	-0.15568535
240	0x3c0f8bdb	0.0087613715
241	0x3d6ab0e0	0.057297587
242	0xbda9d598	-0.08292693
243	0xbcbbbb7d	-0.02291655
244	0xbcaa7265	-0.0208065
245	0x3d089715	0.033347208
246	0xbce46f63	-0.027885145
247	0x3e093c75	0.13401969
248	0x3c8f16fe	0.017467018
249	0xbde4ed13	-0.11178031
250	0xbdb6764e	-0.089092836
251	0xbc10f07c	-0.008846398
252	0x3e312bb4	0.17301828
253	0x3cbc8d1f	0.02301651
254	0xbd0bca52	-0.034128495
255	0x3decbaa0	0.115590334

weight_hh_l1 f4 [200, 50]
0	0x3db167b8	0.08662361
1	0x3e4b5f2c	0.19860524
2	0x3d1e2a25	0.03861441
3	0x3d3d2190	0.046174586
4	0x3cd01c50	0.025404125
5	0x3c6f14b9	0.014592343
6	0xbc9fdfc0	-0.019515872
7	0x3d7047e0	0.058662295
8	0x3bbdc942	0.005791814
9	0xbdaa65cc	-0.083201975
10	0xbe415e26	-0.18883571
11	0x3e3ae8cd	0.18252869
12	0xbe4d8816	-0.20071444
13	0xbcace6b8	-0.021106109
14	0x3d8a695e	0.067583784
15	0xbce072f7	-0.02739857
16	0xbde1637c	-0.11005303
17	0x3d6e8988	0.05823663
18	0x3dd780ac	0.10522589
19	0xbdb98cb5	-0.09060041
20	0x3d92bda4	0.07165077
21	0x3cdd0b22	0.026982848
22	0x3d7f2e23	0.06229986
23	0x3dc31d42	0.09527065
24	0xbd2fa8e7	-0.042885687
25	0xbb7c57c3	-0.0038504458
26	0x3e0682d4	0.13135844
27	0xbda7de06	-0.081966445
28	0x3d9647d0	0.07337916
29	0x3e0e8bee	0.13920566
30	0xbdc90d7e	-0.098170266
31	0x3cc068b1	0.02348742
32	0xbda84ce4	-0.08217791
33	0x3dd3e7c7	0.103469424
34	0x3c753e89	0.014968523
35	0x3d70353e	0.058644526
36	0xbe233cee	-0.15941212
37	0x3c9ec6e0	0.01938194
38	0xbd0fa426	-0.035068654
39	0x3e4531e6	0.19257316
40	0xbbcde6f1	-0.006283634
41	0xbdf073aa	-0.11740811
42	0x3d6b5b30	0.05746001
43	0x3d9161c2	0.07098724
44	0xbd2be69a	-0.041967966
45	0xbda37905	-0.07982067
46	0x3df330a0	0.11874509
47	0x3dfdf59e	0.124003634
48	0x3e07ac5d	0.13249345
49	0x3ae9b087	0.0017829099
50	0xbd8562aa	-0.06512959
51	0x3e0ce87e	0.13760564
52	0x3cea5a4a	0.028607506
53	0x3d498f5b	0.04920898
54	0x3d2d5800	0.04232025
55	0x3cc6d3dc	0.024270944
56	0x3e10810f	0.14111732
57	0x3ddb577d	0.107100464
58	0xbc063a91	-0.008192674
59	0x3c91524b	0.017739436
60	0xbdcbed8f	-0.0995742
61	0x3e4bea9c	0.19913715
62	0xbd1af6e7	-0.03783312
63	0x3d33a19d	0.0438553
64	0xbd7657f0	-0.060142457
65	0xbd94423b	-0.07239195
66	0x3dda8349	0.10669572
67	0x3e221f6c	0.15832299
68	0x3e01ea02	0.12686923
69	0xbda93443	-0.08261921
70	0xbdcb6dd9	-0.09933061
71	0x3e1a9469	0.15095676
72	0x3dba419a	0.09094544
73	0x3da40d8c	0.08010396
74	0x3e127069	0.14300694
75	0xbdf2fbd5	-0.118644394
76	0xbd0c635c	-0.034274444
77	0xbc63f1c5	-0.013912623
78	0xbb916174	-0.004436666
79	0x3e374a88	0.17899525
80	0x3da11663	0.07865598
81	0x3dc07e82	0.093991295
82	0xbd2c023e	-0.041994326
83	0xbd88719c	-0.06662294
84	0xbe8a581b	-0.27020344
85	0xbda93fe5	-0.0826414
86	0x3db7256e	0.08942686
87	0xbdab8204	-0.08374408
88	0xbe1226a6	-0.14272556
89	0xbd0b3143	-0.033982527
90	0x3e641b54	0.2227605
91	0x3d2c72d4	0.042101696
92	0x3e7d5002	0.24737552
93	0xbd864f2f	-0.06558072
94	0x3c597e61	0.01327476
95	0x3d073d9f	0.03301775
96	0xbd88444c	-0.066536516
97	0xbc4ee7a1	-0.012628467
98	0xbdf26c88	-0.11837107
99	0xbd88afb4	-0.06674138
100	0x3e1f4be3	0.15556292
101	0x3d674001	0.056457523
102	0xbb8124da	-0.0039411606
103	0xbc965dd6	-0.018355291
104	0x3d55cbfb	0.052196484
105	0x3cb6f932	0.022335622
106	0x3e269d8a	0.16271034
107	0x3e138876	0.14407524
108	0xbd473ef6	-0.04864403
109	0x3d88d771	0.06681717
110	0x3da55c93	0.08074298
111	0xbe17e530	-0.14833522
112	0x3dfb73f4	0.12277976
113	0xbdd70ee8	-0.1050089
114	0x3cc2d071	0.023781033
115	0x3d73d552	0.05952961
116	0xbb9ad8ba	-0.004725543
117	0xbdce8b74	-0.10085192
118	0x3d8621b3	0.06549396
119	0xbd6945e7	-0.05695143
120	0xbc2695a2	-0.010167511
121	0x3e0b68ea	0.1361424
122	0xbb24fe81	-0.002517611
123	0xbe044592	-0.12917164
124	0xbcc5adfc	-0.024130814
125	0xbc22af94	-0.009929556
126	0xbcd987ab	-0.02655395
127	0xbcde965c	-0.027171306
128	0x3d28a6ee	0.04117482
129	0xbc0cefa8	-0.00860206
130	0x3cd72e2b	0.026267132
131	0x3c5c8cc6	0.013461297
132	0xbbed1b9c	-0.0072359573
133	0x3dce4ee4	0.10073641
134	0xbd62bb68	-0.055354506
135	0xbcc66102	-0.024216179
136	0x3d964e7f	0.07339191
137	0x3dd6e729	0.10493309
138	0xbdcdfbdd	-0.10057805
139	0xbd30b2ad	-0.04313915
140	0x3d3be3d0	0.045871556
141	0xbd5c55dc	-0.05379282
142	0xbdce6ffd	-0.10079954
143	0xbe32abb6	-0.17448315
144	0xbcba17bd	-0.022716397
145	0xbdd7f3bf	-0.10544538
146	0xbe2f342b	-0.17109744
147	0x3e219cf0	0.15782523
148	0x3e1125de	0.14174601
149	0xbdf21dbd	-0.118220784
150	0x3d4a5ed0	0.049406826
151	0x3e18e135	0.1492966
152	0x3c08ab60	0.00834164
153	0x3dc38b80	0.09548092
154	0x3e1311a9	0.14362206
155	0xbd7d7dc7	-0.06188753
156	0x3db76e21	0.08956552
157	0x3d031a38	0.032007426
158	0x3d38a3c2	0.045078047
159	0xbd598e7d	-0.053114403
160	0xbd1b1218	-0.037859052
161	0x3dc13a53	0.094349526
162	0x3d4ec803	0.050483715
163	0xbdc4fc75	-0.09618465
164	0xbd07b40c	-0.03313069
165	0x3dafda51	0.085865624
166	0xbde9841a	-0.114021495
167	0x3b438efe	0.0029839869
168	0x3d881aaf	0.066457145
169	0xbe0fd3ad	-0.14045592
170	0x3daf4d39	0.08559651
171	0x3e177c03	0.147934
172	0x3da16e76	0.07882397
173	0xbdf60311	-0.120123036
174	0x3dbb86ea	0.09156592
175	0xbe227f2a	-0.15868822
176	0x3d490d59	0.049084995
177	0xbdbd0d84	-0.092310935
178	0x3de4f46d	0.11179433
179	0x3d690143	0.05688597
180	0x3d81569a	0.06315346
181	0x3d0d39fa	0.03447912
182	0xbcd8539b	-0.026407054
183	0x3daf1fac	0.08550963
184	0x3d889db5	0.06670705
185	0xbdd4f0dc	-0.10397503
186	0xbe368c98	-0.1782707
187	0x3e1db1e9	0.15399899
188	0x3e19e602	0.15029147
189	0x3d50eac7	0.05100515
190	0x3cd10667	0.025515748
191	0x3cd03a2b	0.025418362
192	0x3e14d4b0	0.14534259
193	0xbe04d6fc	-0.12972635
194	0xbcb6f53a	-0.02233373
195	0xbde2c70f	-0.11073124
196	0x3db0a865	0.08625869
197	0x3dde8c2e	0.10866581
198	0xbd376b96	-0.044780336
199	0x3de734dc	0.11289379
200	0xbda80f43	-0.08206036
201	0x3c9a7505	0.018854627
202	0x3c29b269	0.010357478
203	0xbe2e1864	-0.17001492
204	0xbddbb106	-0.10727124
205	0x3dd2fe84	0.10302451
206	0xbdb769b6	-0.0895571
207	0xbdb720cc	-0.089418024
208	0xbc9de6a6	-0.01927502
209	0xbccd3a7c	-0.025052302
210	0x3ddded1f	0.10836243
211	0xbd147e0c	-0.03625302
212	0x3ccdd2d1	0.02512494
213	0xbdedf69e	-0.11619304
214	0x3d74b6ff	0.05974483
215	0x3e11bf48	0.14233124
216	0x3d024fd4	0.03181441
217	0xbd8b3cfb	-0.067987405
218	0x3dbf95da	0.09354754
219	0xbdfba78e	-0.12287818
220	0xbda9a05f	-0.082825415
221	0xb9b977c8	-0.00035375194
222	0xbe2f10bf	-0.17096232
223	0x3cf8d551	0.030375155
224	0xbdab4789	-0.083632536
225	0xbe1d5998	-0.15366209
226	0xbd27c53a	-0.040959574
227	0xbe0c5b93	-0.13706808
228	0xbc108b52	-0.008822279
229	0x3d66e08d	0.056366492
230	0xbd8ec94a	-0.069719866
231	0x3dd7c6c6	0.1053596
232	0x3dd6d958	0.10490674
233	0xbd392b9d	-0.04520761
234	0xbd886086	-0.066590354
235	0xbca2446a	-0.019808013
236	0xbe1b0899	-0.15139998
237	0xbdc6699e	-0.09688114
238	0xbc87435c	-0.016511612
239	0x3d849946	0.06474547
240	0x3db84d70	0.08999145
241	0xbcb88545	-0.022524485
242	0x3e14dbf6	0.14537033
243	0x3c844715	0.016147176
244	0xbca4971c	-0.020091586
245	0xbe1607aa	-0.14651361
246	0xbd3e2da1	-0.046430234
247	0xbd5d24e8	-0.053990275
248	0x3c3bdfc9	0.011466929
249	0xbd8ec8fd	-0.06971929
250	0x3d5002ec	0.050784037
251	0xbcc52f93	-0.024070537
252	0xbe03858c	-0.12843913
253	0xbde120eb	-0.10992607
254	0xbc1390c4	-0.009006683
255	0x3daf5958	0.08561963

bias_ih_l1 f4 [200]
0	0xbd9b3ea3	-0.075803064
1	0xbd6d8104	-0.057984367
2	0xbcf2a561	-0.029619874
3	0xbe0c00ec	-0.13672227
4	0xbdef0777	-0.11671346
5	0xbe479b9b	-0.19492953
6	0x3da0b7b5	0.07847539
7	0x3cf36640	0.029711843
8	0x3d1193e0	0.035541415
9	0x3e028652	0.12746552
10	0xbc84824f	-0.016175417
11	0xbda61df0	-0.08111179
12	0xbc086794	-0.008325476
13	0x3dabe1b8	0.08392662
14	0xbbd29ac7	-0.0064271423
15	0xbdb59ec7	-0.08868175
16	0xbe18cc04	-0.14921576
17	0xbdb49b20	-0.0881865
18	0x3e0c5f3e	0.13708207
19	0xbdb188f8	-0.08668703
20	0x3e226cc9	0.1586181
21	0xbd4a836a	-0.049441732
22	0x3d9365c0	0.07197142
23	0x3ce96f85	0.02849556
24	0x3d876811	0.06611646
25	0xbe597d1c	-0.21239132
26	0x3c3f847a	0.0116893
27	0x3d4ac88d	0.049507666
28	0xbdd0b1c5	-0.10190157
29	0xbda50802	-0.08058168
30	0xbd3886dd	-0.04505049
31	0xbe0064ef	-0.12538503
32	0xbdcdd00c	-0.100494474
33	0xbde2cff7	-0.110748224
34	0xbdbba40f	-0.09162151
35	0xbd716b04	-0.05893995
36	0x3e313826	0.17306575
37	0xbd8fc5a5	-0.070201196
38	0xbe407b5f	-0.18797062
39	0x3e27107f	0.16314887
40	0xbe021b5d	-0.12705751
41	0xbd5bc47a	-0.05365417
42	0xbceafd43	-0.028685218
43	0x3de7f94e	0.11326848
44	0xbdde372c	-0.10850367
45	0x3d5dcbd7	0.054149475
46	0xbdde9f24	-0.108701974
47	0x3dbfb3aa	0.0936044
48	0xbdb1b8e5	-0.08677844
49	0x3bcb1866	0.006197977
50	0xbd6003d9	-0.05469117
51	0xbe00331a	-0.12519494
52	0xbe2ca5fe	-0.16860196
53	0xbcbb607b	-0.022873154
54	0x3d3ffdaf	0.04687279
55	0xbe19ad8d	-0.1500761
56	0xbb223496	-0.0024750582
57	0xbda7cfd1	-0.08193935
58	0x3d68b9ed	0.056817938
59	0x3d5cffcb	0.05395488
60	0xbdc7dfba	-0.09759469
61	0x3c729fd4	0.014808614
62	0xbdac330c	-0.08408174
63	0x3c87cc7c	0.016576998
64	0x3bd848cd	0.0066004754
65	0xbd49677b	-0.049170952
66	0x3dc84f7c	0.097807854
67	0x3ddadb98	0.106864154
68	0x3d839022	0.064239755
69	0xbc49533f	-0.012287914
70	0xbd220297	-0.03955325
71	0x3ddb40fd	0.10705755
72	0x3c9a74ae	0.018854465
73	0x3d110bad	0.035411526
74	0x3d8b9a2c	0.06816515
75	0xbe932a3e	-0.28743166
76	0xbc62ceb7	-0.01384323
77	0xbdb04773	-0.08607378
78	0xbe1503ab	-0.1455218
79	0xbe4708b5	-0.19436915
80	0xbe1160b9	-0.14197053
81	0xbdcb8dee	-0.0993918
82	0x3d266b68	0.040629774
83	0xbe07ae55	-0.13250096
84	0xbe426137	-0.18982397
85	0xbe2f7d57	-0.17137657
86	0xbe52e068	-0.20593417
87	0xbe213351	-0.15742232
88	0xbd104006	-0.035217308
89	0xbe2c939e	-0.16853186
90	0x3cfce816	0.030872386
91	0x3d544d67	0.05183163
92	0xbe238862	-0.15969995
93	0xbdb67e17	-0.089107685
94	0xbd9e0dd3	-0.077174805
95	0xbe4388d6	-0.19095168
96	0x3d1011f2	0.035173364
97	0x3e032129	0.12805618
98	0xbc97fc49	-0.018552916
99	0x3df52063	0.11969068
100	0xbcf6dd04	-0.030134685
101	0x3e0eb263	0.13935237
102	0x3d094188	0.03350976
103	0xbd57574e	-0.052573495
104	0xbe04ffb8	-0.12988174
105	0x3dd2330b	0.10263642
106	0xbe37f321	-0.1796384
107	0xbdccd709	-0.10001952
108	0xbdad010d	-0.08447466
109	0x3dff64c7	0.12470394
110	0x3da07b41	0.07836009
111	0x3dc745ae	0.09730087
112	0xba693bc8	-0.0008897153
113	0x3d92a6d3	0.071607254
114	0xbd97c578	-0.07410711
115	0xbd7ce6a2	-0.061743386
116	0xbd74c67e	-0.05975961
117	0x3e508b94	0.20365745
118	0x3e6abe1d	0.22924085
119	0x3e2ff639	0.1718377
120	0xbdffdde4	-0.12493494
121	0xbe37eebd	-0.17962165
122	0x3e32cf8d	0.17461987
123	0x3e4ae473	0.19813709
124	0x3b81d3ba	0.0039620074
125	0x3b327f9b	0.0027236703
126	0xbdec4ca3	-0.11538055
127	0x3e3ca9af	0.18424104
128	0x3d288be4	0.041149035
129	0x3d650202	0.055910118
130	0x3ca8d65b	0.020610025
131	0xbd22048c	-0.039555117
132	0xbdf34fb5	-0.11880437
133	0x3deb5db0	0.11492479
134	0x3d230456	0.039799057
135	0x3d918efe	0.07107352
136	0xbda91bc9	-0.08257253
137	0xbdb2bb34	-0.087271124
138	0x3d8457a3	0.06462028
139	0x3d7a6abe	0.061136954
140	0x3b9cd95d	0.004786654
141	0xbc63595b	-0.0138762845
142	0x3dc69ca8	0.096978486
143	0x3e0309fa	0.12796775
144	0x3cad1a6d	0.021130765
145	0xbd13e644	-0.03610827
146	0x3dbc8ae2	0.09206177
147	0xbde3510d	-0.110994436
148	0xbc7968a6	-0.015222704
149	0x3e09776e	0.13424465
150	0xbcfc184d	-0.030773306
151	0xbdf5b04f	-0.11996519
152	0x3d24b061	0.04020727
153	0xbe130da7	-0.14360677
154	0x3b487f7d	0.0030593567
155	0xbbf14138	-0.007362511
156	0x3e02529d	0.12726827
157	0x3dbb8634	0.091564566
158	0xbd84af1d	-0.06478713
159	0x3dc0df22	0.09417559
160	0x3c8b6af6	0.017018776
161	0x3c0ba0a2	0.008522185
162	0x3d3e2868	0.046425253
163	0xbe131cd9	-0.14366473
164	0xbe42815a	-0.18994656
165	0xbdec5461	-0.115395315
166	0x3db335af	0.08750474
167	0x3db2aeec	0.0872477
168	0xbba3dc3b	-0.0050006188
169	0xbd2ee181	-0.042695526
170	0x3dec80b8	0.11547989
171	0x3dfd94bd	0.12381885
172	0xbe411367	-0.18855058
173	0xbd3c8aa4	-0.046030656
174	0xbced302b	-0.028953632
175	0xbe7aef82	-0.24505427
176	0xbd204fb2	-0.039138503
177	0x3e0a8377	0.13526712
178	0xbe5f327e	-0.21796605
179	0xbdc6c7ba	-0.097060636
180	0xbdd61b1e	-0.10454391
181	0xbe52c13e	-0.20581529
182	0xbdb69acf	-0.08916246
183	0xbe27bd05	-0.16380699
184	0xbe390d64	-0.18071514
185	0xbe50116c	-0.20319146
186	0xbe0290f9	-0.12750615
187	0xbd0c4a1c	-0.034250364
188	0xbd1d22f5	-0.038363416
189	0xbbe5c364	-0.007011818
190	0x3c5e78ea	0.013578633
191	0x3d9ec56e	0.077525005
192	0xbc49446e	-0.012284381
193	0xbd18c0ca	-0.037293233
194	0x3ddc9099	0.10769767
195	0x3d251de7	0.04031172
196	0xbd606245	-0.054781217
197	0xbc99eb3d	-0.018788928
198	0xbd871760	-0.06596255
199	0x3cb46d04	0.022024639

bias_hh_l1 f4 [200]
0	0xbdda4f72	-0.10659684
1	0x3d381201	0.044939045
2	0x3c00453d	0.007829008
3	0x3d4adf1c	0.04952918
4	0xbd80a4c7	-0.06281429
5	0xbe3c050f	-0.18361305
6	0xbda05204	-0.07828143
7	0xbdb95af6	-0.090505525
8	0x3dc74c78	0.09731382
9	0xbd8b6bf8	-0.06807703
10	0xbd426e2a	-0.047468342
11	0xbe39c25c	-0.18140548
12	0xbe409a41	-0.18808843
13	0xbd7cd35d	-0.06172501
14	0xbe57d292	-0.2107642
15	0x3db1a200	0.08673477
16	0xbdc3f0c3	-0.09567406
17	0x3c92cccb	0.017919919
18	0x3dbe2370	0.09284103
19	0x3c059049	0.008152076
20	0x3e0ae58b	0.13564126
21	0xbd713877	-0.05889174
22	0xbd76be9b	-0.06024037
23	0x3d97d9a9	0.07414562
24	0xbd68b86d	-0.056816507
25	0xbdda5150	-0.106600404
26	0x3dc267da	0.09492464
27	0xbe05744a	-0.13032642
28	0xbe481fac	-0.19543332
29	0xbd166608	-0.0367184
30	0x3d9f8e87	0.07790857
31	0xbdd1701b	-0.102264605
32	0xbdc49085	-0.095978774
33	0xbc67073c	-0.014100846
34	0x3cf1e7dc	0.029529504
35	0x3d8f0032	0.06982459
36	0x3cfda5b0	0.030962795
37	0x3dc6ea3d	0.09712646
38	0x3bfb6672	0.0076721245
39	0x3e291cbe	0.1651487
40	0xbdccfeca	-0.10009535
41	0xbdafcf4c	-0.085844606
42	0xbe489484	-0.19587904
43	0xbcdf0be8	-0.027227357
44	0x3de29c5f	0.11064982
45	0xbda714b9	-0.081582494
46	0x3dd27378	0.1027593
47	0x3e032838	0.12808311
48	0xbddc7d29	-0.1076606
49	0x3d701ea7	0.058622982
50	0x3df09859	0.11747808
51	0xbda48ff7	-0.080352716
52	0xbdd52d42	-0.10409023
53	0x3dcb1577	0.099162035
54	0x3c6a3d7f	0.014296888
55	0xbe93533c	-0.2877444
56	0xbd1e2f59	-0.038619373
57	0x3da7ce00	0.08193588
58	0xbe48354f	-0.19551586
59	0xbd11b7b9	-0.035575602
60	0xbd8435a1	-0.064555414
61	0xbe408590	-0.1880095
62	0xbdbb07da	-0.09132357
63	0xbdbab84a	-0.091171816
64	0xbc1dcea5	-0.009631787
65	0xbd9e65f3	-0.07734289
66	0x3dabd253	0.083897255
67	0x3dcf4a62	0.10121609
68	0x3de53415	0.111915745
69	0x3d300be3	0.042980086
70	0x3d333b46	0.0437577
71	0x3d5e8d07	0.054333713
72	0xbdf21232	-0.11819877
73	0x3d72ca6c	0.059275076
74	0x3d9fd155	0.07803599
75	0xbe1864c3	-0.14882188
76	0xbe033216	-0.12812075
77	0x3dde7713	0.10862555
78	0xbe6827f6	-0.22671494
79	0xbe432491	-0.19056918
80	0x3b2ccfc6	0.002636896
81	0x3d3aab46	0.045573495
82	0x3dca81f5	0.098880686
83	0x3c013ed6	0.007888516
84	0xbda2052e	-0.07911144
85	0x3d16a90e	0.036782317
86	0xbe4be225	-0.19910486
87	0xbca14368	-0.019685462
88	0xbd96627b	-0.073430024
89	0xbe0f6a9c	-0.14005512
90	0xbcef78f7	-0.029232485
91	0x3ca48244	0.020081647
92	0xbe087049	-0.13324083
93	0x3e10fdc0	0.14159298
94	0xbcfeb0e5	-0.03109021
95	0xbe257b1a	-0.16160241
96	0x3dc3aede	0.09554838
97	0xbcc7a89d	-0.024372393
98	0xbe30f954	-0.17282611
99	0xbd30bada	-0.043146946
100	0xbdd85997	-0.10563963
101	0x3cd3ba64	0.025845714
102	0x3dada2f7	0.08478349
103	0x3e3f2ddf	0.18669842
104	0x3c1fab72	0.009745466
105	0xbd88b763	-0.06675603
106	0xbde979ea	-0.114002064
107	0xbbe2d29d	-0.0069220797
108	0xbbc2966c	-0.005938342
109	0x3deed94b	0.11662539
110	0x3c83bf06	0.016082298
111	0xbdbefb32	-0.093252555
112	0x3d97f789	0.074202605
113	0x3c7e01a6	0.015503323
114	0x3d9f4315	0.07776467
115	0xbe2b333f	-0.16718768
116	0xbdbc14c5	-0.09183649
117	0xbd1df196	-0.038560472
118	0x3e65a89d	0.22427602
119	0x3e4b9f64	0.19885021
120	0xbdd8c274	-0.10583964
121	0xbd2ecce5	-0.04267587
122	0xbcfbab80	-0.030721426
123	0x3c3419e3	0.0109925
124	0x3d770dc5	0.060315866
125	0xbdebc691	-0.11512483
126	0xbd709ae8	-0.05874148
127	0x3c4b4b17	0.0124080395
128	0xbd7c69e8	-0.061624438
129	0x3dae8bdb	0.08522769
130	0x3debe0a7	0.115174584
131	0x3d001644	0.031271234
132	0xbdf2ab22	-0.11849047
133	0xbd744f0a	-0.05964569
134	0xbd5f6eb8	-0.05454895
135	0xbd355960	-0.044274688
136	0x3b97a900	0.0046283007
137	0xbd09bcaa	-0.03362719
138	0xbe2caa17	-0.16861759
139	0xbdb8b86b	-0.0901955
140	0xbdef86fd	-0.11695669
141	0xbd58dcc9	-0.052944932
142	0x3d65c59e	0.056096666
143	0x3af9fb74	0.0019072131
144	0xbde5ec13	-0.11226668
145	0x3da02d4f	0.07821142
146	0x3e0be82f	0.1366279
147	0xbd83e1d6	-0.06439559
148	0xbdbc37f3	-0.09190359
149	0xbd30bac0	-0.04314685
150	0xbdb08330	-0.08618772
151	0x3da05db6	0.07830374
152	0xbd2ac027	-0.041687157
153	0x3cf62591	0.03004721
154	0xbe169de7	-0.14708672
155	0xbda754ce	-0.08170472
156	0x3db91e03	0.090389274
157	0xbcb97715	-0.02263979
158	0xbc117220	-0.008877307
159	0xbe19c9db	-0.15018408
160	0xbe386ac8	-0.18009484
161	0xbdebcc02	-0.11513521
162	0xbe528ff0	-0.2056272
163	0xbdf11670	-0.11771858
164	0xbdcc8e5e	-0.09988092
165	0xbdfdad17	-0.1238653
166	0xbe153052	-0.14569214
167	0x3d893de9	0.067012616
168	0x3e06923c	0.13141721
169	0x3d851cef	0.06499659
170	0x3e0468bd	0.1293058
171	0x3dbf84b8	0.09351486
172	0xbe05ed87	-0.1307889
173	0xbd6491dd	-0.05580317
174	0x3c2920fa	0.010322804
175	0xbe08fe6e	-0.13378307
176	0xbd0bfa7b	-0.034174424
177	0x3dc40d38	0.09572834
178	0xbe7010d1	-0.23443915
179	0xbda3089e	-0.07960628
180	0xbd977459	-0.073952384
181	0xbd073fd4	-0.033019856
182	0x3df3932f	0.118933074
183	0xbe257de8	-0.1616131
184	0xbd96835a	-0.07349272
185	0x3d6bb3be	0.057544462
186	0x3d85c20a	0.06531151
187	0x3e0d59f9	0.13803853
188	0xbd4449a2	-0.047921784
189	0x3e310c8d	0.17289944
190	0xbdfa568b	-0.12223538
191	0xbe05ff87	-0.13085757
192	0xbe4c6e4f	-0.19963954
193	0xbc187b0d	-0.009306681
194	0x3dca91a9	0.09891064
195	0x3d9d9b60	0.07695651
196	0xbd06593f	-0.032799955
197	0xbd284461	-0.041080836
198	0xbddf8c0f	-0.10915386
199	0xbd7c2059	-0.061554287

weight f4 [1, 50]
0	0xbde72adc	-0.11287472
1	0xbd7e828c	-0.062136218
2	0x3ca063b9	0.019578801
3	0x3e027ab8	0.12742126
4	0xbddef2a4	-0.10886124
5	0x3c02a40f	0.007973685
6	0xbe1a1729	-0.15047897
7	0xbdbf282b	-0.09333833
8	0xbdacd013	-0.084381245
9	0x3d8614d5	0.06546942
10	0x3d824754	0.06361261
11	0xbd9ef91b	-0.07762357
12	0x3d45db43	0.048304807
13	0x3d9d2dc9	0.076747485
14	0x3d422721	0.047400597
15	0xbe135a09	-0.14389814
16	0xbd977d06	-0.07396893
17	0x3d17bde1	0.037046317
18	0x3e11d08f	0.14239715
19	0x3e1a74a8	0.15083563
20	0xbe0df725	-0.1386381
21	0xbe19820a	-0.14991012
22	0x3dda8cc1	0.10671378
23	0x3dc738f9	0.097276635
24	0x3d9f4927	0.077776246
25	0x3cccf0b2	0.025017116
26	0xbdb65deb	-0.08904632
27	0x3e178ae6	0.1479908
28	0xbbd4d4ec	-0.006495109
29	0xbd77e68c	-0.0605226
30	0x3cfac097	0.030609412
31	0x3b6b4133	0.0035897016
32	0xbd8b7024	-0.068084985
33	0xbd8b5ec4	-0.068051845
34	0xbcfa1460	-0.030527294
35	0x3cd3adb1	0.025839658
36	0x3d42e5a7	0.047582295
37	0xbce53e88	-0.027983919
38	0xbd4ca2f2	-0.049960084
39	0xbda4859f	-0.08033299
40	0xbdc5b5f6	-0.09653847
41	0x3d5fed76	0.05466982
42	0xbdd66a65	-0.10469512
43	0x3e1582e0	0.14600706
44	0xbd977ea7	-0.07397204
45	0x3da64115	0.08117882
46	0x3dcae8df	0.09907698
47	0xbe0ab0b8	-0.13543975
48	0xbd2644e5	-0.040593047
49	0x3d684777	0.05670878
