.idea/shelf/Changes1/best_model.pth (torch, 127913 bytes, 9 tensors)

weight_ih_l0 f4 [200, 1]
0	0xbd0c291f	-0.034218904
1	0xbdb29d81	-0.08721448
2	0x3d82ea8e	0.06392394
3	0x3d78e762	0.06076754
4	0x3cea2e4b	0.028586527
5	0x3e2ba6cd	0.16762848
6	0x3c9ee3d8	0.019395754
7	0x3d903e06	0.0704308
8	0xbce79288	-0.028268114
9	0xbd9dd7a8	-0.07707149
10	0x3e1001d8	0.14063203
11	0x3e951558	0.29117846
12	0xbdfb08f1	-0.12257565
13	0xbd0bca7a	-0.034128644
14	0x3dc17f4b	0.09448107
15	0x3ebc3e89	0.3676646
16	0x3e995ebe	0.29955095
17	0x3ed822de	0.42214102
18	0x3d0b68c1	0.034035448
19	0x3eecdc0c	0.46261632
20	0x3c6cb303	0.014446977
21	0x3db5c468	0.08875352
22	0xbd961532	-0.073282614
23	0x3dac9527	0.08426886
24	0x3dac36f4	0.08408919
25	0x3cb74cfa	0.022375572
26	0xbd84b154	-0.06479135
27	0x3e1760fb	0.14783089
28	0xbe1017d9	-0.14071597
29	0xbe23ede1	-0.16008712
30	0x3d70a63d	0.058752287
31	0xbd4c6f13	-0.049910616
32	0x3c20794a	0.009794543
33	0xbc8dff89	-0.017333763
34	0xbe099065	-0.13433988
35	0x3f0a0407	0.53912395
36	0x3cf785eb	0.030215224
37	0x3d932403	0.07184603
38	0x3dc58674	0.096447855
39	0x3d671348	0.056414872
40	0x3bd50171	0.006500416
41	0x3e33e643	0.17568307
42	0xbcdf3201	-0.027245523
43	0x3ca3878a	0.019962091
44	0x3d68ca81	0.056833748
45	0xbdafbcc8	-0.08580929
46	0x3e1d19e2	0.15341905
47	0x3cbd9650	0.023142964
48	0xbe997e9f	-0.29979417
49	0xbde22ed1	-0.11044086
50	0x3d9db17c	0.07699868
51	0xbdb90233	-0.090336226
52	0xbdef91fc	-0.11697766
53	0x3d6afd01	0.05737019
54	0x3e48b293	0.1959937
55	0x3e48e1e7	0.19617425
56	0xbd19d63b	-0.03755782
57	0x3d1e0718	0.038580984
58	0xbda4116b	-0.08011135
59	0xbe3a2360	-0.18177557
60	0x3e173c58	0.14769113
61	0x3e0c458f	0.1369841
62	0xbb3fe751	-0.0029282162
63	0xbd356353	-0.044284176
64	0x3dea37e5	0.11436442
65	0x3d996cd3	0.0749146
66	0x3c139a9f	0.0090090325
67	0x3d0be10c	0.03415017
68	0x3c2ef1a6	0.010677731
69	0x3e7761eb	0.24158446
70	0xbde96ff2	-0.11398305
71	0x3d93811c	0.0720236
72	0xbd9ab6df	-0.07554411
73	0xbe6bcc3a	-0.23027125
74	0xbdbc1b89	-0.091849394
75	0x3d86179f	0.06547474
76	0x3ca7e41b	0.020494511
77	0xbdc919c6	-0.09819369
78	0xbdf4a995	-0.11946408
79	0xbccb3fd7	-0.024810715
80	0x3d2ce896	0.042214
81	0xbe0d6f54	-0.13812
82	0x3be2a299	0.006916356
83	0x3db6b0ae	0.08920418
84	0xbe0fca3a	-0.14041987
85	0x3eac715a	0.3368023
86	0xbd13f594	-0.036122873
87	0x3d9b1d71	0.07573975
88	0x3db95151	0.09048713
89	0xbe36f263	-0.178659
90	0x3dc3c058	0.09558171
91	0xbce57e89	-0.028014438
92	0x3dddb81a	0.1082613
93	0xbe0746ee	-0.13210651
94	0x3dcc9809	0.09989936
95	0xbc1cf31d	-0.009579447
96	0x3e3526af	0.17690538
97	0xbe3b1f63	-0.18273692
98	0xbe4fada6	-0.20281085
99	0x3e0d66d0	0.13808751
100	0x3d893685	0.06699852
101	0x3e00dec0	0.12584972
102	0x3cf312ad	0.029671991
103	0x3e44a4e3	0.19203524
104	0x3e18fe6e	0.14940807
105	0x3e4fb528	0.2028395
106	0x3e16cf5c	0.14727539
107	0x3e0dfed6	0.13866743
108	0x3d042cbb	0.03226922
109	0xbc7512f0	-0.014958128
110	0xbe08fef7	-0.13378511
111	0x3e4626e9	0.1935078
112	0x3cfa0703	0.030520922
113	0x3e1696c0	0.14705944
114	0x3e51714a	0.20453373
115	0x3e963e66	0.2934448
116	0x3e6f3af1	0.23362328
117	0x3eb3839e	0.35061353
118	0x3e161252	0.14655426
119	0xbea96d1d	-0.3309106
120	0xbde5d018	-0.11221331
121	0x3d66e6ec	0.056372568
122	0x3ceefe13	0.029173886
123	0xbe5d0c34	-0.21586686
124	0xbd83ba0a	-0.064319685
125	0x3d4d3087	0.050095107
126	0xbdbe1562	-0.09281422
127	0x3d3146de	0.043280475
128	0xbd8719f7	-0.06596749
129	0xbcfe7252	-0.031060372
130	0x3e61464b	0.21999471
131	0xbca8b69a	-0.020594884
132	0xbd6ae774	-0.057349637
133	0xbe238471	-0.15968491
134	0x3dcea298	0.10089606
135	0x3f3b97b7	0.73278373
136	0xbe659e45	-0.22423656
137	0xbe482453	-0.19545107
138	0xbdfd124f	-0.12357008
139	0xbe04ff70	-0.12988067
140	0x3e2e849e	0.17042777
141	0x3e23c00c	0.15991229
142	0x3e1475d0	0.14498067
143	0x3d9cbbad	0.07652984
144	0x3e616bfb	0.22013848
145	0xbc093415	-0.008374234
146	0x3e1dbe19	0.15404548
147	0x3dbb372d	0.09141383
148	0x3dc3dc81	0.09563542
149	0xbd74277c	-0.059607968
150	0x3c2b1175	0.010441174
151	0x3db68d98	0.089137256
152	0xbcd5ebff	-0.026113508
153	0xbd9ee15e	-0.07757829
154	0x3d8cb7be	0.068709835
155	0x3d7e1710	0.062033713
156	0x3e0607c5	0.13088901
157	0x3c23c310	0.009995237
158	0xbe680be4	-0.22660786
159	0xbc92f012	-0.01793674
160	0xbd96b71c	-0.07359144
161	0x3dd878e6	0.105699345
162	0xbd73c99a	-0.059518434
163	0xbd1b551b	-0.03792296
164	0xbdb9c075	-0.090699114
165	0x3c46b66c	0.012128454
166	0x3e3842c3	0.17994218
167	0x3eb8b795	0.36077562
168	0x3e17b289	0.148142
169	0x3efc159c	0.49235237
170	0xbe2c4b92	-0.16825703
171	0xbdaf3408	-0.08554846
172	0xbcf2830d	-0.029603506
173	0x3a94c26a	0.0011349444
174	0x3e13567f	0.14388464
175	0x3d486f13	0.048934054
176	0xbdad89b9	-0.08473534
177	0xbe43456e	-0.19069454
178	0xbdbfb087	-0.09359842
179	0xbdc0fcdc	-0.09423229
180	0x3c3c850d	0.011506331
181	0xbe2f803f	-0.17138766
182	0xbd083f3e	-0.033263437
183	0x3d2e28f0	0.04251951
184	0x3d9aaea4	0.07552841
185	0x3f134bff	0.57537836
186	0xbe7c93e3	-0.2466579
187	0xbe130e3d	-0.143609
188	0xbca212f3	-0.019784426
189	0xbf5370e1	-0.82594115
190	0xbd4c9d8c	-0.049954936
191	0xbd89d9c8	-0.067309916
192	0xbdf2e825	-0.11860684
193	0xbd1213e1	-0.03566349
194	0xbb3f971f	-0.0029234362
195	0x3dc5f41f	0.09665703
196	0x3e10575a	0.14095822
197	0xbf358cf2	-0.7091819
198	0xbea834a3	-0.3285266
199	0xbd31c7c4	-0.043403402

weight_hh_l0 f4 [200, 50]
0	0x3d19ca2c	0.03754632
1	0x3d0a532d	0.03377073
2	0xbd8c10aa	-0.06839116
3	0xba8e4adb	-0.0010856049
4	0x3d4f70d0	0.050644696
5	0xbe25a1e5	-0.16175039
6	0x3ceb09b1	0.028691145
7	0xbddaadda	-0.10677691
8	0xbd490f35	-0.04908677
9	0x3e63f0d5	0.22259839
10	0x3d955b9e	0.07292865
11	0xbc3a1ab7	-0.011358908
12	0xbce7ecab	-0.028311094
13	0x3de8fe52	0.11376633
14	0xbe26262d	-0.162255
15	0x3cdcbe5a	0.026946235
16	0xbe2fdfc2	-0.171752
17	0xbea42b81	-0.3206444
18	0xbdd283b4	-0.10279027
19	0x3db38271	0.08765114
20	0xbdbf05bb	-0.09327265
21	0xbddfda23	-0.10930278
22	0xbc431054	-0.011905748
23	0x3e3bb386	0.18330202
24	0xbdad65f4	-0.08466712
25	0xbd9bdd66	-0.07610588
26	0x3b9ad2c4	0.0047248323
27	0xbdde58af	-0.10856759
28	0x3d253675	0.040335137
29	0xbd464a7c	-0.048410878
30	0x3cd265e6	0.025683355
31	0xbdc706ec	-0.09718117
32	0xbdc29cf6	-0.09502594
33	0x3dc65907	0.09684949
34	0xbc876ea2	-0.016532246
35	0xbda1c966	-0.07899742
36	0x3e18e0b1	0.14929463
37	0x3e05ef79	0.13079633
38	0xbd68a200	-0.05679512
39	0xbd9e64ce	-0.07734071
40	0x3db40715	0.08790413
41	0x3d108ff1	0.035293523
42	0xbe19ecb3	-0.150317
43	0xbd8ef510	-0.06980336
44	0x3db0e3ff	0.08637237
45	0x3b069b37	0.0020539293
46	0xbce79e2c	-0.028273664
47	0x3d61d959	0.05513892
48	0xbe8025e0	-0.25028896
49	0x3dfbc9fd	0.122943856
50	0x3dc84d85	0.09780411
51	0xbe3e3238	-0.18573844
52	0x3e21f86c	0.15817422
53	0xbd37ba76	-0.044855557
54	0x3e0cbb24	0.13743263
55	0x3cb42ff4	0.021995522
56	0xbdfb9df3	-0.12285986
57	0x3d26274c	0.04056482
58	0x3e021583	0.12703519
59	0x3dcd469e	0.10023235
60	0xbe0e93ea	-0.13923612
61	0xbd5e1e5a	-0.054228164
62	0xbd93da2d	-0.07219348
63	0xbd8beb50	-0.06831992
64	0xbd4248f8	-0.04743287
65	0xbd7ec296	-0.06219729
66	0xbcbda5ae	-0.023150291
67	0xbdcb5ddd	-0.099300124
68	0x3d6d4b66	0.057933234
69	0x3d39b63d	0.04533981
70	0xbe334486	-0.17506608
71	0x3dac5be0	0.08415961
72	0xbbcf8b62	-0.0063337544
73	0x3e6ed4cd	0.23323365
74	0xbce470ed	-0.027885878
75	0x3d19001b	0.037353616
76	0xbe2c4620	-0.16823626
77	0xbe3123b7	-0.1729878
78	0xbdb6d0e1	-0.08926559
79	0xbdaab5b9	-0.08335442
80	0xbe164851	-0.14676024
81	0xbd41ab5c	-0.04728256
82	0x3d02ce24	0.031934872
83	0x3cba1f89	0.022720115
84	0xbd4d3284	-0.050097004
85	0x3e454162	0.19263223
86	0x3dc52580	0.09626293
87	0x3e7cac76	0.24675164
88	0x3de46ce3	0.11153581
89	0xbd8e7cd6	-0.06957404
90	0xbd0fd1a4	-0.03511204
91	0xbcee85ac	-0.029116474
92	0xbe289ae2	-0.16465333
93	0xbe0aa3d0	-0.13539052
94	0xbc0dec8f	-0.008662357
95	0xbe031d9e	-0.12804267
96	0xbe0f50fe	-0.1399574
97	0x3d15bc76	0.036556683
98	0xbda42f50	-0.08016837
99	0x3d932a3c	0.0718579
100	0x3dff2930	0.12459028
101	0xbd100080	-0.035156727
102	0xbde5dbeb	-0.11223587
103	0xbd923c87	-0.07140451
104	0x3d1e1f5c	0.038604125
105	0x3cdd0807	0.026981367
106	0x3bcd4dd6	0.0062653823
107	0x3c55909f	0.013034969
108	0xbd85d637	-0.06534999
109	0x3e45bf56	0.1931127
110	0x3dd8c730	0.10584867
111	0xbdcaf74f	-0.099104516
112	0xbc98ea8b	-0.018666526
113	0xbdb0ddf1	-0.08636082
114	0xbe185ef8	-0.14879978
115	0xbbb728c0	-0.0055895746
116	0xbe0ecc7b	-0.1394519
117	0xbd3a4dc3	-0.045484316
118	0xbdb2ba56	-0.08726947
119	0x3dab7039	0.08371014
120	0x3d23f252	0.040026017
121	0x3ded2a5a	0.115803435
122	0x3ddd281d	0.107986666
123	0x3d47a3cb	0.04874019
124	0x3da0fd47	0.07860809
125	0x3af749ea	0.0018866633
126	0x3dc85523	0.097818635
127	0xbe051f6a	-0.13000265
128	0x3db898f4	0.090135485
129	0x3db6fab9	0.0893454
130	0xbd8a9ea3	-0.06768539
131	0xbdc42d1f	-0.09578919
132	0xbd195105	-0.037430782
133	0xbdaf3b68	-0.08556253
134	0xbd856b78	-0.06514639
135	0x3d986284	0.07440665
136	0xbe33c4bd	-0.17555518
137	0xbc406f8d	-0.011745346
138	0x3ded8da0	0.115992785
139	0x3c25a9b1	0.010111258
140	0xbde1c3c4	-0.110236675
141	0xbdd2449f	-0.10266995
142	0x3d8023ab	0.06256803
143	0xbdfc3ea9	-0.12316639
144	0xbd35b980	-0.04436636
145	0xbd3dbb93	-0.046321463
146	0xbc9df4bc	-0.019281738
147	0x3e036112	0.12829998
148	0xbd891b66	-0.06694679
149	0x3e141c55	0.14463933
150	0x3cdd3e19	0.02700715
151	0x3dd4e30a	0.10394867
152	0xbde3b74f	-0.11118948
153	0xbdf325d4	-0.118724495
154	0x3d4e1b3d	0.050318945
155	0xbd97b8d4	-0.074083
156	0xbd8f700f	-0.07003795
157	0x3dc4c6e6	0.09608249
158	0x3bf57a2a	0.0074913697
159	0xbc1a7682	-0.0094276685
160	0x3df08e03	0.117458366
161	0xbdabdfa3	-0.08392265
162	0x3d4df8e6	0.050286196
163	0x3ca48dcf	0.02008715
164	0x3dd1d828	0.10246307
165	0xbcc9b1d9	-0.024620937
166	0x3d7660b6	0.060150824
167	0xbdb3d600	-0.08781052
168	0x3d0027d5	0.031287987
169	0xbcdadd1c	-0.026716761
170	0xbd506628	-0.050878674
171	0x3d190574	0.037358716
172	0xbd808888	-0.06276041
173	0x3e5ffd84	0.21874052
174	0xbd5acee7	-0.053419974
175	0x3e0c0837	0.13675009
176	0xbe0d9415	-0.1382602
177	0x3d18f064	0.03733863
178	0xbd276ab0	-0.04087323
179	0x3cba96e2	0.022777025
180	0xbd5cb3ac	-0.053882286
181	0x3d10a9a1	0.03531802
182	0x3e1094d6	0.14119276
183	0xbdb53928	-0.08848792
184	0xbd738b5e	-0.059459083
185	0x3db4e02e	0.088318214
186	0x3e1c35c1	0.1525488
187	0x3d8c952d	0.068643905
188	0x3e0b20a9	0.13586678
189	0xbd0c19c3	-0.034204256
190	0xbd893dc4	-0.06701234
191	0x3d6993aa	0.05702559
192	0xbe0503df	-0.12989758
193	0xbd915d97	-0.07097929
194	0x3a102cd2	0.0005499843
195	0x3de20b75	0.110373415
196	0xbddfae3e	-0.10921906
197	0x3d052304	0.032504097
198	0xbdb79f06	-0.08965878
199	0x3e10892e	0.1411483
200	0x3c8b170d	0.016978765
201	0xbe0853b5	-0.13313182
202	0xbd28faf7	-0.041254964
203	0x3e0fa4a5	0.1402765
204	0x3e10ffa0	0.14160013
205	0x3e0bdd85	0.13658722
206	0xbd88c8fb	-0.06678959
207	0x3e1d1e6b	0.15343635
208	0x3e1165ec	0.14199036
209	0x3d3dff2d	0.046385933
210	0xbe13b7a3	-0.1442552
211	0x3e11820d	0.14209767
212	0xbde55411	-0.11197675
213	0xbac5c8f5	-0.0015089797
214	0x3d65f4d0	0.056141675
215	0x3e189910	0.14902139
216	0x3d19bd95	0.037534315
217	0x3d77c4e4	0.060490504
218	0x3e2c15f0	0.16805243
219	0xbe446a0d	-0.1918108
220	0x3d163212	0.036668845
221	0xbbfd3f61	-0.0077285026
222	0x3dcb4937	0.09926074
223	0x3d6f90c6	0.058487676
224	0x3dac34c2	0.084085
225	0x3e03d17e	0.12872884
226	0x3d1653f2	0.03670115
227	0xbdad2fd6	-0.084563896
228	0xb9cfd3f7	-0.00039640043
229	0xbe060627	-0.13088284
230	0x3d974529	0.07386238
231	0xbe01c7ce	-0.12673876
232	0x3c279d78	0.010230415
233	0xbe1cb292	-0.15302494
234	0x3d8d054e	0.068857774
235	0x3b8be268	0.004268933
236	0xbe184432	-0.14869764
237	0xbe0022f2	-0.1251333
238	0xbe1b00f8	-0.15137088
239	0xbdfc37bb	-0.12315317
240	0x3e227fa0	0.15868998
241	0x3dec5fc7	0.115417056
242	0xbcd229fa	-0.025654782
243	0xbe0b2b3e	-0.13590714
244	0x3db3d8eb	0.08781608
245	0xbcb2e5db	-0.02183812
246	0xbddbabe3	-0.10726144
247	0x3e8c041b	0.27346882
248	0xbe5d2ba4	-0.21598679
249	0x3d1fa58a	0.03897623
250	0x3c5b25f7	0.013375751
251	0x3e2dfcb0	0.16990924
252	0x3d75c7c0	0.06000495
253	0x3ca481c8	0.020081416
254	0x3de419ce	0.11137734
255	0x3d26366b	0.04057924

bias_ih_l0 f4 [200]
0	0x3d29c911	0.041451517
1	0x3c812a35	0.015767196
2	0xbe1cecac	-0.15324658
3	0xbacf97cb	-0.0015838085
4	0xbd2f42c0	-0.042788267
5	0xbe40090f	-0.18753456
6	0xbdbbcbfe	-0.09169768
7	0xbe03caa4	-0.1287027
8	0xbdcb1c78	-0.09917539
9	0xbc7e43d8	-0.015519105
10	0x3dd42411	0.103584416
11	0xbdc08789	-0.09400851
12	0xbd8373c2	-0.064185634
13	0xbcd8fa97	-0.026486678
14	0x3d942033	0.07232704
15	0xbd4ba0e2	-0.049713977
16	0xbbdc5361	-0.0067238067
17	0x3e4879e3	0.19577746
18	0x3cb23b65	0.021756837
19	0xbc8299a0	-0.015942395
20	0xbe2499f9	-0.16074361
21	0xbdf32b7a	-0.11873527
22	0x3c06c708	0.008226164
23	0xbcb987d2	-0.022647772
24	0xbd5d55de	-0.054036967
25	0xbe19d376	-0.15022072
26	0xbda2aac4	-0.07942727
27	0xbcf88afa	-0.030339707
28	0xbdd8fed2	-0.10595478
29	0xbc85ccb7	-0.016332967
30	0xbd1c190b	-0.03810982
31	0x3d110705	0.035407085
32	0xbdc2322b	-0.09482225
33	0xbd656c7c	-0.056011662
34	0x3dec9f45	0.11553816
35	0x3f3ed5b8	0.7454486
36	0x3c9964a1	0.018724741
37	0xbd826cb4	-0.0636839
38	0xb9c9ed6d	-0.00038514604
39	0x3be025ed	0.0068404586
40	0xbe06375f	-0.1310706
41	0x3da12407	0.078682
42	0xbc0695f3	-0.008214462
43	0xbcca3dac	-0.02468761
44	0xbe1bee0b	-0.15227525
45	0xbdc70ba8	-0.0971902
46	0x3d2bcaa0	0.041941285
47	0x3dee9a40	0.116505146
48	0x3d8927e9	0.066970654
49	0xbdf0d916	-0.11760156
50	0xbe248894	-0.16067725
51	0x3e072573	0.1319788
52	0x3d31cd49	0.043408666
53	0xbdf45ac9	-0.119313784
54	0xbcbed7a8	-0.023296192
55	0xbdf78f84	-0.1208792
56	0xbb926494	-0.0044675563
57	0xbdaf265c	-0.08552238
58	0x3d7a2716	0.06107243
59	0xbde62ba6	-0.11238794
60	0x3c6c3f13	0.014419335
61	0x3d35921b	0.04432879
62	0xbe2ae4f7	-0.16688906
63	0xbe045c01	-0.12925722
64	0xbcc64796	-0.024204057
65	0x3e24572e	0.16048881
66	0x3dd7d660	0.10538936
67	0xbe99cb7a	-0.30038053
68	0x3da653d8	0.08121461
69	0x3ca7b93e	0.020474073
70	0x3d5dbb54	0.05413373
71	0x3dc1717d	0.09445474
72	0xbe21b9b5	-0.15793498
73	0x3cf3f120	0.029778063
74	0xbd34d47b	-0.04414795
75	0xbe0d1c25	-0.13780268
76	0xbdfc766b	-0.12327274
77	0x3da62e9c	0.08114359
78	0x3d500d6b	0.050794046
79	0xbe08f560	-0.13374853
80	0x3c9b9f6f	0.018996922
81	0x3d89696b	0.0670956
82	0xbe0d9301	-0.13825609
83	0xbaff4f54	-0.0019478598
84	0xbe3ce8dc	-0.18448204
85	0xbe88268f	-0.26591918
86	0x3ecc8dfa	0.3995207
87	0x3d2912d0	0.041277707
88	0x3c527ea4	0.012847576
89	0xbc107e1a	-0.008819127
90	0xbdecec18	-0.11568469
91	0xbd89f48d	-0.067360975
92	0xbd020ba9	-0.0317494
93	0xbdac7605	-0.08420948
94	0x3ce9a7cf	0.0285224
95	0xbcff25c7	-0.031145943
96	0xbdb2be34	-0.087276846
97	0xbe008e25	-0.12554224
98	0x3d821b0d	0.06352816
99	0x3d014415	0.03155907
100	0x3e0ddaf6	0.13853058
101	0x3b103106	0.0022001876
102	0x3e02a4b8	0.12758148
103	0xbd730d54	-0.059338883
104	0xb8982b93	-7.256041e-05
105	0x3cad69fb	0.0211687
106	0x3da00976	0.078143045
107	0x3dc64249	0.09680612
108	0xbcab11e3	-0.020882552
109	0x3d066425	0.03281035
110	0xbdc7fce4	-0.09765032
111	0x3e0c30fd	0.13690563
112	0x3cefdb96	0.029279511
113	0xbc6372aa	-0.0138823185
114	0x3d1e10ad	0.038590122
115	0xbbf69373	-0.0075249015
116	0x3d0f25ae	0.034948044
117	0xbc6d1fd0	-0.014472917
118	0xbdd1c4ae	-0.10242592
119	0x3d9f7b0e	0.07787143
120	0x3d775862	0.060387023
121	0xbbf8176a	-0.0075711505
122	0x3cd73995	0.026272574
123	0x3d35e0bd	0.04440378
124	0xbdcd01f3	-0.100101374
125	0x3d36f8ef	0.044670995
126	0xbdb5ba0c	-0.08873376
127	0x3db2d3fe	0.087318406
128	0xbdd34e04	-0.10317615
129	0xbd3d3101	-0.046189312
130	0x3d7d6c36	0.061870776
131	0x3d2de435	0.042453963
132	0xbd98e52a	-0.074655846
133	0x3d8f5d4f	0.07000219
134	0xbcca4645	-0.02469171
135	0xbd9bdb37	-0.07610171
136	0x3b5e37e0	0.0033907816
137	0x3da131d7	0.07870834
138	0xbdcac42d	-0.09900699
139	0xbdc0674a	-0.09394701
140	0xbde8f38f	-0.1137458
141	0xbd0baeef	-0.034102377
142	0xbd31fb0e	-0.043452315
143	0x3d912316	0.0708677
144	0xbd2a2b31	-0.041545097
145	0x3da4b658	0.08042592
146	0xbb4e7bc7	-0.0031506883
147	0x3d6ce71c	0.05783759
148	0xbe76dd03	-0.24107747
149	0xbde8db93	-0.113700055
150	0x3bfca8be	0.0077105453
151	0xbd87cd6d	-0.06630979
152	0x3aedbd18	0.0018138019
153	0xbd7f61ae	-0.062349014
154	0x3c188727	0.009309567
155	0xbe1edb48	-0.15513337
156	0xbcec8f69	-0.028876977
157	0xbd87bdd7	-0.06628006
158	0xbd5b8a6f	-0.053598817
159	0x3d922e20	0.07137704
160	0x3db1b9d1	0.0867802
161	0x3de22e40	0.11043978
162	0xbe44c03f	-0.19213961
163	0xbcd0ff91	-0.025512489
164	0xbdada893	-0.084794186
165	0x3de2c5ea	0.11072905
166	0xbdd37963	-0.10325887
167	0x3eaa3161	0.33240798
168	0xbde74392	-0.11292185
169	0x3c82e02c	0.015976034
170	0xbcbc2c7a	-0.022970427
171	0xbe049566	-0.12947616
172	0xbae05a08	-0.0017116675
173	0x3c801d64	0.015639015
174	0xbd725d8e	-0.059171252
175	0x3d808b4e	0.0627657
176	0x3d73e2f9	0.05954263
177	0xbe065a44	-0.13120371
178	0xbc041b9c	-0.008063223
179	0xbda29ef3	-0.079404734
180	0xbdc06dfc	-0.09395978
181	0xbd9fe00e	-0.07806407
182	0xbe021021	-0.12701465
183	0xba99778b	-0.00117086
184	0x3dec5469	0.115395375
185	0x3f033007	0.5124516
186	0x3d037e24	0.03210272
187	0xbd99d01e	-0.07510398
188	0x3d802583	0.06257155
189	0xbe00d770	-0.12582183
190	0xbdf56d55	-0.11983744
191	0xbdd699c9	-0.10478551
192	0xbe198d4d	-0.14995308
193	0xbe064267	-0.13111268
194	0x3d1d36c0	0.03838229
195	0x3d836448	0.064156115
196	0xbdb8bde1	-0.090205915
197	0xbd9d8481	-0.07691289
198	0x3d217e50	0.0394271
199	0xbddddf03	-0.10833552

bias_hh_l0 f4 [200]
0	0x3dbcfa66	0.09227447
1	0xbce12ffd	-0.027488703
2	0x3cbcaabb	0.02303063
3	0x3c0eb604	0.008710388
4	0xbbba5c87	-0.0056872997
5	0xbdb4c6ea	-0.08827002
6	0xbdff6ee7	-0.12472325
7	0x3d10b035	0.035324294
8	0x3c275a5d	0.010214415
9	0x3c71775f	0.014737933
10	0xbc9a492d	-0.018833721
11	0x3d69ab97	0.057048406
12	0xbe46e70f	-0.1942408
13	0xbd90658b	-0.07050618
14	0xbda35ff7	-0.07977288
15	0xbde0e51e	-0.10981201
16	0x3c6633c2	0.014050426
17	0x3e80908c	0.2511028
18	0x3d05d9c2	0.032678373
19	0x3dbb0a30	0.091328025
20	0xbe274112	-0.16333416
21	0xbdbfc728	-0.09364158
22	0xbace4a1c	-0.0015738639
23	0x3dd38cf1	0.10329617
24	0x3c46304f	0.012096479
25	0xbdcd9c79	-0.100396104
26	0xbd82556a	-0.06363948
27	0xbafde6c6	-0.0019371144
28	0x3d9a6daa	0.07540448
29	0xbe5860b8	-0.21130645
30	0xbc9f4fd1	-0.01944724
31	0xbdf1c009	-0.11804206
32	0xbd999175	-0.07498447
33	0x3dd4a9a2	0.103839174
34	0xbdd94f82	-0.10610868
35	0x3f21c884	0.6319659
36	0x3d4b4bcc	0.049632832
37	0x3d57992e	0.052636318
38	0x3d86d588	0.065836966
39	0xbc1cec3f	-0.00957781
40	0x3dba6409	0.091011114
41	0x3e102f1b	0.1408047
42	0xbda0a35e	-0.0784366
43	0xbe8827e1	-0.26592925
44	0x3d170689	0.036871467
45	0xbd35db4e	-0.0443986
46	0xbd996203	-0.074893974
47	0x3d38dda2	0.04513324
48	0x3b61c9cd	0.0034452558
49	0x3dcd3649	0.1002012
50	0x3b4bc1b8	0.0031090807
51	0x3ca143e4	0.019685693
52	0xbcbf7d2d	-0.023375118
53	0x3d978f71	0.07400406
54	0xbdfc5553	-0.12320962
55	0x3d9fec31	0.07808722
56	0xbcc8fcd6	-0.024534624
57	0xbe1c0e41	-0.15239812
58	0xbdd23ae2	-0.10265137
59	0xbd926e3a	-0.0714993
60	0xbd213b96	-0.039363466
61	0x3ca197d9	0.019725727
62	0xbe0c13f4	-0.13679487
63	0x3cf9de13	0.030501401
64	0xbe09eb4f	-0.1346867
65	0x3e425b99	0.18980254
66	0xbcb6a659	-0.022296118
67	0xbe3cfc8e	-0.18455717
68	0xbe1384c2	-0.14406112
69	0xbdf15814	-0.11784378
70	0xbdd44637	-0.10364955
71	0xbe1d77c5	-0.1537772
72	0xbde229fd	-0.11043165
73	0xbda40b80	-0.08010006
74	0xbddad21d	-0.10684607
75	0x3d53d3de	0.051715724
76	0x3de859c0	0.113452435
77	0x3cde84ff	0.027163027
78	0xbd8c6702	-0.06855585
79	0xbc7c805c	-0.015411463
80	0x3e207441	0.15669347
81	0xbd837bb4	-0.06420079
82	0x3b403a25	0.0029331532
83	0x3da4d6b5	0.080487646
84	0xbd4dba10	-0.05022627
85	0xbeb84ccf	-0.359961
86	0x3e9bbba0	0.30416584
87	0xbce3b5e5	-0.027796695
88	0xbe04e6a3	-0.12978606
89	0x3dd9f1b9	0.10641808
90	0x3ddd4c87	0.10805612
91	0xbdaba9e9	-0.08382017
92	0xbe08a671	-0.13344742
93	0xbe07cc46	-0.13261518
94	0x3a1ab467	0.0005901516
95	0x3df771f3	0.12082281
96	0x3c803d1e	0.015654143
97	0xbca0053e	-0.01953375
98	0x3debc76b	0.11512645
99	0xbcf0a74c	-0.029376648
100	0xbdcb00e6	-0.09912281
101	0xbd87dcf1	-0.06633938
102	0xbda9fa62	-0.0829971
103	0x3ceb804d	0.028747702
104	0xbd60f505	-0.05492117
105	0x3d2c6f3a	0.04209826
106	0x3dcd2122	0.10016085
107	0xbdefdd59	-0.117121406
108	0xbc3eb1e1	-0.011639089
109	0xbc995732	-0.018718336
110	0x3e0c0522	0.13673833
111	0xbe02120c	-0.12702197
112	0x3d223b64	0.03960742
113	0xbd43ad8f	-0.04777294
114	0x3d9cd74f	0.07658254
115	0xbd4a7339	-0.04942629
116	0xbdd27013	-0.10275283
117	0xbdd3afb5	-0.10336248
118	0x3d231d93	0.039823126
119	0x3d5b5b9c	0.053554162
120	0xbc6f9d4d	-0.014624906
121	0x3b5103db	0.0031893167
122	0xbd6c3ea6	-0.057676934
123	0x3e11aa4f	0.14225124
124	0x3d8d45f2	0.06898107
125	0xbdfb05a9	-0.12256939
126	0x3db19a6d	0.086720325
127	0xbd5519d2	-0.052026577
128	0x3d9f6acd	0.077840425
129	0x3d241f17	0.040068712
130	0xbdc043d0	-0.09387934
131	0xbda49981	-0.08037091
132	0x3d89bced	0.06725488
133	0x3d1e718b	0.0386825
134	0x3c086964	0.008325908
135	0x3c8215e1	0.015879573
136	0x3d1a9a81	0.037745003
137	0xbcb52ac4	-0.022115119
138	0x3dc8cedb	0.098050795
139	0x3cae13d0	0.021249682
140	0x3d17d32b	0.03706662
141	0xbdab7d16	-0.083734676
142	0xba8a28fe	-0.0010540781
143	0xbe44dc4f	-0.19224666
144	0xbdbab0f1	-0.0911578
145	0xbc8bd182	-0.017067675
146	0x3d85c298	0.065312564
147	0xbd85fc71	-0.0654229
148	0xbd96f380	-0.07370663
149	0x3e2309a4	0.15921646
150	0xbe15c9ff	-0.14627837
151	0xbd054efe	-0.032546036
152	0x3cd7cd8b	0.026343128
153	0xbd507313	-0.050890993
154	0x3dda65c5	0.10663942
155	0xbe40701e	-0.1879277
156	0xbdc83caa	-0.09777196
157	0x3de347ed	0.11097703
158	0xbda56abe	-0.08077
159	0xbcaa1a7e	-0.020764586
160	0xbdedb8da	-0.11607523
161	0xbd195f0a	-0.037444152
162	0xbe542d95	-0.20720513
163	0x37dc26ca	2.6244106e-05
164	0xbcb5c85c	-0.022190265
165	0x3d99453e	0.0748391
166	0xbd5218d2	-0.0512932
167	0x3e77548c	0.24153346
168	0x3bc55b38	0.006022837
169	0xbdb84fab	-0.089995705
170	0x3da6629d	0.08124278
171	0x3be81651	0.0070827384
172	0xbe12ea00	-0.14347076
173	0x3e32c0ba	0.17456332
174	0x3d23fc1c	0.040035352
175	0x3c269a0c	0.010168564
176	0x3db6c36d	0.08923993
177	0xbdaf8930	-0.08571088
178	0xbbd76eb5	-0.0065744766
179	0xbe377f00	-0.1791954
180	0xbcada59c	-0.021197133
181	0xbe050ddf	-0.12993573
182	0x3d159568	0.036519438
183	0x3d912065	0.07086257
184	0xbde75961	-0.112963445
185	0x3f0f3c5c	0.55951476
186	0x3d062b2a	0.03275601
187	0x3c8060bb	0.015671125
188	0x3dbd053f	0.09229516
189	0xbdf9e335	-0.122015394
190	0x3decbee4	0.11559847
191	0x3e131bc4	0.1436606
192	0xbdf0de61	-0.117611654
193	0x3c674a1e	0.014116792
194	0x3d82e1c9	0.06390721
195	0xbdc58868	-0.09645158
196	0xbd7b3fac	-0.06134002
197	0xbdf402d6	-0.119146034
198	0x3d72cb9d	0.059276212
199	0x3dc83f43	0.09777691

weight_ih_l1 f4 [200, 50]
0	0xbbf8a2d3	-0.0075877695
1	0x3c6d9c91	0.01450266
2	0xbcc8e04e	-0.02452102
3	0xbd3c9a49	-0.046045575
4	0xbb9ea6b8	-0.004841652
5	0x3d5b68e9	0.053566847
6	0x3dc84c45	0.09780172
7	0x3e14886a	0.14505163
8	0xbcdeb755	-0.027187029
9	0x3b9fb66f	0.0048740427
10	0xbd47472e	-0.048651867
11	0x3d809cf3	0.06279936
12	0xbdfda5ff	-0.12385177
13	0xbdd28877	-0.10279935
14	0xbdf8823a	-0.12134214
15	0x3b62fb6c	0.0034634722
16	0x3dcda1d5	0.10040633
17	0x3c0f0273	0.008728611
18	0x39576369	0.00020541031
19	0x3e2b233b	0.16712658
20	0x3d738cf1	0.059460584
21	0x3d45c20c	0.04828076
22	0x3df036b4	0.11729184
23	0x3c744df6	0.014911165
24	0xbda38753	-0.079847954
25	0x3db0570f	0.08610355
26	0x3d3c58dd	0.045983184
27	0x3b8985f5	0.004196877
28	0xbd08dddd	-0.03341471
29	0xbbbf245d	-0.0058331923
30	0x3d815ce4	0.063165456
31	0xbda2e5e7	-0.07954007
32	0x3e145ea1	0.14489223
33	0x3de51631	0.11185873
34	0x3d711bdc	0.05886446
35	0xbd8bfabe	-0.06834935
36	0x3c6c0b69	0.014407017
37	0xbce919b8	-0.028454646
38	0xbd86f0a4	-0.06588867
39	0x3d5e83d8	0.054324955
40	0xbdcb0904	-0.09913829
41	0x3dfcead5	0.12349478
42	0x3dd792db	0.10526057
43	0x3da224a2	0.079171434
44	0x3e232ec3	0.15935807
45	0xbd6a8fb3	-0.05726595
46	0xbd9b6ff6	-0.07589714
47	0x3dc25687	0.0948916
48	0xbcd1e8f7	-0.025623782
49	0x3ba715f4	0.0050990526
50	0xbdff570e	-0.12467776
51	0xbdf69d00	-0.12041664
52	0xbcebfd12	-0.028807197
53	0x3d81117f	0.06302165
54	0x3d40e6e2	0.047095187
55	0x3d6777ad	0.056510616
56	0xbcafc975	-0.021458367
57	0xbd889d03	-0.066705726
58	0x3ddd2fea	0.108001545
59	0xbd34e683	-0.044165146
60	0xbda5e4f4	-0.0810031
61	0x3d2373dd	0.039905418
62	0x3d7faf61	0.062423114
63	0x3d72bceb	0.059262197
64	0xbdad735e	-0.0846927
65	0x3e9126f8	0.28350043
66	0x3cf2bf53	0.029632246
67	0xbdc03367	-0.09384804
68	0xbc4705f4	-0.012147415
69	0x3e004abb	0.12528507
70	0xbcee5203	-0.02909184
71	0xbe0c9775	-0.13729651
72	0x3de66e37	0.112514906
73	0x3b4eeab9	0.003157301
74	0x3daaed59	0.08346052
75	0x3dae542d	0.08512149
76	0xbdbd353d	-0.0923867
77	0x3d851b93	0.064994
78	0xbd9a1a34	-0.07524529
79	0xbd457e7c	-0.048216328
80	0xbcf901d4	-0.03039638
81	0xbddb0987	-0.106951766
82	0xbc9a42f8	-0.018830761
83	0xbe1c252d	-0.15248556
84	0x3dc79b2a	0.09746392
85	0x3d7f0c04	0.06226732
86	0xbe4b971f	-0.19881867
87	0xbd5539bd	-0.052057017
88	0xbdd74286	-0.10510735
89	0xbdd2bc1e	-0.10289787
90	0x3d97ae48	0.074062884
91	0xbce8065a	-0.028323341
92	0x3dde339c	0.108496875
93	0x3dbe2cf9	0.092859216
94	0xbd2d6a50	-0.042337716
95	0x3d5a84af	0.053349193
96	0x3dac39b5	0.08409444
97	0x3db37804	0.087631255
98	0x3c1d5e69	0.009605029
99	0x3e1cf255	0.15326817
100	0x3d5bec75	0.0536923
101	0xbe0526f7	-0.13003145
102	0x3cc9393e	0.024563428
103	0x3dac9f7d	0.084288575
104	0x3d54cef3	0.051955175
105	0x3e345f2d	0.17614432
106	0x3e0b8f79	0.13628949
107	0x3e36e848	0.17862046
108	0xbdadc42b	-0.08484682
109	0x3da82b2b	0.08211359
110	0xbdceb2ec	-0.100927204
111	0xbcff8590	-0.031191617
112	0xbd34645e	-0.04404103
113	0xbdc9611a	-0.09832974
114	0xbd72dcf1	-0.059292737
115	0x3e4b16af	0.19832872
116	0x3da62c3c	0.08113906
117	0xbd95c60c	-0.07313165
118	0xbd8b9e39	-0.06817288
119	0xbd4fb06e	-0.050705366
120	0x3c76c921	0.015062601
121	0xbcee81ba	-0.029114593
122	0xbddeb326	-0.108740136
123	0xbe4cf465	-0.20015104
124	0xbe0432ef	-0.12910055
125	0xbc50f110	-0.012752786
126	0xbddeb9d7	-0.1087529
127	0x3da194f6	0.0788974
128	0xbd2f6bc4	-0.042827383
129	0xbd637e59	-0.055540416
130	0x3c84f7f0	0.016231507
131	0xbc6be0e5	-0.014396881
132	0x3d2607a5	0.040534634
133	0x3d80c9ca	0.06288488
134	0x3dce303e	0.10067795
135	0x3e3ad662	0.18245843
136	0xbe85f7dd	-0.26165667
137	0xbe106aeb	-0.14103286
138	0xbd9462f2	-0.07245435
139	0xbe26019a	-0.16211548
140	0xbd210fb4	-0.039321616
141	0x3c5b4ff0	0.013385758
142	0xbe0e2a46	-0.13883314
143	0x3d0d9eb3	0.034575175
144	0x3e169091	0.14703585
145	0xbd0284d5	-0.03186496
146	0x3e00502c	0.12530583
147	0x3e502f41	0.20330526
148	0x3e0910c2	0.13385299
149	0x3df5dc07	0.120048575
150	0x3e075edb	0.13219778
151	0x3d96b249	0.07358224
152	0xbdb5108f	-0.08841049
153	0xbd3aaf19	-0.045577142
154	0x3e19ce55	0.15020116
155	0x3b028fab	0.0019922059
156	0xbd2a7bb7	-0.04162189
157	0xbd9f8276	-0.07788555
158	0x3e357b69	0.17722858
159	0x3e2846e1	0.16433288
160	0xbe16b486	-0.14717302
161	0xbd20d0ec	-0.039261743
162	0x3df31d32	0.11870803
163	0x3c70e564	0.0147031285
164	0x3ddb5c49	0.10710961
165	0x3ddad9f8	0.106861055
166	0xbda39f21	-0.07989336
167	0x3d8ab3c1	0.067725666
168	0xbc9b1de2	-0.018935148
169	0xbbfb70c6	-0.0076733558
170	0xb945a209	-0.00018847747
171	0xbde4ec6e	-0.11177908
172	0xbe01487c	-0.12625307
173	0xbe4e9aa0	-0.20176172
174	0xbd77cea8	-0.060499817
175	0xbbb7a795	-0.005604694
176	0x3d058955	0.032601673
177	0xbda5b977	-0.08092015
178	0x3dfe97d3	0.12431302
179	0xbde8eae0	-0.11372924
180	0x3d8a6e77	0.06759351
181	0x3ca603b0	0.02026543
182	0xbdb37c15	-0.08763901
183	0xbe27c10b	-0.16382234
184	0x3e03248c	0.1280691
185	0x3e224278	0.15845668
186	0xbeaafe54	-0.33397162
187	0xbd3962b7	-0.045260157
188	0xbc86fdb8	-0.016478404
189	0xbdefdc9b	-0.11711999
190	0x3e0ceadb	0.13761465
191	0x3da5cef2	0.08096112
192	0xbd07c79e	-0.033149354
193	0x3bcf662b	0.006329318
194	0x3ce944b5	0.028475145
195	0x3a651896	0.00087393203
196	0xbc0c2e63	-0.008555981
197	0xbc893563	-0.01674909
198	0x3beb78f1	0.007186048
199	0x3d1fd956	0.039025627
200	0x3e4f9069	0.20269932
201	0x3d8cecfb	0.06881138
202	0x3e7b2f2e	0.24529716
203	0xbd9bede8	-0.076137364
204	0x3d1f14b0	0.03883809
205	0x3e7a5ff9	0.24450673
206	0xbd0ceb80	-0.034404278
207	0x3e00abb4	0.125655
208	0x3dd726a7	0.10505419
209	0xbd4159bf	-0.04720473
210	0xbda5a347	-0.08087783
211	0x3deb56a7	0.11491137
212	0x3d8507e5	0.064956464
213	0xbd587b05	-0.052851696
214	0xbe57738e	-0.21040174
215	0x3daf59a9	0.08562023
216	0xbdf6cba0	-0.12050557
217	0x3ca69782	0.020335916
218	0x3dec9439	0.11551709
219	0xbd039c8d	-0.03213172
220	0xbd865707	-0.06559568
221	0xbdebb521	-0.11509157
222	0x3d2cf006	0.04222109
223	0x3d887a3a	0.06663938
224	0x3d32c926	0.04364886
225	0x3e00603d	0.12536712
226	0xbe1437fa	-0.14474478
227	0xba806db0	-0.0009798314
228	0xbde73bcb	-0.112907015
229	0x3c53c11b	0.012924458
230	0xbd14282c	-0.036171123
231	0xbd5ed4a7	-0.05440202
232	0x3e4a42b5	0.19752009
233	0x3c1ff70f	0.009763493
234	0x3e21d20c	0.15802783
235	0xbd57e5e1	-0.052709464
236	0x3c583da4	0.01319829
237	0x3e09cddd	0.13457437
238	0xbcfa9c72	-0.030592177
239	0x3e0d68a4	0.13809448
240	0x3df1b4b0	0.118020415
241	0xbccc2f17	-0.024924798
242	0xbe1100a0	-0.14160395
243	0xbd6bd8b2	-0.057579704
244	0x3df9e88c	0.12202558
245	0xbe4ac2e6	-0.1980091
246	0xbdf601f6	-0.12012093
247	0xbe04aa3e	-0.12955567
248	0xbe07d7b9	-0.13265885
249	0x3df5deb6	0.12005369
250	0xbdd4332a	-0.10361321
251	0xbd1fccfd	-0.03901385
252	0x3e1b33a7	0.15156423
253	0x3b52d121	0.0032168108
254	0xbd4bb9fa	-0.049737908
255	0xbc0a81d2	-0.008453803

weight_hh_l1 f4 [200, 50]
0	0xbd7db360	-0.061938643
1	0x3d837ff6	0.06420891
2	0xbd8e9546	-0.069620654
3	0x3ced10ad	0.028938616
4	0xbdc93510	-0.09824574
5	0xbdb03a2a	-0.08604844
6	0x3d02cc9e	0.03193342
7	0x387d1d24	6.034704e-05
8	0xbbe04cd2	-0.006845095
9	0xbe08a7a9	-0.13345207
10	0xbb88a259	-0.004169744
11	0xbd117fbe	-0.035522215
12	0xbd83fc36	-0.0644459
13	0xbe13a837	-0.14419638
14	0xbe4715fe	-0.19441983
15	0x3adfa980	0.0017064065
16	0x3d9b3db7	0.075801305
17	0x3cf4e38d	0.02989366
18	0x3dd07b01	0.10179711
19	0xbdf48bca	-0.11940725
20	0xbd46a714	-0.048499182
21	0xbc1fcd3d	-0.009753522
22	0xbd81af59	-0.06332273
23	0x3d190e06	0.03736689
24	0xbd5c4b9e	-0.05378305
25	0x3d0bb24e	0.03410559
26	0x3e149e65	0.14513548
27	0x3df2dd25	0.11858586
28	0xbe110528	-0.14162123
29	0x3d2d7938	0.04235193
30	0x3da61ec4	0.08111337
31	0x3c92ec42	0.017934922
32	0xbc387cb3	-0.011260199
33	0xbe0dd4dc	-0.1385073
34	0x3c78ca65	0.015184973
35	0x3d8efa08	0.069812834
36	0xbdc662ea	-0.09686835
37	0x3e2a2789	0.16616644
38	0x393b5500	0.00017865375
39	0xbd8316b7	-0.06400817
40	0x3d1b5bf2	0.037929483
41	0xbdc76b64	-0.0973728
42	0xbd921345	-0.071325816
43	0xbd993947	-0.07481628
44	0x3def18ef	0.116746776
45	0x3c9c0b52	0.019048367
46	0x3d973dc6	0.07384829
47	0xbcdee7f7	-0.027210219
48	0x3db8523e	0.090000615
49	0xbe142fbb	-0.14471333
50	0x3d2417a8	0.040061623
51	0xbdddb286	-0.10825066
52	0x3dbfd724	0.09367207
53	0x3deb21e4	0.114810735
54	0x3d766a52	0.06015999
55	0x3d8b2a60	0.06795192
56	0x3d628bcc	0.055309102
57	0xbde5a2ef	-0.11212718
58	0xbc44e92c	-0.012018483
59	0xbe0accbb	-0.13554661
60	0xbdfaed5f	-0.12252306
61	0x3a2fad4b	0.0006701543
62	0xbddc5ed6	-0.10760276
63	0xbdefb5f1	-0.117046244
64	0x3b8024c0	0.003910631
65	0xbd426ed8	-0.04746899
66	0x3e0f6e2d	0.14006872
67	0x3d389de4	0.04507245
68	0x3d9f9453	0.077919625
69	0xbdab3bba	-0.08361001
70	0x3db2589a	0.08708306
71	0xbe23eb8c	-0.16007823
72	0x3dda47f4	0.10658255
73	0xbd052dcf	-0.03251439
74	0x3d859bfc	0.06523892
75	0xbe4351e2	-0.19074205
76	0xbd5d5851	-0.054039303
77	0x3d046970	0.032327116
78	0x3d921192	0.071322575
79	0x3dac8c01	0.08425141
80	0x3cd908c6	0.026493441
81	0x3cbd0363	0.023072904
82	0xbe2144bf	-0.15748881
83	0xbdb3e780	-0.087843895
84	0xbdb13898	-0.086533725
85	0x3ce60696	0.028079312
86	0xbcfd2a23	-0.030903881
87	0x3e761139	0.24030007
88	0x3d946fed	0.07247911
89	0x3c83d12f	0.016090957
90	0xbde9f7d6	-0.11424224
91	0xbda2c449	-0.07947595
92	0x3da870ad	0.08224616
93	0xbd625dc4	-0.055265203
94	0x3c445022	0.011981996
95	0x3d18a928	0.037270695
96	0xbd10c1c2	-0.03534103
97	0xbd5096c6	-0.05092504
98	0x3e197671	0.14986588
99	0x3da25757	0.07926815
100	0xbe1340cb	-0.14380185
101	0x3df00b15	0.11720864
102	0x3c262dcb	0.010142754
103	0x3df83867	0.12120133
104	0x3d80a071	0.06280602
105	0xbbe68c29	-0.0070357514
106	0x3d8d5066	0.069001004
107	0x3d80212b	0.06256326
108	0x3d0e3975	0.034722764
109	0x3d156879	0.036476586
110	0xbe2da725	-0.16958292
111	0xbca2d0d5	-0.01987497
112	0x3d0ded6d	0.034650255
113	0x3d8eb69a	0.06968422
114	0xbd6760a6	-0.056488656
115	0xbe4f8452	-0.2026532
116	0xbd17e0fa	-0.03707979
117	0xbda86d19	-0.08223934
118	0xbd3f541d	-0.046711076
119	0x3d6d9714	0.058005407
120	0x3d85e9f8	0.065387666
121	0xbd39e069	-0.04538003
122	0x3d9dad74	0.07699099
123	0xbd01e3d9	-0.031711433
124	0xbdc5c24d	-0.096562006
125	0xbe1de37a	-0.15418807
126	0xbbe0124e	-0.0068381196
127	0xbcc72dae	-0.024313774
128	0xbcd80192	-0.026367936
129	0xbdbcf26b	-0.09225925
130	0x3e058b8c	0.13041514
131	0xbe2f2bf7	-0.17106615
132	0xbdd396bc	-0.10331485
133	0x3be85592	0.007090279
134	0xbe1a2f87	-0.15057193
135	0xbe0c443f	-0.13697909
136	0x3d8436ce	0.06455766
137	0x3e20f179	0.15717115
138	0x3d8fedc6	0.070277736
139	0x3dc24923	0.09486606
140	0x3de631a2	0.112399355
141	0xbcc06b1b	-0.023488572
142	0xbdb2f765	-0.08738593
143	0x3d922558	0.07136029
144	0xbce1be32	-0.027556513
145	0x3e090398	0.13380277
146	0xbda7f885	-0.08201698
147	0x3dd3a6d3	0.103345536
148	0x3e1703c2	0.14747527
149	0xbdfaa30a	-0.122381285
150	0x3d92385a	0.071396545
151	0x3dc1c621	0.09461618
152	0xbe0426ae	-0.1290538
153	0x3bb5fe94	0.0055540297
154	0xbdcbdafd	-0.09953878
155	0xbdd9bf90	-0.10632241
156	0xbd6b5801	-0.057456974
157	0x3d926d84	0.07149795
158	0x3d55c5e7	0.052190688
159	0x3d988b1c	0.07448408
160	0xbdc5b58b	-0.09653767
161	0xbd9ce1a4	-0.07660225
162	0xbe05e0a6	-0.13073978
163	0x3dd9d110	0.10635579
164	0xbe0ed3b1	-0.13947941
165	0xbd180b0e	-0.037119918
166	0xbd10cc03	-0.03535081
167	0x3db56a21	0.08858133
168	0xbd5f0f83	-0.054458153
169	0x3dd9e082	0.106385246
170	0xbd6a40ba	-0.057190634
171	0x3ce5e8ee	0.028065171
172	0x3c6400ff	0.013916253
173	0x3df0efd1	0.11764491
174	0xbd8aece0	-0.067834616
175	0xbdbf06f7	-0.093275
176	0x3d66e213	0.056367945
177	0xbdbe3ff2	-0.0928954
178	0xbe46e627	-0.19423734
179	0x3daee691	0.08540071
180	0x3dbf06ff	0.09327506
181	0xbe303c46	-0.17210492
182	0x3d656716	0.056006514
183	0x3d2bd5b7	0.04195186
184	0xbc57e110	-0.013176218
185	0xbe2438ef	-0.16037343
186	0x3da92bfd	0.08260343
187	0x3e07dc76	0.13267693
188	0xbdea9e3c	-0.11455962
189	0x3d4ab117	0.049485292
190	0xbdc7830e	-0.097417936
191	0xbc23feeb	-0.010009508
192	0x3d66ce52	0.056349106
193	0x3e14ca2f	0.14530252
194	0xbdb52407	-0.08844762
195	0xbe09d359	-0.13459529
196	0xbd5f139d	-0.054462064
197	0x3dffc73a	0.12489171
198	0x3e12ead2	0.1434739
199	0xbd98426a	-0.074345425
200	0x3b610b7e	0.0034339125
201	0xbc4710a0	-0.01214996
202	0xbb806a65	-0.003918933
203	0x3e2778ed	0.16354723
204	0xbd5ff9ee	-0.05468171
205	0x3e2ced5c	0.1688742
206	0xbc2ccce3	-0.010546896
207	0x3da4db45	0.08049635
208	0x3bbbe5a2	0.0057341615
209	0xbdc119e0	-0.094287634
210	0xbdbacbdc	-0.09120914
211	0x3e2281d7	0.15869842
212	0x3d54fce9	0.051999006
213	0xbdc7565c	-0.097332686
214	0xbd9adcc4	-0.07561639
215	0x3d919ece	0.07110368
216	0x3ca8a4e6	0.020586442
217	0xbd1f0981	-0.038827423
218	0xbbc796b8	-0.006090965
219	0x3db2badb	0.08727046
220	0xbdb37c5e	-0.087639555
221	0xbd9defbd	-0.07711742
222	0x3e4a6308	0.1976434
223	0x3c6f617c	0.014610644
224	0xbd6dd84e	-0.058067612
225	0x3d98cee0	0.07461333
226	0x3e39163f	0.18074892
227	0x3c4d0b75	0.012514939
228	0xbc262bae	-0.01014225
229	0x3e2d4942	0.16922477
230	0x3cbf117b	0.023323765
231	0xbd378afa	-0.044810273
232	0xbde4c83a	-0.11171003
233	0xbe06a630	-0.13149333
234	0xbdc8b201	-0.097995766
235	0x3bcf888a	0.0063334154
236	0xbd78a0fb	-0.060700398
237	0x3dd36fc3	0.10324051
238	0x3d8cdcf2	0.068780795
239	0xbe5d03c4	-0.21583468
240	0x3df27364	0.11838415
241	0xbc9029ac	-0.017597996
242	0x3bb386a5	0.0054786974
243	0xbdc2f087	-0.09518533
244	0xbdac7b6b	-0.084219776
245	0x3e20d5cd	0.15706559
246	0xbddb4b46	-0.10707717
247	0x3ddb5aed	0.10710702
248	0x3c3a1f0b	0.01135994
249	0x3da4d018	0.08047503
250	0xbda5aa34	-0.08089104
251	0x3da2ca5f	0.079487555
252	0x3db1a4f4	0.086740404
253	0x3d5432d1	0.051806275
254	0x3d3f33aa	0.04668013
255	0x3de80189	0.11328418

bias_ih_l1 f4 [200]
0	0xbd944d09	-0.07241256
1	0x3d15c522	0.036564954
2	0xbde574b6	-0.112039015
3	0x3dfc252a	0.12311776
4	0xbdde50cc	-0.108552545
5	0x3dae8f1c	0.0852339
6	0x3d14a6ad	0.036291767
7	0xbd1fac4b	-0.03898267
8	0xbd9c2ce5	-0.076257505
9	0x3cd31fc3	0.025771981
10	0x3da21a97	0.07915228
11	0xbd4e72d9	-0.050402496
12	0xbd7fa368	-0.062411696
13	0x3de72514	0.11286369
14	0x3d8f9351	0.0701052
15	0x3dad4168	0.08459741
16	0xbdade14a	-0.08490236
17	0xbc7b1cd8	-0.015326701
18	0x3dfbed37	0.123011045
19	0xbe668bdd	-0.22514291
20	0xbbaab12a	-0.005209108
21	0xbde40b48	-0.11134964
22	0x3cdecee2	0.027198259
23	0xbe23532c	-0.15949696
24	0x3d98650c	0.07441148
25	0xbde62849	-0.112381525
26	0x3d608254	0.05481179
27	0x3bb50f65	0.005525517
28	0xbe402a1e	-0.18766066
29	0xbe0f2a6c	-0.13981026
30	0xbd1c8295	-0.03821047
31	0xbdf51892	-0.11967577
32	0xbd2a1e5e	-0.041532867
33	0xbb8c993c	-0.004290728
34	0xbb41c70d	-0.0029568106
35	0x3c7ecb29	0.015551367
36	0xbe110832	-0.14163283
37	0x3ed5c51f	0.41751954
38	0x3dfc0010	0.123046994
39	0x3d861822	0.06547572
40	0x3dc45525	0.095865525
41	0x39c1a737	0.00036936413
42	0xbe50442a	-0.20338503
43	0xbe0924af	-0.133929
44	0xbe211a2e	-0.15732643
45	0xbdb26ac0	-0.08711767
46	0xbdd747d0	-0.10511744
47	0xbd58ee83	-0.052961838
48	0xbddec22d	-0.1087688
49	0xbdb8ef0e	-0.09029971
50	0xbcafec27	-0.02147491
51	0x3d47672e	0.048682384
52	0x3cba830c	0.022767566
53	0xbdb2531a	-0.087072566
54	0xbe3c498b	-0.1838743
55	0xbc048a8d	-0.008089674
56	0x3e220182	0.15820888
57	0xbd0104f7	-0.031498875
58	0xbe0d3d38	-0.13792884
59	0xbe1262e1	-0.14295532
60	0xbd6abeb7	-0.057310786
61	0xbe085b23	-0.13316016
62	0xbd7e1cef	-0.062039312
63	0x3db9ab63	0.090658925
64	0xbe595d68	-0.21227038
65	0x3c685774	0.014181007
66	0xbdcfc559	-0.10145063
67	0xbe0e4bc2	-0.13896087
68	0xbde87556	-0.11350505
69	0xbe0d48ab	-0.13797252
70	0xbda88869	-0.08229143
71	0xbdb393ac	-0.087684005
72	0xbe0140d0	-0.1262238
73	0xbe21a44a	-0.15785328
74	0xbd86d874	-0.06584254
75	0xbd9081c1	-0.070559986
76	0xbde5ff08	-0.11230284
77	0x3de982d2	0.11401905
78	0xbc306832	-0.01076703
79	0xbd9e31ab	-0.07724317
80	0xbe0d1f54	-0.13781482
81	0xbe08eba8	-0.13371146
82	0xbca3a62d	-0.0199767
83	0xbe005279	-0.12531461
84	0x3c15af32	0.009136008
85	0x3dd30efc	0.103055924
86	0x3d4821ea	0.048860468
87	0xbe122123	-0.14270453
88	0x3e018f80	0.12652397
89	0xbddca2b3	-0.1077322
90	0x3d3a4512	0.045476027
91	0xbd9b4613	-0.07581725
92	0xbe14065f	-0.14455555
93	0xbca6722c	-0.020318113
94	0x3cd07d79	0.025450455
95	0xbe37758a	-0.17915931
96	0xbd13a999	-0.036050413
97	0xbd248b2e	-0.040171795
98	0x3d60ad58	0.054852813
99	0xbdc0ab02	-0.09407617
100	0x3cce643b	0.025194278
101	0xbbec2c14	-0.007207403
102	0x3d8c1efc	0.06841847
103	0xbe1f6916	-0.15567431
104	0xbdc10322	-0.09424426
105	0xbd436bb4	-0.047710136
106	0xbe540a6f	-0.20707105
107	0x3d46d89f	0.04854643
108	0x3dc2b02e	0.0950626
109	0xbda561ae	-0.080752715
110	0x3e54bdf0	0.2077558
111	0x3ba3e743	0.005001934
112	0x3d12a81c	0.035804853
113	0xbc87754d	-0.016535426
114	0xbce600be	-0.028076526
115	0x3c8f78c2	0.017513636
116	0x3dbc6a76	0.09199993
117	0xbd6023e2	-0.05472172
118	0xbdc8b0fb	-0.09799381
119	0x3db8ba54	0.09019914
120	0x3e427e77	0.18993555
121	0x3dcae3d1	0.09906734
122	0xbdfc456a	-0.12317927
123	0x3e03335e	0.12812564
124	0x3cb97c48	0.02264227
125	0x3c3cb4ec	0.0115177445
126	0xbd891762	-0.06693913
127	0xbe2c5faf	-0.16833375
128	0x3d5f84f8	0.05457017
129	0x3d8a5a20	0.06755471
130	0xbdc9316d	-0.0982388
131	0xbd45ca5a	-0.04828868
132	0x3e033c0f	0.1281588
133	0x3e21d51e	0.15803954
134	0x3d8c48dd	0.06849835
135	0x3e02aa63	0.1276031
136	0xbe0790cf	-0.13238834
137	0x3e438811	0.19094874
138	0x3e0005c7	0.12502204
139	0xbd659e81	-0.056059364
140	0x3da7fb21	0.08202196
141	0xbd644b6b	-0.055735987
142	0xbd0fcac5	-0.035105485
143	0xbe10243c	-0.14076322
144	0xbd50653a	-0.050877787
145	0xbd2e7161	-0.042588595
146	0xbd9e5e3b	-0.07732817
147	0xbe1e5400	-0.15461731
148	0xbbc3d18d	-0.005975908
149	0x3e00a534	0.1256302
150	0x3da09568	0.07840997
151	0xbe0c3cbf	-0.13695048
152	0xbd39315b	-0.045213085
153	0x3d0c7038	0.034286708
154	0xbc97a45f	-0.018510995
155	0xbdceecec	-0.10103783
156	0x3c6fdd15	0.014640112
157	0x3d19b2ef	0.03752416
158	0xbd9381df	-0.07202505
159	0xbe4f1111	-0.20221354
160	0xbd3fb9fa	-0.04680822
161	0xbda71f5e	-0.0816028
162	0x3dc24ef6	0.09487717
163	0xbe0b5eb4	-0.13610345
164	0x3e25cd38	0.16191566
165	0xbd9a4dac	-0.07534346
166	0xbe520111	-0.2050822
167	0xbd285b21	-0.041102532
168	0x3deb6878	0.11494535
169	0xbd180409	-0.037113223
170	0xbe3567e0	-0.17715406
171	0x3db486fd	0.088148095
172	0x3e0d491a	0.13797417
173	0xbe4b1b53	-0.19834642
174	0xbcfc8dd4	-0.030829348
175	0xbd82fdca	-0.06396063
176	0xbe04dd15	-0.12974961
177	0x3da0c142	0.07849361
178	0xbdab466b	-0.083630405
179	0xbe16dc66	-0.14732513
180	0xbdc21ee3	-0.094785474
181	0xbdb96d9c	-0.090541095
182	0xbd409d0a	-0.047024764
183	0xbcbe81c1	-0.02325523
184	0x3bee1174	0.007265264
185	0x3ccdf152	0.025139485
186	0xbdc55829	-0.09635956
187	0x3e8cdc0c	0.27511632
188	0xbdec61fe	-0.11542128
189	0x3d8aa9aa	0.06770642
190	0xbdbbb863	-0.09166028
191	0x3c8dd01f	0.017311154
192	0xbdb7bc6d	-0.08971486
193	0xbd577d31	-0.052609626
194	0xbd767786	-0.06017258
195	0xbd731a4a	-0.059351243
196	0xbe1bdd1e	-0.15221068
197	0xbce464d6	-0.027880114
198	0xbda4847b	-0.08033081
199	0xbdf79c16	-0.12090318

bias_hh_l1 f4 [200]
0	0x3d9f60be	0.07782124
1	0x3c9fb2cf	0.019494442
2	0xbc6bdec2	-0.014396371
3	0x3df07ee4	0.117429525
4	0xbb02469c	-0.0019878512
5	0xbe155782	-0.14584163
6	0xbcede451	-0.029039534
7	0xbce359d3	-0.027752792
8	0x3e139ea5	0.14415987
9	0xbdab4742	-0.08363201
10	0xbde6f870	-0.112778544
11	0xbdda417b	-0.10657021
12	0x3ae6fc3b	0.0017622778
13	0xbd6fea4e	-0.05857306
14	0x3dd24791	0.102675565
15	0xbd6818e2	-0.056664355
16	0xbde80631	-0.11329306
17	0x3d69bfc1	0.057067636
18	0xbd9cdeb9	-0.076596685
19	0xbb15f6ac	-0.0022882624
20	0xbe43e76f	-0.19131254
21	0x3d91d767	0.07121163
22	0x3e06285c	0.13101333
23	0xbe2d5e4f	-0.16930507
24	0xbdfd0aa7	-0.123555474
25	0x3d14e0cd	0.0363472
26	0xbd849866	-0.0647438
27	0x3ceebb7c	0.029142134
28	0x3c45d325	0.012074267
29	0xbe46fea5	-0.19433077
30	0xbdb89d61	-0.09014393
31	0x3cab95a8	0.020945385
32	0x3c72076c	0.014772277
33	0x3e0ad547	0.13557921
34	0xbdbaabc0	-0.0911479
35	0x3c88cd52	0.016699467
36	0xbd9e4851	-0.07728637
37	0x3e7dffad	0.24804564
38	0xbc630c8f	-0.013857975
39	0x3d4cf797	0.050040808
40	0xbe09720b	-0.1342241
41	0xbe45d0d1	-0.19317938
42	0xbde521f5	-0.111881174
43	0x3d68df6e	0.056853704
44	0xbe0dd319	-0.13850059
45	0xbdcadb57	-0.09905117
46	0xbe029b84	-0.12754637
47	0x3d996907	0.074907355
48	0x3b0d0547	0.0021518038
49	0xbd82c9f9	-0.063861795
50	0xbdad3d3e	-0.08458947
51	0x3dbb6a17	0.091510944
52	0x3e03578a	0.12826362
53	0xbdbd01a0	-0.092288256
54	0xbdc619b0	-0.09672868
55	0xbded6c26	-0.11592893
56	0x3de10d95	0.10988919
57	0xbda3604a	-0.0797735
58	0x3e05a21e	0.13050124
59	0xbb8970d4	-0.0041943584
60	0x3d9a01d3	0.07519879
61	0x3d24459d	0.04010545
62	0xbd061bf3	-0.0327415
63	0xbe181898	-0.14853132
64	0xbe16f6f4	-0.14742643
65	0x3cd15486	0.025553
66	0xbe48f53b	-0.19624798
67	0x3d692dd7	0.056928482
68	0x3c3ee98b	0.011652361
69	0x3d2e6e36	0.042585574
70	0x3c467874	0.012113679
71	0xbe049f8e	-0.1295149
72	0xbd0935d2	-0.033498593
73	0xbe1179fe	-0.14206693
74	0x3d1d797e	0.038445942
75	0xbb2d9d1d	-0.0026491352
76	0x3e032e2f	0.12810586
77	0xbddd8e3e	-0.10818146
78	0xbd9341af	-0.071902625
79	0xbca3fa21	-0.020016732
80	0x3d2fd0c8	0.04292372
81	0xbc1c6c50	-0.009547308
82	0x3ddc99f9	0.107715555
83	0x3e0ccc30	0.13749766
84	0xbdf2f953	-0.11863961
85	0x3dd9e6f8	0.10639757
86	0x3d8be4c2	0.068307415
87	0xbda5c820	-0.080948114
88	0xbd922936	-0.071367666
89	0xbd8e5d03	-0.06951334
90	0xbd7a3778	-0.061088055
91	0xbc517be1	-0.012785883
92	0xbe4ecd92	-0.20195606
93	0x3ddf8c73	0.109154604
94	0xbe0b9a79	-0.13633145
95	0xbe2e937c	-0.17048448
96	0x3ba068e1	0.004895315
97	0xbd48be88	-0.04900983
98	0xbe17ab35	-0.14811404
99	0x3dcc33d1	0.09970821
100	0x3e0a5f2b	0.13512866
101	0xbdf65404	-0.120277435
102	0x3e27a973	0.16373233
103	0xbe10fa3b	-0.14157955
104	0xbd91131c	-0.07083723
105	0xbe0381eb	-0.12842529
106	0xbe622171	-0.2208307
107	0x3d09e2c6	0.033663534
108	0x3e11688e	0.1420004
109	0x3d07206b	0.0329899
110	0xbd1cfce4	-0.038327113
111	0xbc9b6473	-0.018968796
112	0x3d631107	0.05543616
113	0x3dae4263	0.08508756
114	0x3d180c63	0.037121188
115	0x3d16283e	0.03665947
116	0x3e0d8bf1	0.13822915
117	0x3ca26d09	0.019827383
118	0xbe4cddaf	-0.2000644
119	0xbdd38f36	-0.1033005
120	0xbd9c6e29	-0.07638199
121	0x3e2d195f	0.1690421
122	0xbddc7012	-0.10763563
123	0x3e042561	0.12904884
124	0x3e425393	0.18977194
125	0xbe297428	-0.16548216
126	0xbe3da2e5	-0.1851917
127	0xbe5b9ea0	-0.2144723
128	0x3d9f70d2	0.07785191
129	0xbd8a1042	-0.06741382
130	0x3ca41e48	0.02003397
131	0x3da3509e	0.07974361
132	0x3e1d48a0	0.15359735
133	0x3e42b3a1	0.19013835
134	0x3e089fd3	0.13342218
135	0x3e25979b	0.16171114
136	0xbc82f57d	-0.015986199
137	0x3e2d9710	0.16952157
138	0x3ce99fba	0.028518546
139	0x3df87bfd	0.12133024
140	0x3c31a1de	0.010841815
141	0xbd86b699	-0.065777965
142	0x3cd5a30d	0.026078725
143	0x3c61d0f7	0.013782731
144	0xbddf3a58	-0.108998
145	0x3d68fffa	0.056884743
146	0xbe16bbc7	-0.14720069
147	0xbe4cb6ad	-0.1999156
148	0xbe1e8cea	-0.15483442
149	0x3e52f807	0.20602427
150	0x3d8d0316	0.06885354
151	0x3dafa775	0.08576862
152	0xbda660f9	-0.08123965
153	0x3d474512	0.048649855
154	0xbd20dfa2	-0.039275773
155	0x3de74e4d	0.112942316
156	0xbdf2d7e9	-0.11857588
157	0xbc399dcf	-0.011329128
158	0x3dd9d559	0.10636396
159	0xbe2ff05f	-0.17181538
160	0x3db279c2	0.0871463
161	0xbdca90a7	-0.098908715
162	0x3cbcda16	0.02305321
163	0xbd8755fc	-0.06608197
164	0x3d3af9c3	0.045648348
165	0x3cb1dbd6	0.021711271
166	0xbe00ac16	-0.12565646
167	0xbdb01518	-0.08597773
168	0x3dd84081	0.10559178
169	0xbe348b3d	-0.1763124
170	0xbaf6467b	-0.0018789315
171	0xbcb64dce	-0.022253897
172	0xbd02cdae	-0.031934433
173	0x3c597555	0.013272603
174	0x3dc42e49	0.09579141
175	0xbdcdf18e	-0.100558385
176	0xbd9d217e	-0.07672404
177	0xbe01ba36	-0.1266869
178	0xbe429144	-0.19000727
179	0xbe33befd	-0.17553325
180	0xbdfd8a1c	-0.12379858
181	0xbe3905c1	-0.18068601
182	0xbd1183fd	-0.035526264
183	0xbdc28d5d	-0.09499619
184	0xbd5914fa	-0.05299852
185	0xbe0992c3	-0.13434891
186	0x3d678c1d	0.056530107
187	0x3edf071c	0.43560112
188	0x3cae028f	0.021241454
189	0xbd3ddf69	-0.04635564
190	0xbdae5ae2	-0.08513428
191	0xbd8e32eb	-0.069433056
192	0xbdf64583	-0.12024977
193	0xbe03f2c3	-0.12885575
194	0xbd39ba21	-0.045343522
195	0xbd4aa2d2	-0.049471684
196	0xbe645a66	-0.2230011
197	0xbdd4878f	-0.10377418
198	0xbd447064	-0.047958747
199	0x3da36caa	0.079797104

weight f4 [1, 50]
0	0x3c2b2421	0.0104456255
1	0xbda1807f	-0.07885837
2	0x3dd3867f	0.103283875
3	0xbd915aed	-0.07097421
4	0x3d10afa1	0.035323743
5	0xbd2604b4	-0.04053183
6	0xbd8cbd06	-0.06871991
7	0x3d9dd090	0.07705796
8	0x3e0d4ae6	0.13798103
9	0x3d7dd71b	0.06197272
10	0x3d9235b3	0.071391486
11	0x3da18de9	0.07888395
12	0x3c6a3182	0.01429403
13	0x3d52b89e	0.051445596
14	0xbbf497c4	-0.007464381
15	0x3d86b816	0.0657808
16	0x3c18132c	0.009281915
17	0x3c8d3e73	0.017241692
18	0xbdb943dc	-0.09046146
19	0x3daa9339	0.08328862
20	0x3d632b8c	0.05546145
21	0x3ded94f6	0.11600678
22	0xbdbfa077	-0.09356778
23	0xbd45c7bf	-0.048286196
24	0x3dce246e	0.10065542
25	0x3d403839	0.046928618
26	0xbdd1d151	-0.10245002
27	0xbe07332f	-0.13203119
28	0x3d8784a1	0.06617094
29	0x3cd03779	0.025417076
30	0xbd0c0e12	-0.034193106
31	0x3d01db96	0.031703554
32	0x3ddea70f	0.10871708
33	0x3d90c44f	0.07068693
34	0x3de2216c	0.11041531
35	0x3dee1786	0.116255805
36	0xbd8146fd	-0.06312368
37	0xbe4af5cc	-0.19820327
38	0x3d69922c	0.057024166
39	0xbceab936	-0.028652769
40	0x3d4b42ba	0.049624182
41	0x3ba53c96	0.005042623
42	0xbc95afb8	-0.018272266
43	0xbd9ff417	-0.07810228
44	0xbdd195ad	-0.102336265
45	0x3c95b5f5	0.01827524
46	0x3d463ed9	0.04839978
47	0xbdcd868f	-0.10035431
48	0xbd982ed0	-0.07430804
49	0x3e17f41f	0.14839219
