train_model_daily/best_model_5.pth (torch, 127927 bytes, 9 tensors)

weight_ih_l0 f4 [200, 1]
000000 42 e5 62 bb 54 dc 0f be 41 ba 84 bd db 2e 6a be
       -0.0034621512 -0.14048892 -0.064808376 -0.22869436
000010 e4 dd 6e 3d e9 11 20 be bf f1 81 be 2c a8 19 be
       0.05831708 -0.15631832 -0.2537975 -0.15005559
000020 f4 37 80 be 96 ff 95 bc 9f 9d b6 bd 8d fc a1 bd
       -0.2504269 -0.01831035 -0.089167826 -0.07909498
000030 73 51 42 be f7 24 b3 3d ef 72 26 be 1a 75 20 3d
       -0.18976383 0.08747285 -0.16254781 0.039174177
000040 2f 25 17 be c7 89 07 be c4 62 84 be 37 e1 a6 3c
       -0.14760278 -0.13236152 -0.25856602 0.020371063
000050 b2 66 27 be 5d e1 79 bc 3d 2e 53 be 86 4a fc bc
       -0.16347769 -0.015251485 -0.20623107 -0.030797254
000060 da f3 67 bd e6 6d 59 be 4c 2a db bd bc 2e 21 bd
       -0.05662904 -0.21233329 -0.10701427 -0.03935121
000070 e0 3f 79 be 20 a0 18 be 3b 14 c3 3c 8d 65 9a bc
       -0.24340773 -0.14904833 0.023813358 -0.018847251
000080 7a 51 c2 3d 52 38 8a be f3 91 1c 3d 91 53 ec 3c
       0.09488197 -0.26996094 0.038225126 0.028848441
000090 d6 fd 2a be c8 20 93 bd 69 8b b7 bd 61 ff a4 bd
       -0.16698393 -0.07183987 -0.08962137 -0.08056522
0000a0 ba 3d 4a be 08 76 06 3d 87 2a ed bd e8 14 ef 3c
       -0.1975011 0.032827407 -0.11580377 0.029184774
0000b0 84 bb bf bd 44 78 30 bd ab a6 b6 bd 68 9c a2 bd
       -0.09361938 -0.043083444 -0.08918508 -0.079399884
0000c0 76 38 24 3c 00 42 29 be 55 4a 4f be e0 e8 cf bd
       0.010023227 -0.16529083 -0.20243199 -0.10151839
0000d0 d1 1e 36 be 21 1d 7f be 80 4c 62 3b 30 40 b6 bd
       -0.17785193 -0.24913456 0.003453046 -0.088989615
0000e0 9b 22 5e be ad cd d6 bc 39 72 32 be be 1b 51 bd
       -0.21692888 -0.02622112 -0.17426385 -0.051051848
0000f0 48 8a 9b 3d 8a c5 57 be 1b 69 b7 bd 4c 9b 02 be
       0.075947344 -0.21071449 -0.08955594 -0.12754554
000100 60 e7 10 be a0 82 3a be 4e 10 50 3d 46 6d 22 be
       -0.14150763 -0.18213892 0.0507968 -0.15861997
000110 bd 38 5a be 5b 3b a0 3d 7a 60 47 3d 30 88 91 3d
       -0.21310706 0.07823821 0.04867599 0.07106054
000120 61 fe cd bd 66 e2 e9 bc dc 43 c5 3c 7d 91 0f be
       -0.100582846 -0.028550338 0.02408021 -0.14020343
000130 50 2d 23 be dc 7b 42 bc 3d d8 2e be 16 74 cc bd
       -0.15935254 -0.011870351 -0.17074676 -0.09983079
000140 33 cd d4 bd 88 a6 6b 3b d5 e9 2d 3d b5 2b 86 be
       -0.10390701 0.0035957415 0.042459328 -0.2620522
000150 e9 fb 41 bd c2 87 73 be 37 b0 0c be c7 b0 7b be
       -0.04735938 -0.23782256 -0.13739096 -0.24579154
000160 e6 33 a6 bd 62 92 19 be 75 4e 63 3b ea 88 02 bd
       -0.081153676 -0.14997247 0.0034684215 -0.031868853
000170 9d 21 81 bd e1 d4 fb bd cd 73 75 bd 93 77 46 be
       -0.06305239 -0.12296463 -0.05992489 -0.19381551
000180 9c 8e 72 bc 50 84 8e 3d 84 d2 8d bc c7 20 4d be
       -0.014804509 0.0695883 -0.017312296 -0.20032035
000190 28 b1 16 be 20 87 e0 bc 84 8c 78 bc f8 67 1f 3d
       -0.14716017 -0.027408183 -0.01517022 0.03891751
0001a0 ac 96 8d 3d 1b fa bf 3a 61 1c 22 be 04 8d 43 3d
       0.06913504 0.0014646681 -0.15831138 0.047741905
0001b0 3a c6 48 be b3 fa c5 3d 7c df 97 3c 24 a3 35 bd
       -0.19606867 0.09666958 0.018539183 -0.044345036
0001c0 1a 7d 74 bd e3 0c c9 3d 52 c8 9e 3d 56 79 c4 bd
       -0.05968962 0.09816911 0.07753052 -0.095934555
0001d0 7a e6 07 be 7f 57 47 3c f8 5d 63 be 9c 95 ec 3d
       -0.13271514 0.012166857 -0.22203815 0.11551973
0001e0 64 f1 07 be 8c 89 68 3d ae a3 03 bd 97 99 54 bd
       -0.13275677 0.0567718 -0.03213852 -0.051904287
0001f0 f2 e9 06 3d a9 b2 06 3e 01 74 10 3e 6d 20 18 be
       0.03293795 0.13154091 0.14106752 -0.1485612
000200 2b d0 bf bd 2b 80 89 bd 05 05 68 bd 70 c8 29 bd
       -0.09365877 -0.06713899 -0.056645412 -0.041450918
000210 2d b9 a1 bd c4 68 c3 3d 35 bf 0f bd 28 42 b8 3c
       -0.078966476 0.09541467 -0.03509446 0.022492483
000220 68 fe 8c bd 2b 58 08 bc bc 0e 7d bc 32 5e 6a bd
       -0.06884462 -0.008321802 -0.0154454075 -0.057218738
000230 52 02 2c be 70 50 07 3d 0d a2 33 bd 16 9b d0 3d
       -0.1679776 0.033035696 -0.043855716 0.1018583
000240 1e f5 22 3d fd 9e ff bd bd 2c 17 3e 08 ec 6f bd
       0.039784543 -0.124814965 0.1476316 -0.058574706
000250 12 54 99 bd 68 de 0c 3e c6 8e 16 bd 50 09 c8 3d
       -0.07486738 0.13756716 -0.036757253 0.09767401
000260 d3 d1 86 3c b4 46 42 bd 3c cc ab bd ba 14 92 bd
       0.016457474 -0.04743071 -0.08388564 -0.071328595
000270 64 61 b6 3b e9 7f fd bd 1b 0c 37 bd 6b fb 66 3d
       0.005565809 -0.123779126 -0.04468928 0.056392115
000280 92 4e 63 3d fe 33 ec bb aa 7d c8 3a e3 78 fb 3c
       0.055494852 -0.0072083464 0.001529624 0.030697292
000290 2a a5 be 3d dc 74 27 3d db 90 fd bd 19 c6 80 3c
       0.09308846 0.04088293 -0.123811446 0.01571946
0002a0 c3 b2 12 be 3a 3d 34 be a3 96 91 bd a2 7c 33 be
       -0.14326005 -0.17601481 -0.0710881 -0.17528012
0002b0 6b 3d 6c bd 74 dd 9d bc df f8 36 bd d6 bd 17 3c
       -0.05767576 -0.019270636 -0.044670936 0.009261569
0002c0 dc ee ff 3c 7b de 64 bd ff 6a 1b be 74 46 20 be
       0.031241827 -0.055876236 -0.15177535 -0.15651876
0002d0 db 10 3e be 8e 3e 67 bd 37 21 b4 bb 08 a6 ba bd
       -0.18561117 -0.05645614 -0.0054971236 -0.09113699
0002e0 88 d1 57 be 2a 75 9d bd 9a 91 15 be ab 2f ae bd
       -0.21076024 -0.07688363 -0.14606324 -0.08505186
0002f0 58 d0 5c be 1e 5d fb bd 04 93 ea bd ec 54 94 bc
       -0.21563852 -0.1227362 -0.11453822 -0.0181069
000300 16 fe df bd 4b d5 78 3c 4b fe 14 be 63 c3 8d be
       -0.10937135 0.015187572 -0.1455013 -0.2768813
000310 da 67 3f be 8a 81 00 be 8c c1 1b be 02 ef ed bd
       -0.1869196 -0.12549415 -0.15210551 -0.11617853

weight_hh_l0 f4 [200, 50]
000000 81 d8 00 3e f2 a1 29 be 83 09 03 3e ed 1a 9d bd
       0.1258259 -0.16565683 0.12796597 -0.07671151
000010 20 04 43 bd 34 44 81 bc e1 fc b6 3d 0d 90 ca 3d
       -0.047611356 -0.015779592 0.089349516 0.09890757
000020 8c b3 74 3d 7e a6 45 be e8 37 18 3c 8d 8f 1b 3d
       0.05974154 -0.19301793 0.009290673 0.037978698
000030 7d 0d 8a 3d b5 43 dd bd 02 87 a8 bc f9 21 01 3b
       0.06740854 -0.1080393 -0.02057219 0.0019704087
000040 d2 d3 21 be 38 57 8a 3d ee 21 0a be 27 69 cb 3b
       -0.1580346 0.06754917 -0.13489506 0.0062076035
000050 b1 e8 dc 3d 73 15 88 bd 60 79 fb bc c6 46 f0 3d
       0.1078657 -0.06644716 -0.030697525 0.11732249
000060 3a 74 6e 3d 96 00 07 be ef 83 ef 3d 0c bb 9c 3d
       0.05821631 -0.13183817 0.11695086 0.07652864
000070 57 95 55 bd bf e0 a4 3d 49 78 93 bc 99 4c c6 bd
       -0.052144375 0.080506794 -0.018001692 -0.096825786
000080 1c bc 2c 3e 86 f0 13 be 27 eb 99 bd 4e 9d 0a bd
       0.16868633 -0.14447221 -0.07515555 -0.033841424
000090 c5 0a db 3d c2 c7 02 bd 07 8e ed 3d df d7 c3 3d
       0.106954135 -0.031928785 0.11599355 0.095626585
0000a0 ba 79 a4 3d c8 9f e9 3d d1 fb 8b 3c cc 7b 0e 3d
       0.0803103 0.11407429 0.017087849 0.03478603
0000b0 7e 46 5d bd 48 f2 59 bd 36 69 98 bc b0 cb 6e 3d
       -0.054022305 -0.053209573 -0.018604856 0.05829972
0000c0 3f bd eb 3d 9b d6 83 3d c2 e8 e6 bc 10 fa 4a bd
       0.11510705 0.06437417 -0.02818716 -0.049554884
0000d0 9d b6 13 3d e1 a4 0e be a2 cb 19 be 10 eb b2 bc
       0.036062825 -0.13930084 -0.15019086 -0.021840602
0000e0 c1 67 97 3d 36 b2 14 3d 94 c9 8c 3d e5 3e 78 bd
       0.07392836 0.036302768 0.068743855 -0.060606856
0000f0 40 dd 7a bd 8a f9 0b be 37 db 11 be 01 9f 29 be
       -0.061246157 -0.1366941 -0.1424378 -0.16564561
000100 4b 37 0f 3e ee 50 b7 bc d9 1b f0 bd 48 18 1e bd
       0.13985936 -0.022377457 -0.117240615 -0.038597375
000110 3c a7 90 3d 36 15 fa bc 43 c7 7d 3d 64 2d 3c 3b
       0.070631474 -0.030527692 0.06195761 0.0028713578
000120 4e 8a 28 bd af c4 7d bc 3e 49 e7 bc 29 e5 c8 bd
       -0.041147523 -0.015488788 -0.028233167 -0.09809334
000130 7e 5e 11 3e 22 de ab bd 78 2e 12 bd e0 04 ab 3d
       0.14196202 -0.08391978 -0.035688847 0.08350539
000140 0c c9 39 3e 69 93 d8 bd e4 4d 7b bd 61 1a 7e 3d
       0.181431 -0.10574991 -0.06135358 0.062036876
000150 4b 7f be bd 48 d5 05 be 94 f5 16 be 07 57 6b 3d
       -0.09301623 -0.13069642 -0.14742118 0.057456043
000160 30 84 98 bd f8 c4 c4 3d 7f 6c 0e be 9e 86 56 3d
       -0.07447088 0.09607881 -0.13908575 0.052374475
000170 b8 a3 8f bd 82 90 32 3d a8 c8 5a 3c 79 4e 40 3d
       -0.07013649 0.043594845 0.013353504 0.046949837
000180 98 f2 4d 3d b8 87 65 3d 4d 40 19 3d bb 1e b7 3c
       0.050280184 0.056037635 0.037414838 0.02235352
000190 01 47 80 3d 39 09 a5 bd 8f a2 9b 3b 11 35 8e 3d
       0.06263543 -0.080584 0.004749603 0.06943715
0001a0 44 eb 01 be 42 43 f3 bd 4d c6 9b bd 60 34 ab bd
       -0.12687403 -0.11878063 -0.07606182 -0.08359599
0001b0 1b 3d c8 3d 07 a5 c7 bd ba 45 e7 bd 1a 1b a3 bb
       0.0977728 -0.09748273 -0.11292596 -0.004977596
0001c0 da 32 52 3d 7d 38 d8 bc 26 69 2c 3e 79 16 a1 3d
       0.051318027 -0.026394123 0.16836986 0.078656144
0001d0 cc eb f9 bd 05 48 c2 3d 4e 71 03 bd e7 bb 39 3e
       -0.12203178 0.09486393 -0.032090478 0.18138085
0001e0 77 44 65 3d b0 4d e1 3c 49 7f f3 bc aa 80 47 3d
       0.055973496 0.027502865 -0.02972378 0.048706688
0001f0 5e 95 69 bd 83 24 87 3d 77 23 3e 3e 3f cd 87 bc
       -0.057027213 0.06598761 0.18568216 -0.016577361
000200 d1 11 68 bd c6 80 03 3d 32 99 43 bd 17 ee 84 bd
       -0.056657616 0.03210523 -0.04775352 -0.064907245
000210 06 e1 91 bd b3 61 21 3e 5f 0e d6 bc 98 5b 2c bd
       -0.07122998 0.15759926 -0.0261299 -0.042079538
000220 b9 ca e8 bd 92 1b dc 3d 4e 49 db bc b6 bb 08 3e
       -0.11366791 0.10747446 -0.026768353 0.13352856
000230 7f 74 8e 3d a2 f5 36 bd a7 1e 43 3e 2c a1 5a 3c
       0.069558136 -0.044667847 0.19054662 0.01334409
000240 fa 3f 09 bd d4 9c 95 bd 9d f2 87 bc c4 22 42 3d
       -0.03350828 -0.07305303 -0.01659518 0.047396436
000250 40 5e 36 3e 33 57 04 3e 81 01 30 3d 43 e9 40 bc
       0.17809391 0.12923889 0.042970184 -0.011774364
000260 54 30 78 3c 58 ff 37 be 6b a8 b3 bd d4 b3 ba 3a
       0.015148241 -0.179685 -0.087723576 0.0014244267
000270 0f e8 3e be a0 4d f9 3d 47 0f a0 bd d2 22 5d be
       -0.18643211 0.12173009 -0.07815414 -0.21595314
000280 a7 3a 2d bc 04 c9 33 be e6 ba a8 bd bd 7e 47 be
       -0.010573066 -0.1755715 -0.08238773 -0.1948194
000290 32 d4 97 3d 05 9d 99 bd 37 2f 96 bd 84 7f 2d be
       0.0741352 -0.07500652 -0.07333224 -0.16943175
0002a0 7c 3d 15 be 0c c9 39 3d 4b 77 28 be 85 bf 13 be
       -0.14574236 0.04535775 -0.16451757 -0.14428528
0002b0 8d a7 5f 3d a3 74 14 3e fc 9c 5d bd 88 b0 28 3e
       0.05460315 0.14497618 -0.05410479 0.16473591
0002c0 36 8b a5 3c 0f d7 f4 3d 26 6e 2a be bb 41 3f 3d
       0.020207983 0.11955082 -0.16643581 0.046693545
0002d0 e6 05 1b 3e 55 0d 1e be c4 0a 20 3e 41 2c 22 bd
       0.15138969 -0.15434773 0.15629107 -0.039592985
0002e0 dc 9b 6b bc b5 79 71 3e a0 cf c5 bc 41 98 15 be
       -0.0143804215 0.23581584 -0.024146855 -0.14608862
0002f0 f8 ef 4f 3d 96 da c1 3d 9a 70 c1 bc e4 d8 8b bc
       0.05076596 0.0946552 -0.023613263 -0.017071195
000300 e5 36 94 3d d7 29 17 3d b2 2b 18 3d 3e 52 0d 3b
       0.07237033 0.036905136 0.037151046 0.0021563913
000310 4d 17 75 3d 25 5d 1d 3e a6 29 dc bc ef fe f5 3d
       0.059836674 0.15367563 -0.026875328 0.12011515
000320 6c 48 1c be ee a8 0a bd da 19 67 bd 41 8d c5 bd
       -0.15262002 -0.03385251 -0.05642114 -0.09646083
000330 ec 37 55 3d a1 7d 3f be c5 30 de 3b c6 b8 0e 3e
       0.052055284 -0.18700267 0.006780716 0.13937673
000340 2e f9 0b be 48 68 24 3d 20 d4 36 ba 50 f5 32 3c
       -0.13669273 0.040138513 -0.0006974358 0.010922745
000350 68 54 d5 bd 33 4e 85 bd 71 9c 8e bd 50 be 6d 3d
       -0.1041649 -0.06509056 -0.069634326 0.058042824
000360 65 77 aa bd 16 12 3a be 06 11 59 3d 83 79 a5 3d
       -0.08323554 -0.18170962 0.05299475 0.08079817
000370 e4 a4 24 be be df 88 bc 26 f2 0d 3e f4 b7 2b bc
       -0.16078526 -0.016708251 0.13861904 -0.01048087
000380 a8 e3 c6 3d df 7f 0f 3e 2c a9 c3 3d 3e 26 d7 bd
       0.09711391 0.14013623 0.09553751 -0.10505341
000390 42 98 54 be 77 9e 45 be ff e1 37 bd cd c9 a9 3d
       -0.20761207 -0.19298731 -0.04489326 0.082904436
0003a0 82 16 1b bd 8e e0 fe bb 05 1f 38 be 14 0c bc bc
       -0.037863262 -0.007778234 -0.17980583 -0.022954978
0003b0 c7 f8 14 bd 58 0e c8 bd d7 35 5c 3d f1 db 25 3d
       -0.036370065 -0.09768361 0.053762283 0.040492956
0003c0 c1 d1 d8 bd 65 e0 f5 3d 8f c8 e7 3d fd 65 4f bd
       -0.105868824 0.120056905 0.113175504 -0.050634373
0003d0 26 00 85 bd 7a 6f 90 bd 87 39 c9 3d 0b 6f 19 3d
       -0.06494169 -0.070525125 0.098254256 0.037459414
0003e0 e5 52 a9 bd 62 4f 2e 3e b2 7f 86 3d fc 70 bf bd
       -0.08267764 0.1702247 0.06567325 -0.09347722
0003f0 ef 49 97 3d 5c 10 6e 3d fd 7c 3b be 80 b1 b8 bd
       0.073871486 0.05812107 -0.18309398 -0.090182304

bias_ih_l0 f4 [200]
000000 67 5f 29 be fa 99 cd bd e6 fc 10 3d cc 8b ba bc
       -0.165403 -0.10039134 0.035397433 -0.022771738
000010 ff c8 95 bd d3 4a 36 bc 2c 41 9e bc 37 6b dd 3c
       -0.073137276 -0.011126238 -0.019318186 0.027028663
000020 20 23 fa bd 99 f5 90 bb 32 db 1f bd 89 32 4c be
       -0.12213731 -0.004423809 -0.0390274 -0.19941153
000030 50 7f 21 3c a7 61 e4 bd 9c 5d 97 bd b9 2d a2 bd
       0.009857014 -0.11151438 -0.073909014 -0.07918877
000040 4f e5 3e be 56 22 93 3c dd a4 21 bd 4e a9 b2 3d
       -0.18642162 0.017960709 -0.039463867 0.087236986
000050 ec c9 53 bd 81 98 07 bd 15 83 8d be 81 20 88 be
       -0.05170624 -0.033104423 -0.2763907 -0.265873
000060 43 05 14 bd ae 6d 73 be 89 dc 4f be ae bb ae 3c
       -0.03613783 -0.23772308 -0.20298971 0.021329727
000070 a5 4b 76 be 04 f5 65 3d 5b b1 84 3d b4 43 ea 3c
       -0.24052294 0.05614187 0.0647914 0.028596736
000080 13 5f 00 be 0b c2 8b be f7 71 5e be 0a 43 bc bd
       -0.12536268 -0.2729648 -0.21723162 -0.09192474
000090 f7 06 bf bd 85 e1 1e bd 19 5d b4 bd 1c a9 dc bc
       -0.093275 -0.03878929 -0.088068195 -0.026936106
0000a0 51 45 4f be 4d d5 c1 bc 45 77 03 be 3c 38 84 be
       -0.20241286 -0.02366128 -0.12838466 -0.25824153
0000b0 d3 c2 29 be 31 c8 3b be 9d 73 aa bb b2 a9 a1 bd
       -0.16578226 -0.18338086 -0.0052017705 -0.07893695
0000c0 fc 87 c5 3c 48 fe 80 bc 35 29 c0 3b 3f 75 bf 3d
       0.024112694 -0.01574625 0.0058642873 0.09348535
0000d0 ef 26 63 bc d2 41 69 be 01 55 21 3c f9 c5 a4 bd
       -0.013864263 -0.22779015 0.009846927 -0.08045573
0000e0 11 63 0a be d7 d4 7f 3d 48 c7 02 be 5e 7a f7 bd
       -0.13514353 0.06245884 -0.12771332 -0.120838866
0000f0 b2 d6 6e bc 0c 29 0a be 7c 6c 19 3d 14 7a ab 3c
       -0.014577555 -0.1349222 0.037456974 0.020932235
000100 ea 34 51 3d 62 8f 54 bd 3c 68 33 be 48 65 b1 bd
       0.051075853 -0.051894553 -0.17520231 -0.08661896
000110 20 a2 0d be 92 a2 30 be e4 ba 8c bd 7b 8d 34 be
       -0.13831377 -0.17249516 -0.06871584 -0.17632096
000120 54 53 f3 bd c0 89 a6 bd bf 45 3a be 1b 8c 06 bd
       -0.11881128 -0.081317425 -0.18190669 -0.03284846
000130 61 87 9a bd f9 fb e8 bb a8 fe 32 be 6d 67 0f 3d
       -0.07545353 -0.0071101156 -0.17479956 0.035010744
000140 ab c1 43 be 99 a6 39 be 13 6a d6 bc 19 47 da bc
       -0.19116847 -0.18129958 -0.026173627 -0.02664523
000150 16 cd b4 3c a7 75 93 bd 21 d1 99 bc f7 78 bf bc
       0.022070449 -0.07200175 -0.018776478 -0.02337311
000160 10 f8 2b be 64 6a e7 bd 7e 82 04 3d 32 fd 18 bd
       -0.16793847 -0.11299589 0.03235101 -0.03735084
000170 7b fc 90 3c 45 a4 74 be 96 84 15 be 94 81 cf bd
       0.017698517 -0.23890789 -0.14601359 -0.10132137
000180 05 ae 85 3b d4 3e 8f 3c 62 f2 3c bd c5 62 ce bd
       0.0040795826 0.017486013 -0.04612959 -0.100774325
000190 7e 35 73 bd b7 3a ac bc 56 14 29 bd 59 58 fa 3c
       -0.059377186 -0.021024091 -0.04127916 0.030559706
0001a0 60 7a f8 bc e4 33 58 bc db c3 d3 bc 11 6c 53 bd
       -0.03033179 -0.013195965 -0.025850227 -0.051616732
0001b0 ca 1e ae bd fe e8 46 3c 22 fa e0 bc 2f f2 5e bd
       -0.08501966 0.012140511 -0.027463023 -0.054430183
0001c0 b9 64 0f bd 35 60 70 3c 73 77 a0 bd 63 43 58 bd
       -0.035008166 0.014671375 -0.07835283 -0.05279864
0001d0 bd 62 8c bc 18 56 74 3d b6 07 55 3c ce 11 33 3c
       -0.017136926 0.059652418 0.013002327 0.010929538
0001e0 78 78 14 3c c2 67 56 3d b4 ff eb bd aa 0e e2 3d
       0.009061925 0.052345045 -0.11523381 0.11037953
0001f0 0f 0a d6 3d 63 cc ee 3b 45 aa 00 3d f6 30 9b bc
       0.10451137 0.0072875484 0.03141238 -0.018944245
000200 ff ec 21 be 38 ac c3 bb 1d 0c 98 3a 15 c4 84 3d
       -0.15813063 -0.005971458 0.001160029 0.06482712
000210 58 57 fa ba 31 2f 09 bd 6a bf 52 bc 44 a6 94 bd
       -0.0019099517 -0.03349227 -0.0128630195 -0.07258275
000220 24 2a 2d bc d8 03 d8 bd 79 1d 11 3d 6b 8f 01 3e
       -0.010569129 -0.10547608 0.035428498 0.12652366
000230 4c f6 ec bd 63 8a 81 3c 82 8e 51 bd bd 96 8e bd
       -0.11570415 0.015813058 -0.051161297 -0.06962345
000240 e2 6d a8 3d 4c 0b 43 3c 32 3b 8b bd 71 68 fe bd
       0.082240835 0.011904549 -0.067984 -0.12422264
000250 70 3e c5 bd 84 3a 9b ba 6c 7a 00 be 0e e6 09 3d
       -0.0963105 -0.0011843 -0.125467 0.033666663
000260 db cf e5 bd 5a 81 9b 3c 43 28 12 be 72 6a 91 3c
       -0.11221286 0.018982578 -0.14273171 0.017750952
000270 f6 ee 1a bd 49 6e ab bd 97 b7 ca bd 43 8f 63 bd
       -0.037825547 -0.083706446 -0.09898298 -0.055556547
000280 8b 32 df bd c6 b1 e6 3c 84 f5 e5 3c 6a b9 46 3b
       -0.10898312 0.02816094 0.028071173 0.0030322918
000290 e4 a2 ed 3c 85 ee 0a be 07 cd 7f 3d 6f ea 8e 3c
       0.029008336 -0.1356755 0.06245139 0.017445771
0002a0 03 56 e3 bd 00 f7 45 3d a3 87 17 bd 89 d8 32 be
       -0.1110039 0.04833126 -0.036994588 -0.17465414
0002b0 cc 09 9b be 0f ac 9a bd b0 02 ad bc ca 45 1b be
       -0.30280912 -0.07552349 -0.021119446 -0.15163341
0002c0 b6 66 2a be 74 00 2e be da b4 0f be d6 93 4c 3d
       -0.16640744 -0.1699236 -0.14033833 0.049945675
0002d0 b8 d5 3e 3d 78 c3 93 bd 3c 76 32 3d b5 3d 3e be
       0.046590537 -0.07215017 0.04356979 -0.18578227
0002e0 a1 99 39 be 7a 9a bd bd fe 63 a1 bd 91 35 2e bd
       -0.18125011 -0.0925798 -0.078804 -0.042531554
0002f0 c4 21 d1 bd 30 1c 39 be c4 e7 25 be d5 fa 19 bc
       -0.102115184 -0.18077159 -0.16201693 -0.009398182
000300 aa 17 c0 3d 84 7a 77 be 6f 51 c1 bd 4e c4 69 be
       0.093795136 -0.2416783 -0.0943936 -0.2282879
000310 5a 19 8d bd 0f 84 d3 bd b7 9a 64 3d f3 75 00 be
       -0.06889601 -0.103279226 0.05581161 -0.12544994

bias_hh_l0 f4 [200]
000000 a0 7b c4 bb 1d ef c0 bc 3d 25 4b be a9 bd 99 bb
       -0.0059961826 -0.023551518 -0.19838424 -0.0046917987
000010 9b 6a 1d be 5e 70 3c be 7c cd bf bd fe 3d 2e bd
       -0.15372698 -0.1840224 -0.09365365 -0.04253959
000020 cf 38 4e be ae 88 62 3d ed a7 21 be 70 4f 1f be
       -0.20138858 0.05530613 -0.15786715 -0.15557647
000030 7a 9e 55 bd 34 15 17 be 04 a2 63 3d a0 43 00 3b
       -0.05215309 -0.14754182 0.055574432 0.0019571558
000040 7a f8 2b 3d b5 9c 7c 3d 00 82 76 bd 61 8a 36 be
       0.041985013 0.061672885 -0.06018257 -0.17826225
000050 3a cc 00 be 2d c0 64 bd 30 8c 49 bd 1a 35 c5 bc
       -0.12577906 -0.055847336 -0.04920596 -0.024073172
000060 c3 c0 9a bd e4 2b 20 be 5d de a4 bd 1d 7f c0 bd
       -0.07556298 -0.15641743 -0.08050225 -0.09399245
000070 d7 33 82 bd 2f 90 97 bd 6b 41 34 be fd 4c 8f bc
       -0.06357544 -0.07400548 -0.1760308 -0.017492766
000080 c4 28 1e be 40 85 8a be 35 62 12 be 74 c8 44 3d
       -0.15445238 -0.27054787 -0.14295276 0.04804273
000090 27 71 9d 3c 98 7b 84 be 30 14 d0 bd f7 a2 eb 3b
       0.019218994 -0.25875545 -0.101601005 0.007191058
0000a0 58 87 1d be 69 d8 56 bd 03 61 7b bd 6f 12 53 bd
       -0.15383661 -0.05245248 -0.061371814 -0.05153125
0000b0 c9 73 33 be 88 66 b4 b9 c4 f5 94 3d 07 80 1b bd
       -0.17524637 -0.00034408667 0.072734386 -0.037963893
0000c0 f2 de 22 be af e8 b5 bd 7d a1 c0 bd ce cd f0 bd
       -0.1590536 -0.088822715 -0.094058014 -0.11758004
0000d0 60 48 67 be d3 2a 80 be 8e 21 30 bc 94 5a 95 bd
       -0.22586203 -0.25032672 -0.010750188 -0.07292667
0000e0 b6 3b 7b be 6e c4 f1 bd 68 e4 0f bd 35 d7 8f bb
       -0.24534497 -0.11805044 -0.035129935 -0.0043896683
0000f0 7e c6 c5 bc 41 5f 2a be 72 bc 73 bd 36 ef 29 bd
       -0.0241425 -0.16637899 -0.059505887 -0.041487895
000100 e3 cb 24 be 0c cf 2b bd 92 7e 36 bd 21 16 0e be
       -0.16093402 -0.041945502 -0.0445543 -0.13875629
000110 92 d7 28 be 91 d7 85 3d ff f9 c5 bc d5 34 5e bb
       -0.16488484 0.06535257 -0.024167059 -0.0033906002
000120 23 f2 5e bd 0a 45 dd bd 38 0c 27 be 74 55 d5 bd
       -0.05443014 -0.10804184 -0.16313255 -0.104166895
000130 e6 9a 02 be ea 99 bf bd 69 b5 a6 be 87 8e e2 bd
       -0.12754402 -0.09355529 -0.3256028 -0.11062341
000140 6f c2 13 be e7 f0 05 3b 76 0c b3 3d 6e db 05 be
       -0.1442964 0.0020437778 0.08742611 -0.13071987
000150 af d8 74 bd d9 0b 6c be 8f 89 c8 bc ab 99 da bd
       -0.059776958 -0.23051395 -0.024479656 -0.10673841
000160 57 a7 d2 bc b2 a2 89 bd 33 75 d6 bc 8b ee 25 be
       -0.02571456 -0.06720485 -0.026178932 -0.16204278
000170 78 2a 8a 3c 04 f2 0a bd a2 5b f9 bd 62 bc e8 bc
       0.016865954 -0.03392221 -0.12175681 -0.02841014
000180 bd 96 e0 bd 6e d1 d8 bc af 8c 96 3c 8a 70 65 3d
       -0.10966251 -0.026467051 0.01837763 0.05601553
000190 43 99 8a bc d1 10 8a 3d 4f 8b 83 bd 6c 86 29 3c
       -0.016918784 0.06741489 -0.064230554 0.01034699
0001a0 31 19 5b 3c 0e 84 96 3d 7a 66 7c bb 45 df 03 3d
       0.013372705 0.07349406 -0.003851323 0.03219535
0001b0 bf 03 37 3d 8a ae 6c 3d 2f 2a 91 ba 47 03 c1 bc
       0.044681307 0.05778364 -0.0011075194 -0.023561133
0001c0 4f fe ec 3c 37 43 f1 3c a8 80 76 3d c2 d2 26 3a
       0.028929858 0.029450996 0.06018129 0.0006363803
0001d0 12 ce 8a 3d e4 3e ce bd db 12 1e bd 0a e0 25 bd
       0.06777586 -0.10070589 -0.0385922 -0.040496863
0001e0 89 e3 d3 bc c5 87 55 3c 9d d7 00 3e 24 76 13 bd
       -0.025865333 0.013032858 0.1258225 -0.03600134
0001f0 f8 63 b9 3b a8 52 4c 3d e6 fa 2f bd 92 28 56 bd
       0.005657669 0.049883515 -0.042963885 -0.052284785
000200 15 12 4a 3d 96 85 85 bd be db 80 3d 41 86 65 3d
       0.04933365 -0.0651962 0.062919125 0.056036238
000210 78 ac 41 bd 62 40 df 3d bd 18 4f 3d 30 54 95 3d
       -0.04728362 0.10900952 0.0505607 0.07291448
000220 85 9f 76 bc 9e 10 a2 3d 95 04 5e 3b 5d f2 e1 bd
       -0.015052681 0.07913326 0.0033877243 -0.11032555
000230 4a 5a 80 3d ba 3f e3 bc af 7e 93 3d 8e 65 aa 3c
       0.06267221 -0.027740348 0.07201897 0.020800378
000240 16 28 9f bd f2 48 26 3d be 54 ca 3c 66 be 4c 3d
       -0.07771318 0.04059691 0.024698611 0.049986266
000250 76 4c e8 3c d3 cb ad 3d 3e d2 7a bd e2 34 ac bd
       0.028356772 0.08486142 -0.06123566 -0.08408524
000260 e5 a1 52 be 68 00 08 be 35 4f b3 bd 36 9f be bd
       -0.2056957 -0.13281405 -0.08755342 -0.09307711
000270 28 14 65 bd 2d f0 2b 3d af 0c 04 be f3 c9 c8 3d
       -0.055927426 0.041977096 -0.12895463 0.09804144
000280 9b 75 9d bc d9 6d dc bd d2 b7 89 bd 60 2d ad bc
       -0.019221118 -0.10763139 -0.06724514 -0.0211398
000290 6f 9a 3b 3d d7 be 41 3d d1 29 16 3d 0b da a4 bd
       0.045801576 0.04730114 0.036660973 -0.08049401
0002a0 d8 21 39 3c 78 5a c2 3d ab 68 02 be 03 a7 17 be
       0.011299573 0.09489912 -0.1273524 -0.14809804
0002b0 92 fe 3d be 4e 5a 2e bc e9 6a 3a be ef da 3c be
       -0.18554142 -0.0106416475 -0.18204845 -0.18442892
0002c0 7d 85 61 be 7b a2 3b 3d 97 80 8d be 4c f9 e1 bd
       -0.22023578 0.04580925 -0.2763717 -0.11033878
0002d0 17 7e 0c bd bd 44 31 bb f2 5a 16 3d a7 90 89 bd
       -0.034299936 -0.0027049028 0.036707826 -0.06717043
0002e0 d4 d4 2f be fe 7e 7f bc 92 60 6d be ff 3a 19 be
       -0.17171031 -0.015594242 -0.2318137 -0.14963911
0002f0 05 08 08 be c6 8a 9d 3d be 57 67 be 57 c5 13 3d
       -0.13284309 0.076924846 -0.22592065 0.03607687
000300 ae d4 ca 3d 41 89 6c be a6 49 bb bd cd 8e 10 3d
       0.09903847 -0.23099233 -0.09144907 0.035292435
000310 47 d1 cb bd 65 dd 94 bc 28 d3 02 3d 33 a2 1e be
       -0.09952026 -0.018171975 0.031939656 -0.15491562

weight_ih_l1 f4 [200, 50]
000000 09 23 a9 3c 72 d5 95 b9 e8 3a 9c bc 1a 65 de bd
       0.020646589 -0.00028578524 -0.019071057 -0.10859127
000010 f7 fd e7 3c 2b d9 3f be 97 3c ae bd 3b e7 90 3d
       0.028319342 -0.18735187 -0.0850765 0.07075354
000020 42 c8 03 3e f3 2d 50 be 9f 37 2e bb 92 f1 f4 3c
       0.12869361 -0.20330028 -0.0026583446 0.029900346
000030 1f 79 89 bb 2e 78 40 3c 6e 06 86 3d aa e0 0b 3e
       -0.004195347 0.011747403 0.06544195 0.13659921
000040 34 5d 29 be 4a 58 2c bd 48 b8 4c be cc 98 91 3d
       -0.1653946 -0.042076387 -0.19992173 0.07109222
000050 da c4 f1 bd 37 cb 4d be f7 61 19 3e 5b bf b6 3d
       -0.118051246 -0.20097052 0.14978777 0.08923217
000060 71 94 8c bd e0 6b 0d 3e cb 2d 02 3d d4 16 d3 3d
       -0.068642505 0.13810682 0.031781953 0.103070885
000070 14 70 72 3d 52 69 bd 3d 6e 76 50 bd bf f6 27 be
       0.059188917 0.09248604 -0.050894193 -0.1640272
000080 7a 5e d2 bc f8 42 97 3d 11 60 d1 bd 9b a6 ec 3d
       -0.025679816 0.0738582 -0.10223401 0.11555215
000090 28 c2 bb 3c f8 d3 0c 3e 5e 5f 7d 3d be f7 11 3e
       0.02291973 0.13752735 0.061858527 0.14254662
0000a0 8b 1b 6a bd a4 36 88 3c 20 47 57 bd 2a a2 71 bc
       -0.057155173 0.016627617 -0.052558064 -0.014748136
0000b0 74 28 38 bd 38 92 81 be 84 20 1d 3e 04 38 39 3e
       -0.044960454 -0.2530687 0.15344435 0.18087775
0000c0 20 ee e5 3d 48 29 b5 bd b0 87 a1 bd 61 c5 0b be
       0.11227059 -0.088457644 -0.078872085 -0.13649513
0000d0 c4 2d 91 bd 73 a0 05 bd 02 3e 21 3d c3 66 24 be
       -0.07088807 -0.03262372 0.039365776 -0.16054825
0000e0 df d4 87 3d 6c 6f 4a 3e 4f 9c d9 bc 86 cc a8 3b
       0.06632399 0.19769067 -0.026563792 0.005151334
0000f0 95 93 9e bd 93 c7 e9 bc 4b 05 2b be 04 b4 95 bd
       -0.07742993 -0.028537547 -0.16701238 -0.07309726
000100 d7 6d 08 3e 54 84 e9 bd 05 58 0f 3d 97 e3 35 be
       0.1332315 -0.11402193 0.03499605 -0.177626
000110 33 13 2a be 50 33 15 3e d0 03 21 be 59 3e 60 be
       -0.16608886 0.14570355 -0.1572411 -0.21898784
000120 a4 a5 2b 3e 51 92 d3 3d d5 57 b8 3d c5 08 84 3d
       0.16762406 0.10330642 0.09001128 0.06446985
000130 71 d5 27 bc ed 21 c4 3d 67 72 6f b9 67 2a 0f 3d
       -0.0102437595 0.09576783 -0.00022835434 0.034952547
000140 23 5b e5 3d b6 a9 8a bd dc aa 02 3e 5d 66 8c bc
       0.111990236 -0.06770651 0.1276049 -0.017138654
000150 4d e2 58 be 4c 2d 38 3c 63 b3 f6 3c ed c2 32 3e
       -0.21180077 0.011241268 0.030114835 0.17457171
000160 90 6f 5a 3e 4c d6 4a 3e 90 46 72 3d 05 a3 0a 3c
       0.2133162 0.1980831 0.059149325 0.008461718
000170 57 7f 6d 3d 28 13 5c 3d c7 f8 c1 bd 8e 21 1f be
       0.05798277 0.053729206 -0.09471279 -0.15540144
000180 35 20 8c 3d a4 58 aa 3c 74 34 da 3b ed 09 a6 3c
       0.068420805 0.02079422 0.006659085 0.020268405
000190 50 d4 58 bd a5 af 55 be 19 4a 0b 3d 92 78 21 be
       -0.052936852 -0.20867784 0.034006212 -0.1576865
0001a0 0f 47 26 be e1 d2 3a be 2b 1f 44 3c d0 2f d2 3d
       -0.16238044 -0.18244506 0.011970322 0.10263026
0001b0 4f 1b 0a 3e da 58 1d bd b0 55 a5 bc 14 51 e4 3d
       0.1348698 -0.038414814 -0.02018246 0.11148277
0001c0 4f ed 6e 3d 4a cb 02 be f7 04 62 3e c8 cc 83 3b
       0.058331784 -0.12772861 0.22072206 0.0040222146
0001d0 d3 d0 0e be 48 4d 8a 3d 7c 45 20 3d 6a 9e 5a 3e
       -0.13946848 0.067530215 0.039128765 0.21349493
0001e0 30 2e 8e bd 75 6a 29 3d 01 f0 34 3b 56 3a ad 3d
       -0.06942403 0.04136129 0.0027608874 0.08458392
0001f0 1e 70 d2 bc ee 8f e9 b8 0c 44 14 bd 4b 7a 3d 3e
       -0.025688227 -0.00011137115 -0.036197707 0.18503682
000200 00 4a 6d bc 5d 50 3e bd 39 0f a1 bd 24 71 74 bb
       -0.014482975 -0.04646336 -0.078642316 -0.0037298882
000210 53 b8 e9 3d a5 a3 2e be 1e 7d b0 bd 5f 9b fd 3d
       0.1141211 -0.17054613 -0.08617614 0.1238315
000220 48 2e be bd f4 28 52 3d 50 9e da 3c 29 f7 01 bd
       -0.09286171 0.051308587 0.026686817 -0.03172985
000230 a5 d6 5f 3d 73 6c 8d bd 9c f3 8f 3d 98 19 ac 3b
       0.05464806 -0.06905451 0.07028887 0.0052520745
000240 7d ec 23 3d 0e 05 3b be 9e ed 06 bd d0 52 88 3c
       0.040020455 -0.18263647 -0.032941453 0.01664105
000250 43 7c 28 3e 00 ba dd 3c 0d cf ad 3c fc d7 46 be
       0.16453652 0.02706623 0.021216894 -0.19418329
000260 bd 3a 07 3e b7 41 95 bd 0f d7 d4 3d f4 4f 68 bd
       0.13206 -0.07287925 0.10392582 -0.056716874
000270 27 1b da bd 5c 16 06 3e e5 f2 a9 3d 7e 09 99 bd
       -0.1064971 0.13094467 0.082982816 -0.074725136
000280 40 e7 64 be c7 30 03 be 96 b8 39 be e8 7d e2 3c
       -0.2235384 -0.12811576 -0.1813682 0.027647927
000290 9b 2a 17 bd 53 ed 06 3e f6 52 17 be c1 c0 c4 3d
       -0.036905866 0.1317647 -0.14777741 0.096070774
0002a0 79 f8 8f bb b0 25 8d bd 37 c1 4b 3c e3 59 b2 bd
       -0.004393634 -0.06891954 0.012436203 -0.08708551
0002b0 22 35 13 3e d0 60 dc 3c b9 70 2c be ad 9e ab 3b
       0.14375737 0.026901633 -0.16839875 0.0052374215
0002c0 db 7a 6a bd b3 ae 85 3d 55 f1 95 3d c2 e9 5b 3d
       -0.05724607 0.06527462 0.07321421 0.053689726
0002d0 65 01 fb bd 57 08 f7 bd 1c 57 a5 3d f1 d2 a6 3d
       -0.12256125 -0.120621376 0.080732554 0.08145703
0002e0 45 4e 54 be 3f 2c 6e 3e 37 b6 cf bb ee 3b c9 3d
       -0.20732982 0.23259066 -0.0063388604 0.09825884
0002f0 eb 9e d9 bc ee a5 18 3e e6 13 18 bd 9a 79 3c 3e
       -0.026565036 0.14907047 -0.03712835 0.18405762
000300 d4 4c 45 3d 47 dd 46 3e 6e e0 7e 3d 68 7d 33 be
       0.048168972 0.19420348 0.06222575 -0.17528307
000310 0e 35 20 3e 95 a6 04 3e b4 5d 30 3e 0d e4 01 be
       0.15645239 0.12954171 0.17223245 -0.1268465
000320 b2 19 73 3d 46 65 8b bc f7 c3 8c 3d 3d 15 b7 bd
       0.059350677 -0.017016064 0.06873315 -0.08939598
000330 07 02 a3 bb ec 28 29 be fc f5 2f be ee f2 09 bd
       -0.004974607 -0.16519517 -0.1718368 -0.03367894
000340 c9 a0 c6 3c 29 c3 c5 3c b7 eb 24 bc b2 53 c4 3c
       0.02424659 0.024140911 -0.010065964 0.02396569
000350 b7 2b b1 bd 17 1b 00 be e9 b1 0c 3e 46 81 bc 3d
       -0.08650916 -0.12510334 0.13739742 0.092043445
000360 69 56 2c be 36 b7 67 bd 71 ad 35 bd 58 5d a7 3d
       -0.16829838 -0.056571208 -0.04435486 0.08172101
000370 5b 0d 1b be 4e 17 22 3d 5a 05 5c bd 33 2d 37 3d
       -0.15141813 0.039573006 -0.05371604 0.04472084
000380 0a 73 40 be a9 b3 a8 3d 4d fe b3 3d de 8b 3f 3e
       -0.18793884 0.082373925 0.087887384 0.18705699
000390 d1 69 05 be 1e 49 b2 3d 58 7d 17 be 37 7b 61 3d
       -0.13028647 0.08705352 -0.14793909 0.055049147
0003a0 cf f3 2a 3e 14 d2 e7 bd d7 2a a2 bd 9c 28 48 3e
       0.16694568 -0.11319366 -0.07918327 0.19546741
0003b0 38 80 f4 3d 73 55 c7 bc 7a 20 93 3b 77 f3 db 3c
       0.11938518 -0.024332738 0.0044899555 0.026849492
0003c0 e6 e2 18 be 89 fc 65 bd 2a 4f bd bc 1b 5e 12 3e
       -0.14930305 -0.05614904 -0.023109037 0.14293711
0003d0 15 24 bf 3d 25 5d 52 bd f7 5d f9 bc ad 86 16 3e
       0.09333054 -0.05135836 -0.030440314 0.14699812
0003e0 80 f4 03 3d e5 f8 61 bd 48 67 80 3d 2e ae a9 bd
       0.032215595 -0.055169005 0.06269699 -0.08285175
0003f0 87 86 0b 3d 56 c8 12 be c6 ad 22 be 7e 3b 72 bd
       0.034063842 -0.14334235 -0.15886602 -0.059138767

weight_hh_l1 f4 [200, 50]
000000 37 82 27 3d 06 84 6c 3e 71 29 9e bd e5 b5 b9 bd
       0.040895667 0.23097238 -0.07722748 -0.09067897
000010 29 4f 4e 3e 06 7b 00 3e fc ec 0f 3e 9a e4 30 3e
       0.20147385 0.1254693 0.14055246 0.17274705
000020 e1 dc 69 be 68 9a f9 3d 5a 8f d8 3b 9f 51 2d 3e
       -0.22838165 0.12187654 0.0066088857 0.16925667
000030 f7 59 8f 3d 87 a3 07 3e e7 fe d2 bc 9d e5 56 3e
       0.06999581 0.13245974 -0.025756313 0.20986028
000040 44 72 97 3d 8a a3 0f be b6 59 1a 3e ec a7 a4 3c
       0.07394841 -0.14027229 0.15073285 0.020099603
000050 eb bc 1e be 87 d2 29 3e 67 5c ad 3d 91 30 27 bd
       -0.15501754 0.16584216 0.0846489 -0.0408178
000060 af c2 64 3c e0 14 15 3d e9 3c b8 3d 76 ed 28 be
       0.013962432 0.03639686 0.08995993 -0.16496834
000070 b9 4c 89 3d f5 ce 94 3d 63 60 f4 bd 9b 32 14 be
       0.06704087 0.072660364 -0.11932447 -0.1447243
000080 9e 20 60 bd 9b 1d 35 be c4 37 a1 bd aa 4e 0a 3c
       -0.054718606 -0.17687075 -0.078719646 0.008441607
000090 67 8e 73 3d b7 a2 bf bd 83 06 8a 3c 36 34 45 bd
       0.059461977 -0.09357207 0.016848808 -0.048145495
0000a0 c2 fc ea 3d c5 60 66 3e d1 f6 e7 bd e8 b3 1c 3e
       0.11473991 0.22497852 -0.11326373 0.15303004
0000b0 88 08 50 3e fd 85 4e 3e 4e ee 13 3e 09 1b d3 3c
       0.20315754 0.201683 0.14446375 0.025769727
0000c0 31 45 3c be 46 ba 97 bc 30 6d 0b 3e 87 a8 98 bd
       -0.1838577 -0.01852144 0.1361587 -0.07454019
0000d0 3f 50 f4 bd 69 c0 59 3c ae c1 30 3e e6 5d 87 bd
       -0.11929368 0.013290503 0.17261383 -0.066097066
0000e0 6b a6 f4 3d 02 05 cf bb 0d e3 ee bd 83 b5 90 3d
       0.11945804 -0.0063177356 -0.116644 0.070658706
0000f0 fa e8 db 3d 93 63 9f bc bb 77 1e bc 86 bb 30 bc
       0.10737796 -0.01945666 -0.009672101 -0.010786897
000100 ff f0 a4 bd 66 5b c3 3d 88 40 be bd ee 53 2d bd
       -0.08053779 0.09538917 -0.09289652 -0.04231637
000110 1f 0c 00 bd 75 c3 6b bc ed 8f 9f bd b9 b3 96 bc
       -0.03126156 -0.014389862 -0.077911235 -0.018396245
000120 53 4d 8b bd f2 df 85 bd 29 5a 70 3d 44 df 47 3e
       -0.06801858 -0.06536855 0.058679733 0.19518763
000130 35 e2 32 bd 95 dc 7f be b1 6c 69 3e e9 fb f6 3d
       -0.04367276 -0.24986489 0.22795369 0.12059767
000140 1e 00 7e 3d bd b7 df bd 37 f5 3f 3d 4e 00 08 be
       0.06201183 -0.10923717 0.046864714 -0.13281366
000150 fb 76 ab bc 60 f0 0c 3e ef 54 1d 3d 8b ef fd 3d
       -0.020930758 0.13763571 0.038411077 0.12399205
000160 3e b1 61 3e e4 c6 0c 3e cc 1e eb 3c ba f9 da 3d
       0.22040269 0.13747746 0.028701209 0.10692163
000170 80 09 e6 bd 52 ef 0b 3e 30 ff 0b 3e d0 88 50 bc
       -0.11232281 0.13665512 0.13671565 -0.012727931
000180 6a 1a 2f 3d 8e cc 2a 3e e3 13 57 bc 09 a3 2f be
       0.0427498 0.16679594 -0.0131273 -0.17152037
000190 26 bb b3 bc 2a c0 92 bd 2a 64 81 3d 22 d0 cf ba
       -0.021939825 -0.07165559 0.06317933 -0.0015854875
0001a0 37 1f 90 bd de 18 c5 3d c6 71 2d 3d 3e fb e7 3d
       -0.07037204 0.09623884 0.04234483 0.113272175
0001b0 8d dd c2 38 f2 b5 a2 3d a9 09 e2 3d cd 21 b3 3d
       9.291908e-05 0.079448596 0.11036999 0.08746681
0001c0 61 8d 80 3c 3e 6f 87 bd 01 3b 12 bd 90 15 4e be
       0.015692415 -0.06613015 -0.0357008 -0.20125413
0001d0 ee ae 16 be 98 31 ab bc 00 05 1f 3c f1 f7 5e be
       -0.14715168 -0.020897672 0.009705782 -0.2177427
0001e0 84 50 eb bd 7f 08 d8 bd 03 96 8a bd 92 d5 0c bd
       -0.114899665 -0.105484955 -0.06766894 -0.034383364
0001f0 84 3c ea 3b 02 ac 66 bc bf 59 5b be ea b8 4e be
       0.0071483273 -0.014079096 -0.21420954 -0.20187727
000200 92 49 3c 3e 3a 6f 0d 3e 58 9c a1 3d f0 7f 41 3d
       0.1838744 0.13811961 0.07891148 0.04724115
000210 ee 59 08 be 6d bf 9f bd 2a b7 d3 bd 2a b3 19 3d
       -0.13315555 -0.078001834 -0.1033767 0.03752438
000220 9b af 1a bd 55 8e 3c 3d c5 77 6a 3d 99 dd f1 3d
       -0.037765127 0.046034176 0.057243127 0.118098445
000230 5e 5a 9b 3e 0f e2 a4 bb eb f8 eb bd c1 bb 13 3e
       0.30342382 -0.005031831 -0.11522087 0.14427091
000240 df ac fd 3d 61 44 bf 3d 58 8b 21 3b ad 87 4f 3e
       0.12386488 0.09339214 0.0024649706 0.202666
000250 8e d4 78 3b d0 d9 d5 bd f5 43 00 3c ba f1 01 3d
       0.003796849 -0.10441935 0.007828702 0.03172467
000260 f3 d6 e0 3d b7 50 2d bc c2 fd 6a 3d 0d e5 7d 3e
       0.10978498 -0.010578326 0.05737091 0.24794407
000270 bb 2c 79 3b 99 43 47 bd 7f be 34 bd fa 74 ec bc
       0.0038021046 -0.04864845 -0.044126984 -0.028864373
000280 13 7f 5f 3d 4d 08 99 bc 24 00 21 3e f5 9f 69 3d
       0.054564547 -0.018680716 0.1572271 0.057037313
000290 63 98 1b be 1b 09 53 3e ef ff 3d bc ce 45 7d 3d
       -0.1519485 0.20608942 -0.011596664 0.06183415
0002a0 37 6d 67 3e 39 2a 77 3d bf 3b 76 3c a7 cf 15 3e
       0.22600256 0.060343 0.015028893 0.14629994
0002b0 f4 15 e1 3d 8a 41 62 3d ba 32 99 3c 1b 2b a3 bb
       0.10990515 0.055238284 0.018700946 -0.004979504
0002c0 4e 03 80 bd cc 29 13 3d cd a4 3a 3c 50 df bb 3d
       -0.0625063 0.035928532 0.011391831 0.09173453
0002d0 7b 4a 0b be 89 fd b2 bd 52 53 ce bd c6 bb 65 be
       -0.13602631 -0.08739764 -0.10074486 -0.22434911
0002e0 8b 92 06 bd ca 02 4c 3e f7 07 66 3d 0e 03 0c 3c
       -0.032854598 0.19922939 0.05615994 0.00854565
0002f0 de d0 0e 3e 28 a4 ce 3c c2 e5 b7 bd 3a dd 9f 3d
       0.13946864 0.02522476 -0.0897937 0.078058675
000300 8d 91 09 be b7 dd 84 bd c1 38 52 3e 86 8a 48 3e
       -0.1343443 -0.06487601 0.20529462 0.19584092
000310 c4 6c c6 bc 54 38 25 3d 5a 6a c9 bd 44 3d 97 bd
       -0.024221785 0.04033692 -0.09834738 -0.07384732
000320 db 82 f3 3d a5 40 2c 3e 1a e9 df 3c 00 71 cf 3b
       0.11890193 0.16821535 0.027332831 0.0063306093
000330 dc 14 01 bd 41 40 63 3e 41 c2 2e 3e 5e 3c 93 3d
       -0.031514034 0.2219248 0.1706629 0.071892485
000340 64 87 bb bd 4e 96 e5 3c 60 3c 93 3c 5f ad 2e bd
       -0.09156683 0.028025772 0.017973125 -0.04264581
000350 f2 43 ae bd ff 25 a5 3d 4e d3 2b be 90 5a eb 3d
       -0.08509053 0.08063888 -0.16779825 0.11491883
000360 ed dc b9 3d 31 c8 8b 3c e7 1f 6e 3e 0b 3f 48 3d
       0.090753414 0.017063232 0.23254357 0.048888247
000370 c3 09 14 3d b1 63 4c 3c 13 82 bc 3d b9 26 03 bd
       0.036142122 0.01247494 0.09204497 -0.03201935
000380 de ff 81 3c 39 2c 1f bd 2b df 4e 3d 54 f2 44 be
       0.015869077 -0.038860533 0.0505058 -0.19233066
000390 eb c4 d7 bd d1 42 00 bd f1 c7 b3 3d 8d c3 fc bd
       -0.10535606 -0.03131372 0.0877837 -0.12341986
0003a0 09 60 a5 bc 6a 80 33 be 61 3d 06 be 87 b5 86 bd
       -0.020187395 -0.17529455 -0.13109352 -0.06577592
0003b0 36 6e 04 3e 22 fc 1f bd 1a fb 41 3d 77 be c8 3d
       0.12932667 -0.039058812 0.04735861 0.09801953
0003c0 06 b7 ae 3d 35 6a e6 bb 9b 8a 7c bd 0c f7 9c 3c
       0.08531003 -0.007031704 -0.061655622 0.01916077
0003d0 a4 81 58 3c cc 4f 5d 3e 56 88 93 bd 4a 46 ca 3d
       0.0132145025 0.21612471 -0.072037384 0.09876688
0003e0 28 07 09 be 9f 67 af bd f0 90 07 3e 32 05 d4 bd
       -0.13381636 -0.08564686 0.13238883 -0.103525534
0003f0 41 68 87 bd 13 2a 19 be 0e bd 4f 3e 02 21 b1 3c
       -0.06611682 -0.14957456 0.20286962 0.021622185

bias_ih_l1 f4 [200]
000000 de 1d 1f be 7c 33 b7 bd 61 eb 22 bd 19 91 d6 bc
       -0.15538737 -0.08945367 -0.039775256 -0.026192235
000010 03 50 dd 3c db 30 50 be 38 0d 17 bd 42 7b 22 be
       0.027015692 -0.20331137 -0.03687784 -0.15867332
000020 43 a0 52 be c3 ab 49 3d 63 0a 28 3c cf ba 0a be
       -0.20568947 0.04923607 0.010256383 -0.13547824
000030 db fd 02 3c 5c b9 50 be 90 30 a0 bd ca 1f 52 be
       0.007995094 -0.20383209 -0.078217626 -0.20519939
000040 d8 08 25 bd d9 93 3a 3d 0c b6 56 be ca cf 29 bd
       -0.040291637 0.045551155 -0.20967883 -0.04145793
000050 69 8a 57 be 86 3e 6f be 7f d6 67 bd c1 d6 96 be
       -0.21048893 -0.23363695 -0.056601044 -0.2946072
000060 87 30 f2 3b 96 ba c8 bd 73 31 42 3d a9 dd cf bc
       0.007391039 -0.098012134 0.04741044 -0.02537425
000070 10 8a b8 bd 00 93 2f 3d 17 58 80 be 7d 0b 5e bd
       -0.09010708 0.0428648 -0.25067207 -0.054210175
000080 8c e6 dc bd 9c 7b a2 bc 65 00 ed bd 68 eb bd bd
       -0.10786161 -0.019834332 -0.11572341 -0.09273416
000090 b9 3c 19 be fb f5 11 be 5c a9 02 bd b4 17 05 be
       -0.1496457 -0.1425399 -0.031899795 -0.12997323
0000a0 44 48 31 be ff e4 9b bd a5 51 a9 bd d2 3e a2 3d
       -0.17312723 -0.07612037 -0.082675256 0.07922138
0000b0 94 f6 5b be 48 4e db bd fd 01 05 be f0 e2 2e bd
       -0.21480781 -0.1070829 -0.1298904 -0.042696893
0000c0 74 3b a6 3d 4c 5f 91 bd 93 c2 a6 bd 11 49 85 bc
       0.081168085 -0.070982546 -0.08142581 -0.016270192
0000d0 d6 bb 32 be 77 b1 e9 bd 6e 39 31 bd 19 6d 9e bd
       -0.17454466 -0.11410802 -0.04326766 -0.077356525
0000e0 92 4a b6 3d 3a 6b 2c bd 0e 04 36 be 2a d6 bb 3d
       0.08900942 -0.042094447 -0.17774984 0.09171708
0000f0 50 a5 26 be 8b 36 22 be 4a c2 80 3d 4d 5f e7 bc
       -0.16273999 -0.15841119 0.06287058 -0.028243685
000100 ab f0 c4 3d ed 69 5c be 96 8f f7 3c 54 97 2d 3c
       0.09616216 -0.21524782 0.030219834 0.0105951615
000110 cf a3 69 bc e9 e5 e4 bc fd ab 2d bd 0e 24 12 3b
       -0.014260246 -0.027941661 -0.04240035 0.0022299322
000120 fe 1e 67 3b 95 ed 17 be 9b 35 4a bd ae 1c 49 be
       0.0035266276 -0.14836724 -0.04936753 -0.19639847
000130 82 b5 9c bc d8 6d 0f 3d 00 c1 dd bd 75 57 03 be
       -0.019129518 0.035016865 -0.108278275 -0.12826331
000140 42 02 67 be 46 75 ca bb 23 7e 2e bc 19 a8 bf bd
       -0.22559455 -0.006178531 -0.0106501905 -0.09358234
000150 82 54 5b 3c c9 8d 8c 3c 65 38 a6 bd 09 eb bc bd
       0.013386847 0.017157452 -0.08116225 -0.09224517
000160 45 33 52 be 1a 9c 21 bd ca fb 47 be 91 f9 6c bd
       -0.2052737 -0.03945551 -0.19529644 -0.057855193
000170 45 ad 4a be 6b 2d 9a 3d bb 72 2b be 9f 57 27 be
       -0.1979266 0.07528194 -0.16742985 -0.16342019
000180 dc 41 bb bc 44 a5 c0 3d 5e 29 cd bd c8 8f 39 be
       -0.022858553 0.09406522 -0.10017656 -0.18121254
000190 dc 97 2b ba a0 11 71 3d 4e 37 82 3d 74 89 48 bb
       -0.0006545761 0.0588547 0.06358205 -0.0030599507
0001a0 f5 9e d9 bd b7 4c 2e 3d bb 97 b6 bd f2 22 c7 bc
       -0.10626022 0.04255363 -0.08915659 -0.024308655
0001b0 78 6c 6c 3c 9d c3 65 3d ca 3d d4 bd 46 c5 a4 3b
       0.014430158 0.056094754 -0.10363348 0.0050283996
0001c0 53 b4 29 bd de da 68 bd ad d0 d8 3d 58 cf 89 3d
       -0.041431736 -0.056849353 0.10586677 0.06729001
0001d0 fb 6b f3 3c 28 48 c7 bb 9c 5c e4 3d 31 65 50 3d
       0.029714575 -0.0060815997 0.11150476 0.050877754
0001e0 3c df 39 3d b9 95 d9 3d 88 4e 89 bd 42 e0 f1 3d
       0.04537891 0.106242605 -0.06704432 0.11810352
0001f0 65 b4 f3 bd 43 e6 21 bd af b0 9f 3d d3 68 48 3d
       -0.11899642 -0.039526235 0.077973716 0.048928093
000200 fb d6 a9 bd 05 82 60 bd 2d e6 0a bd 4a 0c f3 bd
       -0.082929574 -0.054811496 -0.03391092 -0.11867578
000210 66 3f d9 3d 52 f8 9c 3c 64 9b 85 3c b8 ac 39 bc
       0.106077954 0.019161377 0.016309448 -0.011332683
000220 75 b6 12 be 35 0f 43 b8 5d e9 42 bc dc 39 28 bd
       -0.14327414 -4.6505786e-05 -0.011896458 -0.041070804
000230 d1 0b 50 3d db a9 00 3d 47 b8 55 bd fa f6 9f 3c
       0.05079252 0.031411987 -0.052177694 0.019526947
000240 f6 dd 1f bd 41 61 a7 3a 49 d5 9d 3c 41 cc 4c bd
       -0.039030038 0.0012770073 0.019266741 -0.04999948
000250 68 5c cf 3d d9 7e 59 3d 19 e2 f8 bd ca 75 71 be
       0.10125047 0.053099487 -0.121525 -0.23580089
000260 ea 43 4d be 5c 4a 85 bd fb df 23 be b0 5a 3b be
       -0.20045438 -0.065083236 -0.1600341 -0.18296313
000270 01 70 91 bd a5 d7 52 be b9 29 8a be 18 19 8a bd
       -0.07101441 -0.20590074 -0.26984957 -0.067430675
000280 58 d3 b1 bd d3 4b 2a 3d 60 d1 76 3d 0e 63 60 be
       -0.08682889 0.041576218 0.06025827 -0.21912786
000290 b6 59 bd bd 91 a6 55 be 78 d9 84 bd cd 45 59 3c
       -0.09245627 -0.20864321 -0.06486791 0.013261271
0002a0 b5 47 53 be 0d e1 83 bc 17 2a c9 bd 54 d8 62 be
       -0.20632823 -0.016098524 -0.09822481 -0.22152835
0002b0 43 26 17 3d 50 73 47 be d1 d0 92 bc 8a 81 4f be
       0.036901724 -0.19477582 -0.017921837 -0.20264259
0002c0 80 a3 80 3d 21 62 01 3d 37 8d 40 be 3a d3 31 bd
       0.06281185 0.031587724 -0.18803869 -0.043414332
0002d0 15 de a1 bd 7a 87 d2 bd a2 ca 1f be c8 e4 ea bd
       -0.07903687 -0.10279746 -0.15604642 -0.11469418
0002e0 42 01 bc bd b2 8e 53 bd 0c 03 2c be 01 ec 1c bd
       -0.091799274 -0.051649757 -0.16798037 -0.03831101
0002f0 e2 f3 83 3c 13 51 db bd 7b 64 80 be 72 c4 91 bd
       0.016107503 -0.10708823 -0.2507666 -0.07117547
000300 67 52 03 bd 60 94 1e 3d 1d d6 2a 3d 46 d6 13 be
       -0.032061007 0.03871572 0.0417081 -0.14437208
000310 fe 5c 00 be 03 91 02 3c ec 8e d2 bd a4 cf 84 bd
       -0.12535474 0.007969144 -0.102811664 -0.06484917

bias_hh_l1 f4 [200]
000000 a5 64 0f be 54 7f c5 bd 59 6d 84 3c 6a 9d 7a bd
       -0.14003237 -0.096434265 0.016165422 -0.061185278
000010 2d fb 04 bd d9 0c 0d be e6 91 32 be 95 13 8a be
       -0.032466102 -0.13774432 -0.17438468 -0.26968065
000020 2c 05 81 bd 30 f9 bf 3d 9c f2 f7 bd c2 a3 fa bd
       -0.062998146 0.093737006 -0.12106821 -0.122382656
000030 63 e0 00 be fd 25 4b 3c e0 7e fa bc ed 5c 23 be
       -0.12585597 0.012399194 -0.030578077 -0.15953417
000040 d5 7d 95 bb 98 69 89 3c a5 46 20 3d b8 3f 7e 3c
       -0.0045621195 0.016773984 0.039129872 0.015518121
000050 8d c1 48 bd 7b f3 e4 bd 15 eb 84 bd 5f d5 44 be
       -0.04901271 -0.11179253 -0.06490151 -0.1922202
000060 22 fa 9b bd 96 15 5f be 15 45 f0 3c 90 89 d3 bd
       -0.076160684 -0.21785578 0.029329816 -0.10328972
000070 37 d5 e5 bd 67 56 25 3b e0 2a 70 be 42 f5 7b be
       -0.11222308 0.0025228502 -0.23453856 -0.24605277
000080 d5 1d 14 bd 52 61 21 be 0e 07 53 be 76 87 2a be
       -0.036161263 -0.15759781 -0.2060816 -0.16653237
000090 ea fa 40 bd 5d e1 96 3d b4 98 5b be dd a0 59 bc
       -0.04711429 0.073672034 -0.2144497 -0.013282982
0000a0 1e 79 a4 bd 28 68 03 be 79 f4 d3 bd be 00 8f bc
       -0.08030914 -0.12832701 -0.10349364 -0.017456409
0000b0 57 13 57 3d 72 f2 5a be c6 4e a5 bd d5 19 33 be
       0.05250868 -0.21381548 -0.080716655 -0.17490323
0000c0 ff 3c 8c bc f6 33 40 be 84 77 f1 bd 20 2d 97 bd
       -0.017118929 -0.18769822 -0.11790374 -0.07381654
0000d0 d8 fd 66 be 6e 1f 88 bd 16 5b 0c be 7f 8e 68 be
       -0.22557771 -0.0664662 -0.13706622 -0.22710608
0000e0 aa d6 f6 bd ed e2 45 be 92 aa 0e be 5a 8d 8e 3d
       -0.12052663 -0.19324847 -0.13932255 0.069605544
0000f0 0c 2b de 3c 99 72 81 bd b0 5a 10 be 5b 62 91 bd
       0.027120136 -0.06320686 -0.14097095 -0.07098838
000100 e0 4f 82 bd 62 82 14 bd 0d 3e 8e 3d 09 c3 22 be
       -0.06362891 -0.036257155 0.06945429 -0.15894713
000110 b9 44 b6 3c 35 a8 94 bd bb 96 fe bd 3b 68 61 3d
       0.022249566 -0.072586454 -0.12431093 0.055031043
000120 75 3b a5 bd 5e 06 a6 be 62 31 3a be 79 d4 3b be
       -0.08067981 -0.32426733 -0.181829 -0.1834277
000130 1a 08 42 bc f8 ac ae bd b7 99 04 bd 71 0d 46 bb
       -0.011842752 -0.08529085 -0.032373156 -0.0030220414
000140 b1 8c 74 be 22 a2 0a be 09 fb cc 3c d2 61 c2 bd
       -0.23881795 -0.13538411 0.025022047 -0.09491314
000150 94 cc 19 3d 65 3d f1 bc 88 86 1a be 37 27 45 bd
       0.037548617 -0.02944822 -0.15090382 -0.0481331
000160 84 3f 0b bd c5 8c e7 bd 92 89 f9 bd ce d2 26 be
       -0.03399612 -0.113061465 -0.121844426 -0.16291353
000170 1b 98 87 3d 67 92 3f bd d3 5a a4 bc 9b 4c e7 bc
       0.06620809 -0.04677048 -0.02006284 -0.02823477
000180 46 dc 23 bd ba fb 00 be 99 a8 c0 3c 16 32 bb bd
       -0.04000499 -0.12596026 0.023517894 -0.091404125
000190 af 02 13 bc 22 3f bc bd 62 5b 07 be e2 f0 ff bb
       -0.008972808 -0.09191729 -0.13218454 -0.007810698
0001a0 93 b9 7b 3d a7 af b2 bd d6 1e ce 3b fd 38 c5 ba
       0.061456274 -0.08724909 0.006290297 -0.0015046891
0001b0 9b 27 c6 3d a2 df be bd 7c ce ee 3c e7 99 c5 bd
       0.09675523 -0.09319998 0.029151194 -0.09648495
0001c0 fa 33 42 3d ea 9b d4 bb aa 2f ee bb d0 f8 81 bd
       0.04741285 -0.006488313 -0.0072688656 -0.06346285
0001d0 23 3d 11 3d 59 e9 36 bd c2 09 11 be 5f 55 60 bb
       0.035458695 -0.04465613 -0.14163879 -0.0034230573
0001e0 51 8e a5 3c 43 9d aa bd d0 6b 2b 3d 86 2c 88 bc
       0.020209463 -0.083307765 0.041850865 -0.016622793
0001f0 93 c4 a3 bd d0 20 94 bd d7 21 ac bd 50 fd 06 3d
       -0.07996478 -0.07232821 -0.08404892 0.03295642
000200 7e b3 6c 3d 99 b9 b5 bd 70 01 7c 3d b1 40 f2 3d
       0.057788365 -0.088732906 0.06152481 0.11828745
000210 4d 1a 1a be a3 02 86 3d 5a ac 17 3d d9 b8 ea 3c
       -0.15049095 0.06543472 0.0370296 0.028652595
000220 dc 8e 6d 3d 64 8f 28 bc 59 bb b8 bd ff 54 14 3c
       0.05799757 -0.010288093 -0.09020109 0.009053468
000230 f4 4c 08 be c5 4b d3 bc 9e a6 cf 3d b5 2f 51 bd
       -0.13310605 -0.025792966 0.101392016 -0.051070888
000240 8a 14 ac bd 88 f1 21 bd 04 f8 d3 3c 99 51 27 3d
       -0.08402355 -0.039536983 0.025875099 0.040849302
000250 2c cf cf 3d 58 17 80 3d ca b0 58 be 9c c2 6e be
       0.10146937 0.062544525 -0.2116119 -0.23316425
000260 70 50 e2 bd 4a 75 a2 3c 8d 49 8d bd 72 f7 9e 3c
       -0.110504985 0.019831318 -0.06898794 0.0194051
000270 6b 14 13 be 62 44 4f bd b7 e7 6e be 67 2c 03 be
       -0.14363258 -0.050602324 -0.2333058 -0.12809907
000280 a6 b5 ca bd 1d a7 98 bd 8f 2f 20 be 29 5b be bd
       -0.09897928 -0.07453749 -0.15643142 -0.09294731
000290 f3 ec 9e bd 66 9e ca bb 6f 23 10 be e7 50 a1 3c
       -0.07760038 -0.0061834333 -0.14076017 0.019691898
0002a0 f3 e9 48 be 96 82 cd bd 85 93 3d be a9 61 1c be
       -0.19620495 -0.10034673 -0.18513305 -0.1527163
0002b0 80 67 30 be 86 ec 1f bd bc ad ce bd 71 a6 24 be
       -0.17226982 -0.039043926 -0.10091731 -0.16079117
0002c0 6f ff 36 be 00 49 e5 bd 41 a4 ac 3d 8d 51 1e be
       -0.17870878 -0.11195564 0.084297664 -0.15460797
0002d0 20 29 86 be 82 94 f6 bd 3b d9 72 bd 78 4b 8b 3c
       -0.2620325 -0.12040044 -0.0592892 0.01700376
0002e0 ad 89 f1 bd e9 7e 7d be 04 e1 33 be 7e 95 41 bc
       -0.11793838 -0.24755444 -0.17566305 -0.011815427
0002f0 f9 5b 37 be c4 7d 2b be fe ea d6 bd e3 7d 6d be
       -0.17906179 -0.16747195 -0.1049404 -0.23192553
000300 2a 87 bb bb 4c 75 31 be d3 68 5f be e3 fe ca bd
       -0.0057229 -0.17329901 -0.21817331 -0.09911897
000310 b5 3c 59 bb b3 11 05 be 0d 29 04 be e0 50 e2 bd
       -0.0033147756 -0.12995033 -0.12906285 -0.11050582

weight f4 [1, 50]
000000 09 74 38 bc 81 84 bb b9 95 f7 fb 3c 81 02 ba 3b
       -0.011258134 -0.00035766143 0.030757705 0.005676568
000010 c7 b2 8a bd 6f e1 f3 38 62 0f 73 3d 4a 0e 47 bd
       -0.0677238 0.00011629133 0.059340842 -0.04859761
000020 d0 1a 74 bb d5 bd c9 3c 76 0b 69 3d a7 eb ac 3d
       -0.0037247427 0.024626652 0.056895696 0.084433846
000030 ba 72 37 3d 5f 00 94 bc 60 9c 3d bd 70 77 4d bc
       0.044787146 -0.018066583 -0.04629171 -0.012540683
000040 b2 82 89 bd 64 0f 10 bc a8 29 02 bd 27 95 e5 bb
       -0.06714381 -0.008792732 -0.031778008 -0.0070063057
000050 cf c2 24 bd b7 01 97 3b 4c ce c1 3c 1e 81 e5 3c
       -0.040224846 0.0046083587 0.02365794 0.02801567
000060 d5 32 3e bd 05 f3 bd bc 89 00 90 bd 26 f3 e1 3c
       -0.046435196 -0.02318717 -0.07031352 0.027581763
000070 3e 52 8b 3d b9 31 b0 3d 07 a3 23 bc 8e ca a3 3c
       0.06802796 0.08603234 -0.009987599 0.019994047
000080 db 74 bc 3c 98 04 b6 bb 8c d6 91 3b 7e f8 c2 bb
       0.02300494 -0.005554747 0.004450625 -0.0059500327
000090 da d4 0e 3d d8 6d a3 3d e8 3b 3c bd ec 4f 09 3d
       0.03487096 0.079799354 -0.04595557 0.033523485
0000a0 e0 f8 c3 bc 16 ca 8f 3b 66 db 47 3d c5 14 9f 3d
       -0.023922384 0.004388104 0.04879322 0.07767633
0000b0 92 3a 88 bc 25 e5 e6 3c e5 bf d0 bc 44 f8 9c 3d
       -0.016629491 0.028185437 -0.025482127 0.076645404
0000c0 35 54 09 bd ed 58 0e bc
       -0.03352757 -0.008688194
