train_model_daily/best_model_3.pth (torch, 129214 bytes, 9 tensors)

weight_ih_l0 f4 [200, 1]
0	0xbdde2b45	-0.10848097
1	0x3e8cd327	0.27504846
2	0x3ce13eb1	0.027495714
3	0xbb31fb4e	-0.0027157846
4	0x3e3f9855	0.18710454
5	0x3e2309c3	0.15921693
6	0xbddd12a6	-0.107945725
7	0x3e1a81f1	0.15088631
8	0xbdfd6daa	-0.123744324
9	0xbddff24a	-0.10934885
10	0xbe240520	-0.1601758
11	0xbdff2ec5	-0.124600925
12	0xbde078ea	-0.109605625
13	0x3e8dd4cc	0.27701414
14	0xbd105fab	-0.035247486
15	0xbce2952b	-0.02765902
16	0xbcb46b6b	-0.022023877
17	0xbd712ae7	-0.058878805
18	0x3db51ebc	0.08843753
19	0x3da12497	0.07868307
20	0x3c793453	0.015210229
21	0x3d8dda1a	0.06926365
22	0xbdde099e	-0.10841678
23	0x3d3151c8	0.043290883
24	0x3c69c332	0.01426773
25	0x3e73e0f7	0.23816286
26	0x3d85b5be	0.06528805
27	0x3e08cf2c	0.1336028
28	0x3dc986a2	0.09840132
29	0x3d3637f1	0.044486944
30	0x3da0b2fd	0.07846639
31	0xbb2d57ed	-0.0026450113
32	0xbe8ebafa	-0.27877027
33	0x3e63ced7	0.22246872
34	0x3cc0d91b	0.023541024
35	0x3d320fd1	0.043472115
36	0xbe917482	-0.284092
37	0xbdd4296b	-0.10359462
38	0x3df9cbde	0.12197088
39	0x3dff819d	0.12475894
40	0xbd99e839	-0.07514996
41	0xbe30022e	-0.17188331
42	0xbd7a5ea0	-0.061125398
43	0xbe9db414	-0.3080145
44	0x3c5a86ed	0.013337833
45	0x3e39a3c0	0.18128872
46	0x3ca7e47e	0.020494696
47	0x3d67ee96	0.056624018
48	0xbbe88b51	-0.007096686
49	0x3b544d53	0.0032394722
50	0xbe8c61bc	-0.27418315
51	0x3d3efcdc	0.046627864
52	0x3e26c583	0.16286282
53	0x3e0332f0	0.128124
54	0x3e4cdd9d	0.20006414
55	0x3e20b865	0.15695341
56	0x3ce1ae69	0.027548986
57	0x3e23c797	0.15994106
58	0xbe9b041e	-0.3027658
59	0xbe9c762d	-0.3055891
60	0xbe3115ff	-0.17293547
61	0xbe0d9690	-0.13826966
62	0xbe33be4a	-0.17553058
63	0x3e735243	0.23761849
64	0x3df45c58	0.11931676
65	0xbd065e81	-0.03280497
66	0x3e2976c0	0.16549206
67	0xbe325031	-0.17413403
68	0x3df1305a	0.117768005
69	0x3e4a4601	0.19753267
70	0x3dfca38b	0.12335881
71	0x3d91e7a6	0.071242616
72	0x3dc2b5f2	0.095073596
73	0x3e7b9285	0.24567612
74	0x3df91b17	0.1216337
75	0x3dbeffdf	0.09326147
76	0x3da384d3	0.079843186
77	0x3ce9aa67	0.028523637
78	0x3d1693dc	0.036762103
79	0x3d9c51f5	0.076328196
80	0x3d958ff8	0.073028505
81	0x3d809c5e	0.06279825
82	0xbe131a4e	-0.14365503
83	0x3e1e70e8	0.15472758
84	0xbdf8bdff	-0.12145614
85	0x3d2fd2be	0.04292559
86	0xbd8fdec4	-0.07024911
87	0xbe33228c	-0.17493647
88	0xbcdfc29c	-0.027314477
89	0x3d9b4a0b	0.07582482
90	0xbddafc69	-0.10692675
91	0xbe07a025	-0.13244684
92	0xbd86f430	-0.06589544
93	0xbe981b06	-0.29708117
94	0x3e240070	0.16015792
95	0x3e0b7785	0.13619812
96	0xbdc9bfb9	-0.09851021
97	0x3e357beb	0.17723052
98	0xbdf27eb5	-0.11840574
99	0xbd01c0d3	-0.031678032
100	0x3e2dafde	0.1696162
101	0x3e64d041	0.22345068
102	0x3e959c7b	0.29220948
103	0xbe5ed02a	-0.21759096
104	0x3e8b28d7	0.27179596
105	0xbd051664	-0.032492056
106	0xbd61e073	-0.055145692
107	0x3dc6dca0	0.0971005
108	0xbe3e5250	-0.18586087
109	0xbe17a150	-0.1480763
110	0x39b13f7c	0.0003380737
111	0x3cade8a4	0.021229096
112	0x3dea8ab4	0.11452237
113	0xbe9947a9	-0.29937485
114	0x3e2fb945	0.17160518
115	0xbe56e18c	-0.20984477
116	0x3b12ae8f	0.0022381877
117	0x3ce7cfe3	0.02829737
118	0x3d642ba1	0.05570567
119	0x3e7e6efe	0.24847028
120	0xbe5c13b0	-0.21491885
121	0x3e580215	0.21094544
122	0xbdfd30f1	-0.123628505
123	0x3e565891	0.20932223
124	0xbe0f5c22	-0.1399999
125	0x3e880119	0.26563337
126	0x3e72c89e	0.23709342
127	0x3dc87688	0.09788233
128	0x3e597a4d	0.2123806
129	0xbe41df39	-0.18932809
130	0xbe899f36	-0.2687928
131	0xbe1761dd	-0.14783426
132	0xbea1eeba	-0.31627446
133	0xbe7420c8	-0.2384063
134	0xbde6ca65	-0.112690724
135	0xbe008373	-0.12550144
136	0x3e284ff8	0.16436756
137	0x3d69c9a9	0.057077084
138	0x3e32da44	0.17466074
139	0x3e781a2f	0.24228738
140	0x3e1308c0	0.14358807
141	0x3e70cf44	0.23516566
142	0x3e8c4fb1	0.2740455
143	0x3e626a7e	0.22110936
144	0x3e5adf45	0.21374233
145	0xbe9b83a2	-0.30373865
146	0x3e1c1acd	0.15244599
147	0x3dbdc9da	0.09267016
148	0x3e829c7a	0.25510007
149	0x3dcfbd37	0.10143512
150	0xbe7f08ab	-0.2490565
151	0x3c0f3e5f	0.008742898
152	0x3e354b26	0.17704448
153	0x3e2f709d	0.17132802
154	0x3d53a53b	0.051671248
155	0x391ec12d	0.00015140018
156	0xbe0bc903	-0.13650899
157	0x3d62fce3	0.055416953
158	0xbe1e55e5	-0.15462454
159	0xbe1d674b	-0.15371434
160	0xbe4d4f54	-0.20049793
161	0xbcd2df27	-0.025741173
162	0xbe5376a5	-0.20650728
163	0x3dae80da	0.0852067
164	0xbc9dbee9	-0.019256072
165	0xbdca4084	-0.09875587
166	0x3af93054	0.0019011595
167	0xbcf62c24	-0.030050345
168	0x3e4b18f4	0.19833738
169	0x3e212f57	0.15740715
170	0x3e0b52f8	0.13605869
171	0x3d67ddd3	0.056608032
172	0xbd90ccc3	-0.07070305
173	0x3e42f58b	0.1903898
174	0xbce18921	-0.027531208
175	0x3e66bf56	0.22533926
176	0x3e916520	0.28397465
177	0x3d2231d3	0.039598297
178	0x3e5eb5cd	0.21749039
179	0x3e32121a	0.17389718
180	0x3e8962b1	0.26833108
181	0xbd30c630	-0.043157756
182	0xbe4ed0d2	-0.20196846
183	0x3d9f7dd4	0.07787672
184	0xbceb0611	-0.028689416
185	0xbadc4333	-0.0016804695
186	0xbd2de32f	-0.042452987
187	0xbdd37220	-0.10324502
188	0x3e0f1b98	0.1397537
189	0xbd67cb26	-0.05659022
190	0x3d387885	0.04503681
191	0xbd9cf8a7	-0.07664614
192	0x3e000f95	0.12505944
193	0xbe903be8	-0.28170705
194	0xbcc1a1c5	-0.023636708
195	0xbd9347b2	-0.07191409
196	0xbe4e6b92	-0.20158222
197	0xbd0b2fa1	-0.03398097
198	0x3c3bee67	0.011470414
199	0xbdcbf141	-0.09958125

weight_hh_l0 f4 [200, 50]
0	0xbe56a7eb	-0.20962493
1	0xbd196ddd	-0.03745829
2	0xbcaf88ef	-0.0214276
3	0x3d592e6e	0.053022794
4	0xbe23f380	-0.16010857
5	0x3d76cde2	0.06025494
6	0xbdcd8196	-0.10034482
7	0x3d6336dd	0.055472244
8	0xbd199b3f	-0.03750157
9	0x3e0b9ec4	0.13634783
10	0x3dce36f1	0.10069073
11	0x3dac8c40	0.08425188
12	0x3db849c8	0.08998448
13	0x3b1f3ca7	0.0024297626
14	0xbd5081cb	-0.05090503
15	0xbd144312	-0.036196776
16	0xbddf417d	-0.10901163
17	0x3dba3cb3	0.09093609
18	0xbe356e50	-0.17717862
19	0xbe758631	-0.23976971
20	0xbd8ea688	-0.06965357
21	0xbdf706a9	-0.12061817
22	0x3e341a13	0.17588072
23	0xbe20d7a8	-0.15707266
24	0x3e2d5aa0	0.16929102
25	0xbe7f68e4	-0.24942356
26	0xbdb3af79	-0.08773703
27	0xbdd37496	-0.103249714
28	0xbe483e6c	-0.19555062
29	0xbc53dab1	-0.012930558
30	0x3cd22984	0.025654562
31	0x3d1b34f2	0.03789229
32	0xbd77e503	-0.060521137
33	0xbb531b45	-0.0032212299
34	0x3d04b3d2	0.032398053
35	0x3e017ff5	0.12646468
36	0x3dc41c97	0.095757656
37	0x3d93889f	0.07203793
38	0x3c3c18a8	0.011480488
39	0xbd849833	-0.06474342
40	0xbe34a22a	-0.17639986
41	0x3da0beab	0.07848867
42	0xbe05bac4	-0.13059527
43	0xbcce3a0f	-0.025174169
44	0xbc31550c	-0.010823499
45	0xbc033dd8	-0.00801035
46	0xbd1664bf	-0.036717173
47	0x3cae9539	0.02131139
48	0xbdc11da1	-0.094294794
49	0x3d996f1e	0.07491897
50	0x3e4b0c7f	0.19828986
51	0x3e15d430	0.14631724
52	0x3de13368	0.10996133
53	0xbc6f64c4	-0.014611427
54	0x3e716983	0.23575406
55	0xbdd316b3	-0.10307064
56	0x3dcaa9ee	0.09895693
57	0x3dd5b0d4	0.10434118
58	0xbe1daf2e	-0.15398857
59	0xbe0a6a20	-0.13517046
60	0x3db1c672	0.086804286
61	0x3d93df62	0.07220341
62	0xbb3c0705	-0.0028690707
63	0xbcb2272f	-0.0217472
64	0x3da00dc6	0.07815127
65	0x3d7a1304	0.06105329
66	0xbe176129	-0.14783157
67	0x3d80bd3e	0.06286095
68	0xbe10cd31	-0.14140774
69	0xbc67b7b0	-0.014142916
70	0xbe0ca043	-0.1373301
71	0xbcae684e	-0.02128997
72	0x3c7f0cf7	0.015567056
73	0x3e291fc9	0.16516031
74	0xbdca663a	-0.098827794
75	0x3e3f5730	0.18685603
76	0x3e0fc225	0.14038904
77	0x3dd5571c	0.104170054
78	0x3d664977	0.056222405
79	0xbbae0d78	-0.005311664
80	0xbe2dd36e	-0.16975185
81	0x3af446a2	0.0018636773
82	0x3d2eb969	0.04265729
83	0x3dc04965	0.09388999
84	0xbd4adf0f	-0.04952913
85	0xbdd68e2a	-0.104763344
86	0xbd2de662	-0.04245604
87	0xbe02f46f	-0.12788557
88	0x3d5f7a5d	0.054560054
89	0x3d9bedb3	0.07613697
90	0xbdade297	-0.08490484
91	0x3e1c2537	0.15248571
92	0x3d14c712	0.03632266
93	0x3e4940f7	0.19653688
94	0x3d86cc09	0.06581885
95	0xbd265c99	-0.04061565
96	0x3db27f2c	0.08715662
97	0xbd4483a5	-0.04797711
98	0x3e52d48e	0.20588896
99	0x3d8cf14d	0.06881962
100	0xbd179d44	-0.037015215
101	0x3dd77d54	0.10521951
102	0x3c6ce039	0.014457756
103	0xbe4ab0e8	-0.19794047
104	0x3d95b31b	0.07309552
105	0xbe04299b	-0.12906496
106	0xbdb4096f	-0.08790862
107	0x3e8352bf	0.25649068
108	0x3dd186e6	0.10230808
109	0x3e0b7696	0.13619456
110	0xbe309fc0	-0.1724844
111	0xbde661f4	-0.11249152
112	0xbb5c075c	-0.0033573722
113	0xbe87621c	-0.2644204
114	0x3e66477a	0.22488204
115	0x3adc600e	0.0016813294
116	0x3b83effc	0.004026411
117	0xbdb69288	-0.08914667
118	0x3dcde283	0.10052969
119	0x3dfc9114	0.12332359
120	0xbe06df87	-0.13171206
121	0x3db0e110	0.08636677
122	0x3c2fcaa7	0.010729468
123	0x3df9436f	0.12171065
124	0xbda3c221	-0.079960115
125	0x3e810ef0	0.2520671
126	0x3e52516d	0.20538874
127	0x3e3d5b06	0.18491754
128	0x3c61b2e8	0.013775565
129	0xbddd9933	-0.10820236
130	0xbe3e1ce2	-0.18565705
131	0xbd584720	-0.052802205
132	0x3e69d531	0.22835232
133	0xbe367cad	-0.17820998
134	0x3e1ee7f5	0.15518172
135	0xbe324584	-0.1740933
136	0xbe8f842d	-0.2803053
137	0x3d582538	0.05276987
138	0x3e17269d	0.14760824
139	0x3daa5f45	0.083189525
140	0x3e341c16	0.17588839
141	0xbdb42401	-0.0879593
142	0x3e6633c6	0.22480687
143	0xbe388d7b	-0.1802272
144	0x3e0e7493	0.13911657
145	0xbe5480ac	-0.2075221
146	0xbc05dba5	-0.008170043
147	0x3d4dcbb7	0.050243106
148	0x3d3763db	0.044772964
149	0xbd8661a3	-0.065615915
150	0x3e4fae05	0.20281227
151	0x3e05d05f	0.13067769
152	0x3e5902c5	0.21192463
153	0x3df86c15	0.1212999
154	0x3e5634b6	0.20918545
155	0x3d202fca	0.039108075
156	0xbd9d7ead	-0.07690177
157	0xbcfb5ffc	-0.030685417
158	0x3d0b0e96	0.033949457
159	0xbe144d65	-0.14482649
160	0xbd68ee1b	-0.0568677
161	0xbde589ee	-0.112079486
162	0xbe0e06ca	-0.13869777
163	0x3d402ae3	0.0469159
164	0xbddc2d8a	-0.107508734
165	0xbd828919	-0.063738056
166	0xbc8f370e	-0.017482307
167	0xbd7bc114	-0.06146343
168	0xbe1c4cf2	-0.15263727
169	0x3d547652	0.05187065
170	0x3d9ee690	0.0775882
171	0xbd5f0799	-0.054450605
172	0x3e08b77a	0.13351241
173	0x3b25e660	0.0025314316
174	0xbd2e3e3d	-0.042539824
175	0x3e1281fe	0.143074
176	0x3cc0e33f	0.02354586
177	0xbe14d198	-0.14533079
178	0xbcd10ef3	-0.025519824
179	0xbd49ee55	-0.049299557
180	0x3d445137	0.047929015
181	0xbddb229e	-0.10699962
182	0xbd9f384c	-0.0777441
183	0x3d865431	0.06559027
184	0x3daeb0ee	0.085298404
185	0xbca97404	-0.020685203
186	0x3d55bbba	0.052180983
187	0x3dd86ee0	0.10568023
188	0x3dc43e6e	0.0958222
189	0x3e32684e	0.17422602
190	0x3d39c6ed	0.045355726
191	0xbd8fcda2	-0.07021643
192	0x3d83505b	0.06411811
193	0x3da40e56	0.08010547
194	0x3e4f2ab1	0.20231129
195	0x3c81fca4	0.015867539
196	0xbbb713e4	-0.005587088
197	0x3debfe30	0.11523092
198	0x3e198bae	0.1499469
199	0x3c9e3197	0.019310756
200	0xbc897087	-0.01677729
201	0xbaa2c72d	-0.0012418978
202	0xbc3bdd5f	-0.011466353
203	0xbd51ff63	-0.051268946
204	0x3d67fca5	0.056637425
205	0xbe5ea3fa	-0.2174224
206	0xbdfe679e	-0.12422107
207	0x3d360e73	0.044447374
208	0x3d8a8279	0.06763167
209	0x3dc04225	0.09387616
210	0xbd2bedd2	-0.04197485
211	0xbdd3e3fa	-0.103462175
212	0xbe50a079	-0.20373715
213	0xbe3199fa	-0.17343894
214	0x3d805b00	0.06267357
215	0x3dd7044a	0.10498865
216	0x3d60e7dd	0.054908622
217	0x3dbd7e35	0.09252588
218	0x3e0b6eae	0.1361644
219	0x3e1184f9	0.14210881
220	0xbdf5e380	-0.12006283
221	0x3e112d31	0.14177395
222	0xbdf96993	-0.1217834
223	0xbd1a1323	-0.037615906
224	0xbccb1466	-0.02479
225	0x3e38a1c7	0.18030463
226	0xbd13e463	-0.03610648
227	0x3ae9ffda	0.0017852739
228	0x3d0615d3	0.032735657
229	0xbd9723b3	-0.07379856
230	0xbe460491	-0.1933768
231	0xbd3401f0	-0.04394716
232	0x3e2cdd6e	0.16881344
233	0xbd83c0a1	-0.064332254
234	0x3e778c63	0.24174647
235	0xbd801980	-0.06254864
236	0xbe792ffa	-0.24334708
237	0x3da83371	0.08212937
238	0x3d6f188a	0.05837301
239	0x3e13b1f4	0.14423352
240	0x3e81a146	0.25318354
241	0xbe319d75	-0.17345221
242	0x3c5dfb91	0.013548748
243	0xbdea244d	-0.11432705
244	0x3e4ceef0	0.20013022
245	0x3d2103ba	0.039310195
246	0xbe4d691f	-0.20059632
247	0xbc5318b5	-0.012884309
248	0x3d008aca	0.03138236
249	0xbe80c5d5	-0.25150934
250	0x3c5b8aef	0.013399824
251	0xbe0a61de	-0.13513896
252	0x3dc3c43d	0.09558914
253	0x3dae28a4	0.08503845
254	0x3e0614a3	0.1309381
255	0x3db3ed06	0.08785443

bias_ih_l0 f4 [200]
0	0xbdfdccd6	-0.12392585
1	0xbdb1c626	-0.08680372
2	0x3c3ecd57	0.0116456365
3	0xbe0e1d50	-0.1387837
4	0x3d061a71	0.03274006
5	0x3cdf94b9	0.027292596
6	0xbe73ccb4	-0.23808557
7	0xbce54c5d	-0.027990514
8	0xbddb2526	-0.10700445
9	0xbe0f7766	-0.1401039
10	0xbe579856	-0.21054205
11	0xbe5fbf82	-0.21850398
12	0xbe0dab28	-0.13834822
13	0x3cd619af	0.026135294
14	0x3ae53f7b	0.0017490232
15	0xbd778403	-0.06042863
16	0x3c89e878	0.016834483
17	0xbe43061a	-0.19045296
18	0x3bc2eff9	0.005949017
19	0x3e3efebd	0.18651862
20	0x3df1d7e0	0.11808753
21	0xbd77dfaf	-0.060516056
22	0xbc99d7f7	-0.018779738
23	0xbc177587	-0.009244329
24	0xbe469c36	-0.19395527
25	0x3e452711	0.19253184
26	0xbca8f76c	-0.020625792
27	0xbe41ee64	-0.18938595
28	0xbdbb17cf	-0.091354005
29	0xbc8a6b91	-0.016896995
30	0x3e48e1d0	0.1961739
31	0x3cfff883	0.03124643
32	0xba1c6ab6	-0.0005966829
33	0x3e1e4b90	0.15458512
34	0xbe3ff5cf	-0.18746112
35	0xbdf13e38	-0.117794454
36	0x3b4af73c	0.0030970117
37	0xbe5d94a6	-0.21638736
38	0x3e14f001	0.14544679
39	0x3d980f0f	0.07424747
40	0x3c7151b6	0.014728954
41	0x3da93c77	0.08263486
42	0x3e0936d5	0.13399823
43	0xbe11cb32	-0.14237669
44	0x3e3ecd2d	0.18632956
45	0x3cf0da9f	0.029401122
46	0xbd5dfc6d	-0.05419581
47	0xbe157d69	-0.14598621
48	0x3de1eb75	0.11031238
49	0xbd2e030d	-0.04248338
50	0xbdb4a93a	-0.0882134
51	0x3dd22e36	0.1026272
52	0x3e215346	0.15754423
53	0xbe0776e7	-0.13228951
54	0x3d38bbe2	0.045101054
55	0xbd6964e7	-0.056980994
56	0x3c9a4e8a	0.018836278
57	0xbd000421	-0.031253938
58	0x3da2037b	0.0791082
59	0xbdbb4571	-0.09144104
60	0xbe32431e	-0.17408416
61	0xbe49684b	-0.19668691
62	0xbd97965e	-0.07401727
63	0x3c5563e1	0.013024301
64	0xbd977425	-0.073952
65	0x3e05943f	0.13044833
66	0xbd7c6b97	-0.061626043
67	0xbd153c2d	-0.03643434
68	0xbc937b8f	-0.018003253
69	0x3e14ab53	0.1451848
70	0x3cc4132d	0.023934925
71	0x3be2939a	0.006914568
72	0xbd0b0b86	-0.033946536
73	0x3c56abb7	0.013102463
74	0xbd493f50	-0.049132645
75	0xbd480b98	-0.04883918
76	0x3ca803b6	0.020509582
77	0xbc0546f6	-0.008134594
78	0x3dec6b12	0.115438595
79	0x3d75622d	0.05990808
80	0x3e26a4d3	0.16273813
81	0xbd98943e	-0.0745015
82	0x3dd16091	0.10223497
83	0x3e4713e9	0.19441189
84	0xbc2e6901	-0.010645152
85	0xbdf359de	-0.11882375
86	0xbe39d093	-0.18145971
87	0xbe3a41ff	-0.18189238
88	0xbde49ae9	-0.11162359
89	0x3e148a9d	0.14506002
90	0x3bcc7428	0.006239433
91	0xbdc0340c	-0.09384927
92	0xbcb0e1b0	-0.021591991
93	0x3d50bd32	0.05096168
94	0x3e4c30f4	0.19940549
95	0x3e6c56e9	0.23080029
96	0x3d3e3749	0.046439443
97	0xbe3c5974	-0.18393499
98	0x3e3ca48c	0.18422145
99	0x3c607b85	0.013701324
100	0xbcdebeeb	-0.027190646
101	0x3d2f26d0	0.042761624
102	0x3d459c4c	0.04824476
103	0xbcd3da14	-0.025860824
104	0xbd937e0d	-0.07201777
105	0x3cd8d6e5	0.026469657
106	0xbde7aadc	-0.11311886
107	0x3d1e39f9	0.038629506
108	0x3d81f548	0.06345612
109	0x3e06e147	0.13171874
110	0x3c71ac39	0.014750534
111	0xbb66a81d	-0.0035195418
112	0x3ca9dced	0.020735228
113	0x3c88def3	0.016707873
114	0xbd05657d	-0.03256749
115	0xbd2dbdfe	-0.04241752
116	0x3ce37fc1	0.027770879
117	0x3c9e1c9e	0.019300755
118	0xbd00e05f	-0.031463977
119	0xbdd74b9a	-0.10512467
120	0xbd6a1225	-0.05714621
121	0xbd18d4f7	-0.037312474
122	0x3d9bc7d7	0.07606476
123	0xbda9d308	-0.08292204
124	0xbd9b628a	-0.07587154
125	0x3ca9c143	0.020722037
126	0x3d6d0bdb	0.057872634
127	0x3db72982	0.08943464
128	0xbdb43557	-0.08799236
129	0xbd130f25	-0.035903115
130	0x3ca0afdb	0.019615104
131	0x3d331088	0.043716937
132	0x3d8d7c81	0.06908513
133	0x3d932bff	0.07186126
134	0xbaa8d63e	-0.0012881232
135	0x3d9fd54b	0.07804354
136	0xbd8073a4	-0.06272057
137	0x3b5c1550	0.003358204
138	0xbd329c93	-0.043606352
139	0x3d9c4179	0.076296754
140	0xbc65e742	-0.014032187
141	0xbd87e0c0	-0.066346645
142	0xbc78d401	-0.015187264
143	0xbd416ac8	-0.047220975
144	0xbc5060dc	-0.012718406
145	0xbced67ef	-0.028980223
146	0x3c941b6a	0.018079478
147	0xbcc4fa36	-0.024045091
148	0xbd8296b9	-0.06376404
149	0xbb9ccc3c	-0.004785089
150	0x3dd1a146	0.102358386
151	0xbda0ba17	-0.07847994
152	0x3ddbebd6	0.107383415
153	0xbde6e275	-0.11273662
154	0x3d0c995e	0.03432595
155	0xbd8ce7d2	-0.06880154
156	0xbe28a85e	-0.16470477
157	0xbd8fd219	-0.07022495
158	0xbcfb04d2	-0.030641947
159	0xbe1d95d7	-0.1538919
160	0xbe4b468e	-0.19851133
161	0xbe87892a	-0.26471835
162	0xbe581217	-0.2110065
163	0x3d5b62e4	0.053561106
164	0xbc7b8c40	-0.015353262
165	0x3ddf218f	0.10895073
166	0xbd3cedeb	-0.046125334
167	0xbdcb23b5	-0.0991892
168	0xbdff9332	-0.12479247
169	0xbd8d5d7e	-0.06902598
170	0x3cb1f4ea	0.02172323
171	0xbc49fcf8	-0.012328379
172	0xbe6abdef	-0.22924016
173	0xbd87d13e	-0.06631707
174	0x3c6a2f06	0.014293438
175	0x3e270955	0.16312154
176	0x3dd88b07	0.10573392
177	0x3cc15363	0.023599332
178	0xbd824bd3	-0.063621186
179	0xbd767984	-0.06017448
180	0x3d28098f	0.04102474
181	0xbdfcf6d1	-0.12351764
182	0x3e39e19b	0.18152468
183	0x3e2d6537	0.16933142
184	0x3d72b00a	0.059249915
185	0x3d40e835	0.04709645
186	0x3da57a7c	0.08080003
187	0xbdb5fae3	-0.088857435
188	0xbdd5c77b	-0.104384385
189	0x3dc06d4c	0.09395847
190	0xbe4179a9	-0.18894066
191	0x3c5c490d	0.013445151
192	0x3d8db701	0.06919671
193	0x3dd944c9	0.10608823
194	0x3d766f40	0.06016469
195	0x3db37373	0.087622546
196	0xbd3903c4	-0.045169607
197	0xbd30e390	-0.04318577
198	0x3cb19b12	0.021680389
199	0xbe6cbd65	-0.23119123

bias_hh_l0 f4 [200]
0	0xbd70a781	-0.058753494
1	0xbd810752	-0.06300224
2	0x3e2cf58f	0.16890548
3	0xbd15dbad	-0.036586452
4	0x3df5557d	0.11979196
5	0xbe320526	-0.17384776
6	0xbe1d5175	-0.15363105
7	0xbe4d859e	-0.20070502
8	0x3dbb1872	0.09135522
9	0xbdbb1e5d	-0.09136651
10	0xbd971bd4	-0.07378355
11	0xbd5fbed3	-0.054625344
12	0xbdeb3a29	-0.114857025
13	0x3e130395	0.14356835
14	0x3c7c9904	0.015417341
15	0xbdeb9c6a	-0.11504443
16	0xbdd72d83	-0.105067275
17	0xbe425274	-0.18976766
18	0x3d32045d	0.043461192
19	0x3e23803f	0.15966891
20	0xbdc23350	-0.09482443
21	0x3de56f70	0.11202896
22	0xbd983522	-0.07432009
23	0x3e2072d4	0.15668803
24	0xbda06452	-0.078316346
25	0xbc5db0d3	-0.013530928
26	0x3dca751b	0.09885617
27	0xbd8bed91	-0.068324216
28	0xbdcb8339	-0.09937138
29	0x3d1d9576	0.038472615
30	0xbcc77dfb	-0.024352064
31	0xbd8fe6b7	-0.07026427
32	0xbd498a44	-0.049204126
33	0xbd855b04	-0.065115005
34	0xbce4ea56	-0.027943771
35	0xbb34fd5d	-0.0027616837
36	0xbddc854e	-0.10767613
37	0xbd86187f	-0.06547641
38	0xbd78320f	-0.060594615
39	0x3e334d67	0.17509995
40	0xbe4a3f52	-0.19750717
41	0x3caad2ad	0.020852411
42	0x3d110245	0.035402555
43	0xbd3e8196	-0.0465103
44	0x3d3c2a02	0.0459385
45	0x3d2a60fc	0.041596398
46	0x3dce883d	0.10084579
47	0xbe2fe214	-0.17176086
48	0x3e15232e	0.14564201
49	0xbe237471	-0.15962388
50	0x3bd10c80	0.006379664
51	0xbe0f1926	-0.13974437
52	0x3d2ed983	0.042687904
53	0x3cf533fc	0.029932015
54	0x3c343428	0.010998763
55	0xbe2335c7	-0.15938483
56	0x3b7b700a	0.003836634
57	0xbdf20782	-0.11817838
58	0xbd176f1d	-0.0369712
59	0xbdc79e61	-0.09747005
60	0xbdec58a3	-0.115403436
61	0xbdca6572	-0.098826304
62	0xbdbda050	-0.09259093
63	0x3dc1720f	0.09445583
64	0x3cae314a	0.021263737
65	0x3e1adbd9	0.15122928
66	0x3b39d24c	0.0028354106
67	0x3c975652	0.018473778
68	0xbe216a0a	-0.15763107
69	0x3d8b37a1	0.0679772
70	0xbddb2f19	-0.107023425
71	0xbd94ac5f	-0.0725944
72	0xbda026e9	-0.078199215
73	0x3e0c8b21	0.13724948
74	0xbe33c9dc	-0.17557472
75	0x3df5b6b1	0.11997736
76	0x3dd66fed	0.10470567
77	0xbe0ef32b	-0.13959949
78	0x3d0f29fd	0.034952153
79	0x3cc16e01	0.023612024
80	0x3ccf411d	0.025299603
81	0xbe1b69e2	-0.1517711
82	0x3d6d9e19	0.0580121
83	0x3e2da6e1	0.1695819
84	0xbd674dc4	-0.056470647
85	0xbe1f17e2	-0.15536454
86	0x3d1dac3b	0.03849433
87	0xbd778949	-0.06043366
88	0xba7ec807	-0.00097191375
89	0x3d62fb6d	0.05541556
90	0xbded4365	-0.1158512
91	0x3d98b060	0.07455516
92	0xbd20126b	-0.039080065
93	0xbd89d75f	-0.06730532
94	0x3bfdedf9	0.007749316
95	0x3e0cff70	0.13769317
96	0xbe249010	-0.1607058
97	0xbdc031ea	-0.0938452
98	0xba67b556	-0.0008838972
99	0xbde895ad	-0.113566734
100	0xbc5d7ef8	-0.013519041
101	0x3c6b48de	0.014360635
102	0xbd94dc8b	-0.07268628
103	0x3baa97db	0.005206091
104	0x3d58bbb5	0.052913386
105	0xbc7a0f0e	-0.015262378
106	0x3deff3ec	0.11716446
107	0xbd14d8a8	-0.036339432
108	0x3d8e4b7e	0.06947993
109	0xbda23d81	-0.07921887
110	0xbd4fd417	-0.050739374
111	0xbc46a954	-0.012125332
112	0xbd47dc69	-0.048794184
113	0xbdac3366	-0.08408241
114	0x3d3a8baf	0.04554337
115	0x3db65bc8	0.08904225
116	0xbca5cc6a	-0.020239074
117	0xbd0b3141	-0.03398252
118	0x3cf6770c	0.030086063
119	0x3d970150	0.07373297
120	0xbcb88095	-0.02252225
121	0x3d97fbc2	0.07421066
122	0xbd595668	-0.05306092
123	0x3d5de76d	0.054175783
124	0x3d76c1bf	0.060243364
125	0xbb7c6a84	-0.0038515637
126	0xbd5f53b3	-0.05452318
127	0xbda6d4d6	-0.08146064
128	0x3ddfabef	0.109214656
129	0xbdd5c965	-0.104388036
130	0xbda5b447	-0.08091026
131	0xbd0900b2	-0.03344793
132	0x3dcdf3e2	0.100562826
133	0xbddd6447	-0.10810142
134	0x3d2ac2cf	0.04168969
135	0xbda98e4b	-0.08279093
136	0xbd210443	-0.039310705
137	0xbcc40e11	-0.023932489
138	0x3d0893ad	0.03334396
139	0xbdcc8b4e	-0.09987508
140	0x3cc368ca	0.023853678
141	0xbd11d0ae	-0.035599403
142	0xbbfae6bb	-0.0076568997
143	0xbdb97ab9	-0.090566106
144	0x3cc29038	0.02375041
145	0x3d973afb	0.073842965
146	0xbd793de8	-0.060850054
147	0x3d416dd1	0.04722387
148	0x3b757186	0.0037451698
149	0xbd687fb6	-0.05676242
150	0xbe0382a2	-0.12842801
151	0xbdd26801	-0.102737434
152	0x3e6d53f2	0.23176554
153	0x3bc561cd	0.0060236217
154	0xbc0304c2	-0.00799674
155	0xbde65f40	-0.11248636
156	0xbe088c51	-0.13334776
157	0xbd89a4bb	-0.06720873
158	0x3cce7439	0.025201904
159	0x3da4c322	0.08045031
160	0xbe8847f6	-0.26617402
161	0xbd9a54f5	-0.075357355
162	0xbd917228	-0.07101852
163	0x3d515e76	0.051115476
164	0xbe410465	-0.18849333
165	0xbdb98e73	-0.09060373
166	0xbe1333c9	-0.14375223
167	0xbb6cfa3f	-0.00361599
168	0xbe0b3ce9	-0.13597454
169	0x3def71a2	0.116915956
170	0x3d4c13d8	0.049823612
171	0x3dcf2fc0	0.101165295
172	0xbe5d32a3	-0.21601348
173	0xbc162465	-0.009163951
174	0xbd56fcde	-0.052487247
175	0x3dd6a897	0.10481375
176	0x3dde67b7	0.10859626
177	0xbd259c29	-0.04043213
178	0xbd084302	-0.03326703
179	0xbbd3e23f	-0.0064661796
180	0x3e1477a1	0.1449876
181	0xbe222611	-0.15834834
182	0xbdaadaff	-0.083425514
183	0x3d6778f1	0.056511823
184	0x3cf63935	0.030056575
185	0xbe5265a7	-0.2054659
186	0xbdb58918	-0.08864039
187	0xbdcf6e99	-0.10128517
188	0xbe065eeb	-0.13122146
189	0xbd6fed7d	-0.058576096
190	0xbd912db2	-0.07088794
191	0x3d01495e	0.03156411
192	0x3e18f381	0.1493664
193	0x3da81438	0.082069814
194	0xbd63c26c	-0.055605337
195	0x3e1ef7da	0.15524235
196	0x3db9f61a	0.09080143
197	0xbc44683a	-0.01198774
198	0x3e34deea	0.1766316
199	0xbd8f7827	-0.07005339

weight_ih_l1 f4 [200, 50]
0	0xbe23969c	-0.15975422
1	0xbc27a7ac	-0.010232847
2	0x3d82fa2d	0.063953735
3	0xbc39b98e	-0.011335744
4	0x3e04482c	0.12918156
5	0x3d59030c	0.05298142
6	0x3d02e333	0.031954955
7	0xbd854141	-0.06506587
8	0xbc996675	-0.018725613
9	0x3e53a6bb	0.20669071
10	0x3c9847ef	0.018588988
11	0xbc63f8a7	-0.013914264
12	0xbe5e76da	-0.21725026
13	0x3c594d36	0.013263037
14	0xbe07c11b	-0.13257258
15	0x3db693d4	0.08914915
16	0xbd6a645f	-0.057224628
17	0x3dd7e802	0.10542299
18	0xbcbe738a	-0.023248453
19	0xbd20440f	-0.039127406
20	0xbd42a9ae	-0.0475251
21	0xbcebe6e4	-0.02879662
22	0x3c838630	0.016055197
23	0xba5dd148	-0.00084616663
24	0x3de3847f	0.11109256
25	0xbe19c07b	-0.15014832
26	0xbd919fae	-0.071105346
27	0xbbdae38d	-0.006679958
28	0xbe10ae9a	-0.14129105
29	0x3dfc4ca3	0.12319305
30	0x3d4cf313	0.0500365
31	0xbd693111	-0.05693156
32	0x3d7cb6f2	0.061697908
33	0x3dd53b4b	0.104117
34	0x3d9c4de3	0.07632043
35	0xbc80611a	-0.015671302
36	0xbd900244	-0.07031682
37	0x3dce457c	0.10071847
38	0x3cfeb57b	0.031092396
39	0xbda2e8f5	-0.07954589
40	0x3d4ed0c1	0.050492052
41	0x3e03e597	0.1288055
42	0x3cee9d96	0.029127877
43	0x3cd9dce6	0.02659459
44	0x3db0556c	0.08610043
45	0x3db05bc4	0.08611253
46	0xbd490240	-0.04907441
47	0xbda74060	-0.081665754
48	0x3d550cfc	0.052014336
49	0x3db1bd97	0.086787395
50	0xbdb2da83	-0.08733084
51	0xbd8317e2	-0.0640104
52	0xbde9799e	-0.1140015
53	0x3d78316f	0.06059402
54	0xbdffbb29	-0.1248687
55	0x3dd5548c	0.10416517
56	0x3e2e49b7	0.17020307
57	0x3d4f09ee	0.05054658
58	0xbd0c7b60	-0.034297347
59	0x3da5f5c1	0.081035145
60	0xbd15ccab	-0.03657214
61	0x3de6890d	0.11256609
62	0xbdb907d2	-0.09034695
63	0xbbc2f937	-0.005950119
64	0xbe496837	-0.19668661
65	0x3e553cf6	0.20824036
66	0x3dad1afc	0.084524125
67	0xbe37723f	-0.17914675
68	0xbdaac8e8	-0.08339101
69	0xbe3de407	-0.18544017
70	0x3e2ef7d6	0.1708673
71	0xbe5d9205	-0.21637733
72	0xbd91384e	-0.070908174
73	0xbbedb697	-0.0072544324
74	0x3d40b805	0.047050495
75	0xbe698cc5	-0.22807606
76	0xbd460d3a	-0.048352458
77	0x3d15064f	0.03638297
78	0xbe6a2909	-0.22867216
79	0x3da5d37c	0.08096978
80	0x3e14242c	0.14466923
81	0xbd0d9404	-0.034564987
82	0x3d8f18ee	0.06987177
83	0xba8a1919	-0.0010536044
84	0x3d0852e7	0.033282187
85	0xbbc58dd8	-0.006028872
86	0x3da919da	0.08256884
87	0xbe50aefc	-0.20379251
88	0xbe902701	-0.28154758
89	0xbe754ca5	-0.23955019
90	0xbe7350f2	-0.23761347
91	0xbdc9ce6b	-0.09853824
92	0xbe7d563e	-0.2473993
93	0x3d5a8194	0.05334623
94	0xbda1fe3d	-0.0790982
95	0x3e7f58f0	0.2493627
96	0xbd28b882	-0.041191585
97	0x3d6d45cb	0.057927888
98	0xbd50978b	-0.050925773
99	0xbc2f07da	-0.010683024
100	0xbd662f04	-0.05619718
101	0xba054cab	-0.0005084972
102	0x3a8c65a0	0.0010711439
103	0x3dfbe74e	0.12299977
104	0xbcd651e7	-0.026162101
105	0xbd45306f	-0.048141893
106	0x3d5ebe0e	0.05438047
107	0xbdfa3604	-0.12217334
108	0x3d1e4a56	0.03864511
109	0xbd3b16d9	-0.045676086
110	0xbdbde19c	-0.09271547
111	0xbda2756d	-0.079325534
112	0xbd1a112c	-0.037614033
113	0xbcb395d4	-0.02192203
114	0xbdd89331	-0.105749495
115	0x3cc6147d	0.024179691
116	0xbc179ce7	-0.009253717
117	0x3d1a66a6	0.03769555
118	0x3db99ec6	0.09063487
119	0x3d52f17b	0.051499825
120	0xbcfd7bbe	-0.030942794
121	0x3df78931	0.12086714
122	0x3d003b46	0.031306528
123	0x3bf88722	0.0075844685
124	0x3d6288a5	0.055306096
125	0x3c97b6eb	0.01851984
126	0xbd4f0c5d	-0.0505489
127	0xbe070c3b	-0.1318826
128	0xbd869416	-0.06571214
129	0x3c1fc7be	0.009752212
130	0xbe16ef0f	-0.14739631
131	0x3dd5b641	0.10435153
132	0x3c8adb44	0.016950257
133	0x3d944c8a	0.07241161
134	0x3950caed	0.00019912022
135	0x3cef6fc0	0.029228091
136	0x3e3b7548	0.18306458
137	0x3e59d0d2	0.21271065
138	0x3e10c22c	0.1413657
139	0x3e6702f0	0.22559714
140	0x3d882b6e	0.066489086
141	0x3e333c22	0.17503408
142	0x3d6deac4	0.058085218
143	0x3e44a402	0.19203189
144	0x3df27bef	0.11840045
145	0xbe734fc0	-0.23760891
146	0x3de584df	0.11206984
147	0xbe144412	-0.14479092
148	0x3deedf3e	0.11663674
149	0xbcf00598	-0.029299542
150	0xbdd2b3c1	-0.102881916
151	0xbd57e5ff	-0.052709576
152	0x3e012f50	0.12615705
153	0x3daef8d0	0.08543551
154	0xbaec2546	-0.001801648
155	0x3e49658d	0.19667645
156	0x3aff586c	0.0019481308
157	0xbdcb282c	-0.099197716
158	0x3bace5f7	0.0052764374
159	0xbdb5cb75	-0.08876697
160	0x3dd6d8a2	0.10490538
161	0xbcaba1ad	-0.020951116
162	0xbd2ed31d	-0.042681802
163	0x3db3007c	0.08740327
164	0xbe004844	-0.12527567
165	0xbe291d5d	-0.16515107
166	0xbcbfcfa9	-0.02341445
167	0x3d2c0f7c	0.042006955
168	0xbe342744	-0.17593104
169	0xb9485345	-0.00019104507
170	0x3aa575e7	0.0012623639
171	0x3e2f7978	0.1713618
172	0x3e19af54	0.15008289
173	0x3e22f84a	0.15915027
174	0x3e51f698	0.20504224
175	0xbd31adda	-0.04337869
176	0x3d5305fd	0.051519383
177	0xbd0a1836	-0.033714496
178	0xbe5ba763	-0.21450572
179	0xbc21ee8f	-0.009883537
180	0x3e3201eb	0.17383544
181	0x3e65f759	0.22457637
182	0xbe8311f8	-0.25599647
183	0x3e49cc04	0.19706732
184	0xbe329b74	-0.17442113
185	0x3e66712e	0.22504112
186	0x3de080f2	0.10962094
187	0x3e1db4e5	0.15401037
188	0xbe1e7bcf	-0.15476917
189	0x3dfb871f	0.12281632
190	0xbe6b2333	-0.22962646
191	0x3dc1b437	0.094582014
192	0x3e3e994d	0.18613167
193	0x3e41bf15	0.18920548
194	0x3e18cf19	0.14922751
195	0xbcc1fc5c	-0.023679905
196	0x3e55a7e3	0.20864825
197	0xbe0e6bb6	-0.13908276
198	0xbc0051f1	-0.007832036
199	0x3e68eabd	0.22745796
200	0x3d5e62fe	0.054293625
201	0xbe1c5011	-0.15264918
202	0xbdad916c	-0.08475003
203	0xbd0a46d3	-0.03375895
204	0xbdadfa89	-0.084950514
205	0xbcf9ed1d	-0.030508572
206	0x3d57e08b	0.052704375
207	0x3d7e424b	0.06207494
208	0xbe10e7b7	-0.14150892
209	0x3e296c0f	0.16545127
210	0x3db5f8ef	0.08885371
211	0x3cf2599d	0.029583747
212	0xbe0f6053	-0.14001589
213	0x3e255571	0.16145875
214	0xbe0c5dff	-0.13707732
215	0x3ccd9c80	0.02509904
216	0xbe0ee2f1	-0.13953759
217	0x3df052c1	0.11734534
218	0xbe1184b6	-0.14210781
219	0xbe6b9526	-0.23006114
220	0x3d86e7a9	0.065871544
221	0xbe58f52a	-0.21187273
222	0x3d24e2dc	0.040255412
223	0xbdad8140	-0.08471918
224	0x3e30d05d	0.17266984
225	0xbdd6d4f2	-0.10489835
226	0xbd16c798	-0.03681144
227	0xbbc64e49	-0.006051813
228	0xbe5a6da9	-0.21330895
229	0x3e0eb7d6	0.13937315
230	0x3d1279c4	0.035760656
231	0x3c9ac48e	0.018892553
232	0xbb03e1df	-0.0020123643
233	0x3e52c6c6	0.20583639
234	0x3cf16a96	0.02946977
235	0xbd5b02a3	-0.05346931
236	0xbd5ca420	-0.05386746
237	0x3dc97b40	0.09837961
238	0xbd91b295	-0.0711414
239	0xbe10de33	-0.14147262
240	0xbe48b425	-0.1959997
241	0xbb6174b2	-0.0034401831
242	0xbdc96c9e	-0.0983517
243	0x3b284e2e	0.0025681364
244	0xbe4d82b7	-0.20069395
245	0xbcf2000c	-0.029541038
246	0xbd362752	-0.044471093
247	0xbdd66813	-0.10469069
248	0x3c2c55df	0.01051852
249	0x3e1cb2df	0.15302609
250	0x3d839307	0.064245276
251	0x3d11f8b1	0.03563756
252	0x3e80f582	0.25187308
253	0x3de5af70	0.11215103
254	0xbc6f0364	-0.014588211
255	0x3dd4e817	0.1039583

weight_hh_l1 f4 [200, 50]
0	0x3e2b98fb	0.16757576
1	0x3e5bb692	0.21456364
2	0x3b89f8a8	0.0042105503
3	0xbda0ea15	-0.078571476
4	0xbc253369	-0.010083058
5	0x3d5e8c7b	0.05433319
6	0xbdd91a66	-0.10600738
7	0xbc09de41	-0.008414806
8	0x3c3e5c1e	0.011618642
9	0xbccbc253	-0.024872934
10	0x3d24f64a	0.040273942
11	0xbe1dec6e	-0.15422222
12	0xbdf9081f	-0.12159752
13	0x3da9c232	0.08288993
14	0xbd2ac482	-0.04169131
15	0xbc61bc19	-0.013777756
16	0xbd49b8de	-0.04924857
17	0xbd7bf6b1	-0.06151456
18	0xbdab71f2	-0.08371343
19	0xbdf675ce	-0.12034188
20	0x3de31e85	0.110898055
21	0xbe3446f3	-0.1760519
22	0x3b4f0ae1	0.0031592178
23	0x3ddfba08	0.109241545
24	0x3d87839b	0.066168986
25	0x3e5c0087	0.21484576
26	0x3dc96d08	0.09835249
27	0x3db0bd11	0.086298116
28	0x3df4768c	0.119366735
29	0x3d386eca	0.04502753
30	0xbdbc4cf6	-0.09194367
31	0x3dcf1d37	0.10112994
32	0x3d553f76	0.052062474
33	0x3e1e4a06	0.15457925
34	0xbdfaa6c1	-0.12238837
35	0x3d77b4e1	0.060475234
36	0x3e0efb58	0.13963068
37	0xbd1f5340	-0.038897753
38	0x3d514f76	0.05110117
39	0x3dd3de3b	0.103451215
40	0xbda4e34a	-0.080511644
41	0xbdca7984	-0.098864585
42	0xbe18e65f	-0.1493163
43	0x3d73aff3	0.05949397
44	0xbe14c87a	-0.145296
45	0x3d84d7be	0.06486462
46	0x3dc675f5	0.09690467
47	0xbe1da015	-0.15393098
48	0xbcc254da	-0.023722101
49	0xbcff5079	-0.031166302
50	0xbe32f25d	-0.17475267
51	0x3bc8d3e5	0.0061287754
52	0x3c793ebe	0.015212713
53	0x3daeeeb0	0.0854162
54	0xbdde0f4c	-0.108427614
55	0x3dc17cae	0.09447609
56	0xbe03b54f	-0.12862132
57	0xbcaeb0f9	-0.021324622
58	0xbc8ebece	-0.017424967
59	0xbe070161	-0.1318412
60	0x3d0286d6	0.03186687
61	0x3d6cdd77	0.057828393
62	0x3b0f8cd5	0.002190401
63	0x3e28c3d6	0.16480955
64	0xbe120155	-0.1425832
65	0xbcef93b7	-0.02924524
66	0xbd7294dd	-0.059224
67	0xbd83a7d8	-0.06428498
68	0x3d970f6e	0.0737599
69	0x3d86db5e	0.0658481
70	0xbda2548b	-0.079262815
71	0x3e63e120	0.22253847
72	0x3d9008da	0.07032938
73	0x3d179b71	0.037013475
74	0xbca73481	-0.020410778
75	0x3dac8335	0.08423463
76	0x3e28e598	0.16493833
77	0x3d9798d6	0.07402198
78	0xbdd7b99f	-0.10533451
79	0x3db1e2d3	0.086858414
80	0xbd0731a7	-0.033006337
81	0xbe07465e	-0.13210437
82	0x3d27bbd5	0.040950615
83	0xbdb2e2a4	-0.087346345
84	0x3cb161ed	0.02165314
85	0xbd22ba19	-0.039728258
86	0xbc9b54d7	-0.018961353
87	0xbdbf285a	-0.09333868
88	0x3d101199	0.035173032
89	0x3e0685a6	0.1313692
90	0xbc889472	-0.016672347
91	0x3e3adf0e	0.18249151
92	0x3d27b937	0.04094812
93	0x3df20ae2	0.11818482
94	0x3c85d183	0.016335255
95	0xbc2d55c8	-0.010579534
96	0xbe57a7b6	-0.2106007
97	0x3da591c4	0.08084443
98	0x3d37f6bc	0.04491304
99	0x3e1b5e8a	0.15172783
100	0x3e4d0f31	0.20025326
101	0xbdbb0d35	-0.091333784
102	0xbe070496	-0.13185343
103	0xbc292e62	-0.010326
104	0x3b30a49f	0.002695359
105	0xbc14dd10	-0.0090859085
106	0xbd493387	-0.049121406
107	0xba2b14c1	-0.0006526225
108	0xb8dcae06	-0.00010522832
109	0xbd9f9658	-0.07792348
110	0x3dcfaafe	0.10140036
111	0x3d02a29a	0.03189335
112	0xbe285c0c	-0.16441363
113	0xbb907c49	-0.004409347
114	0xbdf2763a	-0.11838956
115	0xbcec0c9a	-0.028814603
116	0xbd87c0b4	-0.06628552
117	0xbd657752	-0.056021996
118	0xbdefdb4c	-0.117117494
119	0x3dbc48ab	0.09193548
120	0x3dec3819	0.11534137
121	0xbe1f3e6e	-0.15551159
122	0xbc12e8c3	-0.0089666275
123	0x3d2738e9	0.040825758
124	0xbd910e4d	-0.07082806
125	0x3e1e15f5	0.15438063
126	0x3de7a876	0.11311428
127	0xbdf77859	-0.12083501
128	0xbd009b19	-0.031397913
129	0x3e2ef8c8	0.1708709
130	0xbdb75318	-0.08951396
131	0xbc086d78	-0.008326881
132	0x3de3f043	0.11129811
133	0x3e14a6bd	0.1451673
134	0x3d9c0955	0.076189674
135	0x3da1d697	0.07902258
136	0x3ded0a03	0.11574175
137	0x3d89bb61	0.06725193
138	0x3de88179	0.1135282
139	0x3da5ecde	0.081018195
140	0xbb768a9b	-0.0037619236
141	0xbd048b8e	-0.032359652
142	0xbd29061d	-0.041265596
143	0xbced727d	-0.028985256
144	0xbe08476d	-0.13308497
145	0x3ce66b79	0.028127419
146	0x3d908f55	0.070585884
147	0x3cdc22e0	0.026872098
148	0x3d01c7e2	0.031684764
149	0xbdba1e4b	-0.09087809
150	0x3c9cc148	0.019135132
151	0xbe17811e	-0.14795348
152	0xbe2706e2	-0.1631122
153	0x3e672b3c	0.22575086
154	0xbe82024d	-0.2539238
155	0xbe1602fc	-0.14649576
156	0xbe00f829	-0.12594666
157	0x3df56c73	0.11983576
158	0x3d157bf0	0.03649515
159	0xbc899f52	-0.016799603
160	0x3e005bd3	0.12535028
161	0xbb94fc13	-0.004546651
162	0xbd4ba966	-0.049722098
163	0xbe19ef68	-0.15032732
164	0xbe480593	-0.19533376
165	0x3e8a87b7	0.27056667
166	0xbe5ddbb0	-0.21665835
167	0x3df55770	0.11979568
168	0xbdab2381	-0.08356381
169	0x3e00997b	0.12558548
170	0x3e53e268	0.20691836
171	0xbe26851e	-0.16261718
172	0x3e5e54b7	0.21712004
173	0x3e15c9c3	0.14627747
174	0xbda05e13	-0.07830443
175	0xbe569c8c	-0.20958155
176	0x3dfa3ae8	0.12218267
177	0xbd8884dc	-0.06665966
178	0xbe14fbb1	-0.14549138
179	0x3e6c3153	0.2306569
180	0x3e3f358c	0.1867277
181	0xbdc77015	-0.09738175
182	0x3e54eef9	0.20794286
183	0x3de7b7aa	0.11314328
184	0xbd6cec7e	-0.057842724
185	0xbe07aafb	-0.13248818
186	0x3d7ea386	0.062167667
187	0xbe654df5	-0.2239302
188	0x3ce7916f	0.02826759
189	0x3de1479d	0.10999987
190	0xbe714afe	-0.23563763
191	0x3e1fed26	0.15617809
192	0xbd87d14b	-0.06631716
193	0xbbdcf896	-0.006743501
194	0xbdac3a92	-0.08409609
195	0x3dcca42f	0.09992253
196	0xbe026b01	-0.12736131
197	0xbe5d06a9	-0.21584572
198	0xbddbcb9d	-0.107321955
199	0x3d5def0b	0.054183047
200	0x3e123c42	0.14280799
201	0x3e3edc0c	0.18638629
202	0xbe36eaeb	-0.17863052
203	0xbb45d12d	-0.0030184493
204	0xbd1bdb2f	-0.038050827
205	0xbcfba14b	-0.030716559
206	0x3ada1b22	0.0016640166
207	0xbcc1b4cd	-0.023645783
208	0x3e2a9c31	0.16661145
209	0xbe0d4326	-0.13795146
210	0x3dda363f	0.10654878
211	0xbd54c0f0	-0.051941812
212	0xbda79dbe	-0.08184384
213	0x3d3943ce	0.04523068
214	0xbe03a667	-0.12856446
215	0xbc482f28	-0.012218274
216	0xbe28151a	-0.164143
217	0xbd12c803	-0.035835277
218	0xbe04b111	-0.1295817
219	0x3e1d6811	0.1537173
220	0x3e04ad3f	0.12956713
221	0xbe022271	-0.12708451
222	0x3df1db2b	0.11809381
223	0x3e0d66c1	0.13808729
224	0x3d05ca14	0.03266342
225	0x3db60a20	0.0888865
226	0x3c534087	0.0128938025
227	0xbdcd6abf	-0.10030126
228	0x3daf558f	0.08561241
229	0xbd9637fc	-0.07334897
230	0x3e17c4c3	0.14821152
231	0x3d144307	0.036196735
232	0x3e47a24d	0.19495507
233	0x3e28baca	0.16477504
234	0xbd9d2403	-0.07672884
235	0x3d841133	0.06448593
236	0xbddb9b39	-0.10722966
237	0xbd720368	-0.05908528
238	0x3dc9c7c6	0.09852557
239	0x3e40e5d2	0.1883767
240	0x3b73b3ce	0.003718603
241	0xbd10a472	-0.035313077
242	0x3cdb5579	0.026774155
243	0x3d6e1704	0.05812742
244	0xbda0cbd1	-0.07851375
245	0x3dc27441	0.0949483
246	0xbdc112ae	-0.09427391
247	0xbba89af9	-0.0051454273
248	0xbc75afc5	-0.01499552
249	0xbc6a0256	-0.0142827835
250	0x3d87a7a6	0.06623773
251	0xbe08e60a	-0.13369003
252	0x3d6959c5	0.056970377
253	0x3e1c4d50	0.15263867
254	0xbc9b170b	-0.018931886
255	0xbc255d8b	-0.010093103

bias_ih_l1 f4 [200]
0	0xbdec2e2c	-0.11532244
1	0xbd023c2e	-0.031795673
2	0xbe009d93	-0.1256011
3	0xbdcca139	-0.09991688
4	0xbd42195c	-0.047387466
5	0xbe46faf7	-0.19431673
6	0xbd9a60d9	-0.075380035
7	0xbe066e0f	-0.13127922
8	0x3e05046f	0.12989973
9	0x3ccfe6c9	0.025378602
10	0xbb74a6a6	-0.0037330776
11	0xbda16994	-0.078814656
12	0xbd1c31bf	-0.03813338
13	0xbdfe7670	-0.12424934
14	0xbde2363a	-0.11045499
15	0xbcd01a34	-0.02540312
16	0xbc4b7b13	-0.01241948
17	0xbe3bf7b0	-0.18356204
18	0x3d0fc0de	0.03509604
19	0xbe322ce2	-0.17399934
20	0xbe3d2da0	-0.18474436
21	0xbc887efd	-0.016662115
22	0xbe0c3cc0	-0.1369505
23	0x3bffaa93	0.0078023165
24	0xbe180c67	-0.14848481
25	0xbdcd5978	-0.100268304
26	0x3d6a8764	0.057258025
27	0xbda3a214	-0.07989898
28	0xbd4c56b6	-0.04988738
29	0x3c868b63	0.016423887
30	0xbe1576b0	-0.14596057
31	0x3daf214b	0.08551272
32	0xbc29d56f	-0.010365828
33	0xbc7cde51	-0.015433864
34	0xbd1b7b85	-0.037959594
35	0xbcdb0ba7	-0.026738955
36	0xbdc5a2cb	-0.09650191
37	0xbe3e4688	-0.18581593
38	0xbd026252	-0.031832047
39	0xbda742d8	-0.08167046
40	0xbb9fac68	-0.0048728473
41	0xbdb06ba1	-0.086142786
42	0xbe15fbfe	-0.14646909
43	0xbd0867ef	-0.033302244
44	0xbdf54683	-0.1197634
45	0x3dd10958	0.1020686
46	0xbd6641a5	-0.056214947
47	0xbe101660	-0.14071035
48	0xbe10c513	-0.14137678
49	0x3d99ebbc	0.07515666
50	0xbdbb5db0	-0.09148729
51	0xbdcdcc0e	-0.10048686
52	0x3d9c78eb	0.07640251
53	0xbdcf9e8d	-0.10137663
54	0xbd87fe01	-0.06640244
55	0xbd0b6ed3	-0.034041237
56	0xbd53837f	-0.051639076
57	0xbe19df97	-0.15026699
58	0xbdf6be39	-0.12048001
59	0x3d436898	0.04770717
60	0xbc484e7d	-0.012225744
61	0x3d44a0e3	0.048004996
62	0xbe020b19	-0.12699546
63	0xbdbc21bf	-0.09186124
64	0xbe0c0a78	-0.13675869
65	0xbe235650	-0.15950894
66	0xbdcac9c4	-0.09901765
67	0xbdaa7f23	-0.08325031
68	0x3d42cfae	0.04756134
69	0xbd6936c0	-0.05693698
70	0xbe2f60ba	-0.17126742
71	0xbe5cffc1	-0.21581937
72	0x3d37badc	0.044855937
73	0xbd1923bd	-0.0373876
74	0xbdf1c78b	-0.11805638
75	0x3dd01e8d	0.10162077
76	0x3db5a8a1	0.08870054
77	0xbde8cd23	-0.11367252
78	0x3d6ec924	0.05829729
79	0xbe291f67	-0.16515885
80	0xbd74cf56	-0.059768043
81	0xbd0ec6e6	-0.034857653
82	0x3e0679ff	0.13132475
83	0x3d8f6cef	0.07003199
84	0x3d3a1469	0.04542962
85	0xbd8a4aa8	-0.06752521
86	0x3db018df	0.08598494
87	0xbcb08dc3	-0.021551972
88	0xbde36768	-0.111037076
89	0xbda26555	-0.07929484
90	0x3da19ebb	0.078916036
91	0x3d188b86	0.037242435
92	0xbe0746a0	-0.13210535
93	0x3cb345e3	0.02188391
94	0x3dbe4463	0.092903875
95	0x3c5d5345	0.013508623
96	0xbde3f215	-0.11130158
97	0xbdedd296	-0.11612432
98	0x3d25f5fd	0.040517796
99	0xbe1a9683	-0.15096478
100	0xbdd18f1c	-0.10232374
101	0x3d2e1795	0.04250296
102	0x3dd3361e	0.103130564
103	0xbc4ae73c	-0.012384232
104	0xbcc641d5	-0.024201313
105	0x3d01c734	0.031684116
106	0x3d73f37e	0.059558384
107	0xbc2297db	-0.0099239005
108	0xbcce14de	-0.025156435
109	0xbd2c6311	-0.042086665
110	0xbdd2fb0e	-0.10301791
111	0x3deb7dbf	0.114985935
112	0xbc8ca2cc	-0.017167471
113	0x3c4129ac	0.0117897205
114	0xbd9963a0	-0.07489705
115	0xbb9ce77e	-0.004788338
116	0xbb41a356	-0.0029546819
117	0xbc890fa1	-0.016731085
118	0x3dc31ac8	0.095265925
119	0xbd12824a	-0.035768785
120	0xbc39f810	-0.011350647
121	0xbd2ffa4c	-0.04296331
122	0x3b90d08f	0.0044193934
123	0xbca9e77d	-0.020740265
124	0x3cf38389	0.029725807
125	0x3d9eabc0	0.077476025
126	0xbe00c6ca	-0.12575832
127	0x3db365e6	0.0875967
128	0x3cee565e	0.029093917
129	0x3d55a26d	0.052156854
130	0xbe0070aa	-0.12542978
131	0x3d37c71e	0.044867627
132	0x3adbf34d	0.0016780883
133	0x3d82c054	0.0638434
134	0x3d3f6ee7	0.046736624
135	0x3cba840c	0.022768043
136	0xbc377db4	-0.011199404
137	0xbd31fa89	-0.04345182
138	0xbd44d234	-0.048052028
139	0x3de31779	0.110884614
140	0xbc252861	-0.010080428
141	0xbd8c893e	-0.06862114
142	0x3dbbd034	0.09170571
143	0xbd8bb6fa	-0.068220094
144	0x3d3475d5	0.044057686
145	0xbd971597	-0.07377165
146	0x3de48cc2	0.1115966
147	0x3d36bd58	0.044614166
148	0xbd0b0f2d	-0.03395002
149	0x3d60d620	0.054891706
150	0xbe1b7434	-0.15181047
151	0xbbe9d271	-0.0071356823
152	0x3ccfdb6e	0.025373187
153	0xbe424a64	-0.1897369
154	0xbda457c9	-0.08024556
155	0x3d09c2fd	0.03363322
156	0xbdb7716b	-0.0895718
157	0xbe10c574	-0.14137822
158	0xbda13eb4	-0.07873288
159	0xbe131950	-0.14365125
160	0x3d5418e1	0.05178154
161	0xbc599153	-0.013279277
162	0xbceb6cb7	-0.028738363
163	0x3daec854	0.08534303
164	0xbd5842f1	-0.052798215
165	0xbd857f6d	-0.06518445
166	0x3e187748	0.14889252
167	0xbe1735bb	-0.1476659
168	0xbdca0106	-0.098634765
169	0xbd15e288	-0.03659299
170	0xbe07fb11	-0.13279368
171	0xbe45c2d5	-0.19312604
172	0xbc536f4b	-0.012904952
173	0x3d79549c	0.060871705
174	0xbd92cbe8	-0.07167798
175	0x3d9b7738	0.075910985
176	0x3df7c5d9	0.12098283
177	0xbd048edf	-0.032362815
178	0xbd150bc7	-0.036388185
179	0xbe6233d2	-0.2209008
180	0xbc86fdcb	-0.01647844
181	0xbd401cbf	-0.046902414
182	0xbd3e305b	-0.046432834
183	0x3d1aacc2	0.03776241
184	0xbd45acce	-0.048260503
185	0x3dbb67e6	0.091506764
186	0xbe45c768	-0.19314349
187	0xbdf37fec	-0.118896335
188	0xbdd616e6	-0.10453586
189	0xbe6862de	-0.22693965
190	0x3de04f60	0.109526396
191	0x3db864ec	0.09003624
192	0xbd52283f	-0.051307913
193	0xbd24fbd7	-0.040279236
194	0xbc8a7062	-0.016899291
195	0x3dd37c42	0.10326435
196	0xbd83d68d	-0.06437407
197	0xbe13eafa	-0.14445105
198	0xbe4f6f82	-0.2025738
199	0xbb42f3f5	-0.002974746

bias_hh_l1 f4 [200]
0	0xbcd1e36a	-0.025621135
1	0xbe1ffd3c	-0.15623945
2	0xbdb79a6c	-0.089650005
3	0xbdbde2e3	-0.09271791
4	0x3dbe01ce	0.09277688
5	0xbe0c013a	-0.13672343
6	0x3d766ef0	0.060164392
7	0xbe00d440	-0.12580967
8	0xbd8642c3	-0.065557025
9	0xbe0d8e1b	-0.1382374
10	0x3d9cfa74	0.07664958
11	0xbd508a1b	-0.050912958
12	0xbd7fda5c	-0.062464103
13	0x3d926c44	0.07149556
14	0xbddda200	-0.10821915
15	0xbe1ce696	-0.15322337
16	0x3c28fca7	0.010314143
17	0xbe27b2ab	-0.1637675
18	0xbe00c063	-0.1257339
19	0x3cecc64f	0.028903155
20	0xbe494cfc	-0.19658273
21	0xbd8a7fc1	-0.067626484
22	0x3d1482ba	0.036257483
23	0xbd9074cb	-0.070535265
24	0x3caa18a2	0.020763699
25	0x3d667ce6	0.056271456
26	0xbd869cdc	-0.06572887
27	0x395b80be	0.00020933428
28	0x3df65d4f	0.12029516
29	0xbacf853f	-0.0015832557
30	0xbd73a6b1	-0.05948514
31	0x3dc4cc8a	0.09609325
32	0xba07e0a4	-0.00051833154
33	0xbe404927	-0.18777905
34	0x3d3b9c67	0.045803454
35	0xbd39ad4a	-0.045331277
36	0xbdbb62c3	-0.09149697
37	0x3cf83fc6	0.030303847
38	0xbcfe06b2	-0.031009052
39	0xbc801546	-0.015635144
40	0x3dcfdfad	0.10150085
41	0xbe00fc24	-0.12596184
42	0x3d0533b0	0.032519996
43	0xbbb1ea04	-0.005429508
44	0x3b015a66	0.001973772
45	0x3b2298ab	0.0024810235
46	0x3e154e6b	0.14580695
47	0x3d99a30f	0.07501804
48	0x3d1c7e7f	0.038206574
49	0xbd2f6b60	-0.04282701
50	0xbd1a105d	-0.03761326
51	0x3d84deba	0.06487794
52	0xbd4ef8ba	-0.050530173
53	0xbdf9e94b	-0.122027
54	0xbd9b7937	-0.07591479
55	0xbd92d994	-0.07170406
56	0xbe3869d2	-0.18009117
57	0xbe1d9593	-0.1538909
58	0x3d9e54f6	0.07731049
59	0xbe0ecc72	-0.13945177
60	0x3d0f5440	0.034992456
61	0x3cd7f0b9	0.026359903
62	0x3e038e2a	0.128472
63	0xbafc5179	-0.0019250355
64	0x3cb49132	0.02204189
65	0x3cb89903	0.0225339
66	0xbde3bada	-0.111196235
67	0xbe155d38	-0.14586341
68	0xbce1e3a6	-0.027574372
69	0x3d9b1da4	0.07574013
70	0xbda87a82	-0.082264915
71	0xbde2c242	-0.11072208
72	0x3c82619e	0.015915688
73	0x3de6d937	0.11271899
74	0xbd4c8e6e	-0.04994052
75	0x3df9204a	0.12164362
76	0x3ded4b63	0.115866445
77	0x3dc8fd72	0.09813966
78	0x3e07f2d7	0.1327623
79	0xbd27f341	-0.04100347
80	0xbe175d04	-0.14781576
81	0x3dd51f4b	0.10406359
82	0x3d3622f0	0.044466913
83	0xbe49c278	-0.1970309
84	0x3cf724ee	0.030168977
85	0xbdd40648	-0.103527606
86	0x3d3e778e	0.046500735
87	0x3d8eb746	0.069685504
88	0x3c3dcbc5	0.011584227
89	0xbd8395fc	-0.064250916
90	0x3d989158	0.07449597
91	0x3dc5ceed	0.096586086
92	0xbd9eee5c	-0.07760307
93	0xbdc5a72e	-0.096510276
94	0x3b46eda8	0.0030354057
95	0xbca5c254	-0.020234264
96	0x3dec51d1	0.11539043
97	0x3d565792	0.052329607
98	0xbd41428d	-0.04718261
99	0x3d93170e	0.07182132
100	0x3d924b4e	0.071432695
101	0xbc0a6be6	-0.008448577
102	0xbd66c730	-0.056342304
103	0xbca2f4bf	-0.019892095
104	0x3db9ddf2	0.09075536
105	0x3d98996f	0.0745114
106	0xbd402562	-0.04691065
107	0xbd16906c	-0.036758825
108	0xbc90e371	-0.017686578
109	0x3db78c84	0.08962348
110	0x3cd86243	0.026414042
111	0xbdd2292f	-0.102617614
112	0x3dc11a38	0.09428829
113	0x3cdd60bb	0.027023664
114	0x3db2b1be	0.08725308
115	0xbcd629b5	-0.026142934
116	0x3d220d6c	0.03956358
117	0xbb61b97c	-0.0034442833
118	0x3d9aef8a	0.0756522
119	0x3c58c336	0.013230136
120	0xbc84b258	-0.016198322
121	0x3d900a78	0.07033247
122	0xbd960a74	-0.073262125
123	0xbc86bb6f	-0.016446797
124	0xbb601571	-0.0034192468
125	0xbd1f572d	-0.038901497
126	0xbd08c489	-0.033390556
127	0x3d4a24d6	0.049351536
128	0x3dfef597	0.12449186
129	0xbd8ca662	-0.068676725
130	0xbc713df7	-0.014724246
131	0x3db4feef	0.08837687
132	0xbcc37a05	-0.023861894
133	0xbd9dd35b	-0.077063285
134	0xbb625d04	-0.0034540305
135	0xbb932b57	-0.0044912505
136	0xbca161e8	-0.019700006
137	0x3d7d0947	0.061776426
138	0x3b3de809	0.0028977415
139	0xbdb801ca	-0.08984716
140	0x3d2c4845	0.04206111
141	0x3cffb36d	0.031213487
142	0xbdbb7d94	-0.091548115
143	0xbdd26ec0	-0.1027503
144	0x3df59834	0.11991921
145	0x3c47117b	0.012150164
146	0xbda52846	-0.08064322
147	0x3cf374fe	0.029718872
148	0x3d046552	0.03232319
149	0xbd95cc76	-0.073143885
150	0x3de46e45	0.11153845
151	0xbb441e64	-0.002992534
152	0x3de724b0	0.112862945
153	0xbe01c293	-0.1267188
154	0xbdfe3a58	-0.12413472
155	0xbd530480	-0.051517963
156	0xbd9750f7	-0.0738849
157	0xbd2c11b1	-0.04200906
158	0x3d91aa9d	0.0711262
159	0xbd133715	-0.035941202
160	0x3d1fbedd	0.03900038
161	0xbcf8d8ec	-0.030376874
162	0xbd8594f7	-0.065225534
163	0xbe2074d1	-0.15669562
164	0xbe521337	-0.20515142
165	0x3d701b75	0.058619935
166	0x3dcbab79	0.09944815
167	0xbdb6541b	-0.089027606
168	0xbe28ac4d	-0.16471978
169	0x3d9bc25b	0.0760543
170	0xbdf4e3cb	-0.119575106
171	0xbdb5b5f3	-0.08872595
172	0x3d0a2fdd	0.033737052
173	0xbe128afa	-0.14310828
174	0xbc904616	-0.017611545
175	0xbc895a17	-0.016766591
176	0xbd929d01	-0.07158852
177	0x3d0919a6	0.033471726
178	0x3ddb4490	0.10706437
179	0xbe480e92	-0.19536808
180	0xbe0cd912	-0.13754681
181	0xbd361a66	-0.04445877
182	0x3c68cd61	0.014209122
183	0xbde8af20	-0.113615274
184	0x3da0e610	0.07856381
185	0x3d97c333	0.07410278
186	0x3d987732	0.0744461
187	0x3d82cc24	0.06386593
188	0xbe3c0b49	-0.1836368
189	0xbdc8f0af	-0.09811532
190	0xbdcdbce7	-0.10045796
191	0x3d9fa645	0.07795385
192	0xbdeafc11	-0.11473859
193	0x3dc3b897	0.09556692
194	0xbc4ca700	-0.012490988
195	0x3ccf44bb	0.025301328
196	0xbd816844	-0.06318715
197	0xbdcd4188	-0.10022265
198	0xbd190056	-0.037353836
199	0xbdd93d39	-0.106073804

weight f4 [1, 50]
0	0x3e1373b3	0.14399604
1	0xbd593f9c	-0.05303918
2	0x3dffd0da	0.12491007
3	0x3a905110	0.0011010487
4	0xbd4f025a	-0.050539352
5	0x3c24ad82	0.010051133
6	0x3d39cb8c	0.045360133
7	0x3e11452f	0.14186548
8	0xbdb4826f	-0.08813941
9	0x3d317965	0.04332866
10	0x3e0d8ab8	0.13822448
11	0xbdd57e88	-0.104245245
12	0xbdec5eb7	-0.11541503
13	0xbdde933c	-0.108679265
14	0x3d659885	0.056053657
15	0xbd304624	-0.04303564
16	0x3e0ec835	0.1394356
17	0xbd0f7045	-0.035019178
18	0xbd93b066	-0.0721138
19	0xbd0bde49	-0.034147535
20	0x3da60dba	0.08108087
21	0xbc694fdf	-0.014240234
22	0xbb97fa6a	-0.004638006
23	0xbd8b6b12	-0.068075314
24	0xbb4564e9	-0.0030119962
25	0xbd81afcf	-0.06332361
26	0xbdf3c66c	-0.1190308
27	0xbd790374	-0.06079431
28	0x3e03d888	0.12875569
29	0x3c41dcb3	0.011832404
30	0xbdcf1e61	-0.10113216
31	0x3d6497aa	0.0558087
32	0xbde0f938	-0.10985035
33	0xbbec197e	-0.0072051873
34	0x3da29b63	0.07939794
35	0x3daac70d	0.08338747
36	0x3d62bb3e	0.05535435
37	0x3d75a30e	0.059969954
38	0xbca7f5a6	-0.020502876
39	0xbd5f84b5	-0.05456992
40	0x3e1f6a9e	0.15568015
41	0xbd5984ba	-0.053105094
42	0xbd984a36	-0.074360296
43	0x3d8eea25	0.06978253
44	0xbdcc4e35	-0.09975854
45	0x3dc73047	0.09726005
46	0x3de4300b	0.11141976
47	0xbd65844d	-0.056034375
48	0xbca26448	-0.019823208
49	0xbdd0cbee	-0.101951465
