train_model_daily/last_model_3.pth (torch, 129214 bytes, 9 tensors)

weight_ih_l0 f4 [200, 1]
0	0xbdde2c58	-0.10848302
1	0x3e8cd4e6	0.2750618
2	0x3ce246ad	0.027621591
3	0xbb30e3c5	-0.002699123
4	0x3e3fb1f3	0.18720226
5	0x3e230b60	0.15922308
6	0xbddd051b	-0.107919894
7	0x3e1a6bdf	0.15080212
8	0xbdfd3f9a	-0.12365647
9	0xbde02087	-0.10943704
10	0xbe240a46	-0.16019544
11	0xbdff23ce	-0.12458001
12	0xbde08484	-0.10962775
13	0x3e8dd7c8	0.2770369
14	0xbd10b0dd	-0.03532492
15	0xbce24934	-0.027622797
16	0xbcb48845	-0.022037635
17	0xbd712ed1	-0.05888254
18	0x3db513a6	0.08841638
19	0x3da1597a	0.078783944
20	0x3c7a5d43	0.015281024
21	0x3d8e1a15	0.069385685
22	0xbddea7da	-0.10871859
23	0x3d318fad	0.04334991
24	0x3c69ad64	0.014262531
25	0x3e73f05d	0.2382216
26	0x3d85ed2f	0.0653938
27	0x3e08b332	0.13349608
28	0x3dc9a58c	0.09846029
29	0x3d36574c	0.044516847
30	0x3da0ceda	0.07851954
31	0xbb2ab65c	-0.0026048636
32	0xbe8e9eb8	-0.27855468
33	0x3e63d4a2	0.22249082
34	0x3cc12c5b	0.02358072
35	0x3d323aa7	0.043512966
36	0xbe9174c1	-0.2840939
37	0xbdd433b6	-0.103614256
38	0x3dfa026b	0.122074924
39	0x3dffb411	0.12485517
40	0xbd99eb3f	-0.07515573
41	0xbe2fbc3d	-0.17161651
42	0xbd79f82b	-0.061027687
43	0xbe9dabce	-0.3079514
44	0x3c5c2c07	0.013438231
45	0x3e39ba73	0.18137531
46	0x3ca8968a	0.020579595
47	0x3d67edfe	0.05662345
48	0xbbe53743	-0.006995113
49	0x3b5df25f	0.0033866388
50	0xbe8c7906	-0.27436084
51	0x3d3f74d0	0.04674226
52	0x3e26efaa	0.16302362
53	0x3e034b05	0.12821586
54	0x3e4d071d	0.20022245
55	0x3e20b9d8	0.15695894
56	0x3ce226f8	0.027606472
57	0x3e23b38a	0.15986457
58	0xbe9b12f7	-0.30287907
59	0xbe9ca64a	-0.30595618
60	0xbe311a35	-0.17295153
61	0xbe0d8cf0	-0.13823295
62	0xbe33c967	-0.17557298
63	0x3e737b57	0.23777519
64	0x3df4443a	0.11927076
65	0xbd063a38	-0.032770365
66	0x3e2971ec	0.16547364
67	0xbe325141	-0.17413808
68	0x3df124f0	0.117746234
69	0x3e4a6806	0.19766244
70	0x3dfcf290	0.123509526
71	0x3d925b40	0.07146311
72	0x3dc2283b	0.094803296
73	0x3e7baa4b	0.2457668
74	0x3df92258	0.12164754
75	0x3dbf5ade	0.093435034
76	0x3da3e3a8	0.08002406
77	0x3ce92515	0.028460065
78	0x3d171e2d	0.036894012
79	0x3d9c9aa3	0.07646682
80	0x3d95ead0	0.073201776
81	0x3d80bce4	0.06286028
82	0xbe136496	-0.14393839
83	0x3e1e95d1	0.15486838
84	0xbdf8d549	-0.12150056
85	0x3d30210f	0.043000277
86	0xbd900e77	-0.07034009
87	0xbe33285f	-0.17495869
88	0xbcde87dc	-0.027164392
89	0x3d9b9a5b	0.075978
90	0xbddadd5e	-0.10686754
91	0xbe07b4c1	-0.13252546
92	0xbd869b34	-0.065725714
93	0xbe983b70	-0.29732847
94	0x3e2431a7	0.16034566
95	0x3e0b96c2	0.13631728
96	0xbdc9a146	-0.098452136
97	0x3e357a64	0.1772247
98	0xbdf26cbc	-0.11837146
99	0xbd01b871	-0.031670038
100	0x3e2dbb46	0.1696597
101	0x3e64d11d	0.22345395
102	0x3e95a386	0.2922632
103	0xbe5ed0ee	-0.21759388
104	0x3e8b2e2d	0.27183667
105	0xbd04da80	-0.03243494
106	0xbd61e286	-0.05514767
107	0x3dc6c9a9	0.09706432
108	0xbe3e6522	-0.18593267
109	0xbe17a690	-0.14809632
110	0x39cb1c69	0.00038740344
111	0x3cae97d5	0.021312634
112	0x3deac992	0.11464228
113	0xbe9948f0	-0.2993846
114	0x3e2fac70	0.17155623
115	0xbe56e479	-0.20985593
116	0x3b16252f	0.0022910347
117	0x3ce7f40a	0.02831461
118	0x3d641fbe	0.055694334
119	0x3e7e77c0	0.24850368
120	0xbe5c1dab	-0.21495692
121	0x3e581045	0.21099956
122	0xbdfcf52b	-0.123514496
123	0x3e565c6d	0.20933695
124	0xbe0f5b7e	-0.13999745
125	0x3e88042e	0.2656569
126	0x3e72d2ed	0.23713274
127	0x3dc8585f	0.097824804
128	0x3e59818a	0.21240821
129	0xbe41e0d3	-0.1893342
130	0xbe89a225	-0.2688152
131	0xbe176691	-0.1478522
132	0xbea1f480	-0.3163185
133	0xbe742246	-0.238412
134	0xbde6d2f7	-0.11270707
135	0xbe008ad4	-0.12552959
136	0x3e285a41	0.16440679
137	0x3d695595	0.056966383
138	0x3e32e5e4	0.17470509
139	0x3e7821e0	0.24231672
140	0x3e13092a	0.14358965
141	0x3e70e067	0.23523103
142	0x3e8c530c	0.2740711
143	0x3e6277ad	0.22115965
144	0x3e5ae64c	0.21376914
145	0xbe9b8784	-0.30376828
146	0x3e1c2121	0.15247013
147	0x3dbddcb5	0.09270612
148	0x3e82a095	0.2551314
149	0x3dcffa32	0.10155143
150	0xbe7eeb48	-0.2489444
151	0x3c10d346	0.008839434
152	0x3e35867d	0.17727084
153	0x3e2f7fee	0.17138645
154	0x3d548bf1	0.05189127
155	0x39291a0f	0.00016126804
156	0xbe0bbc33	-0.13646011
157	0x3d62b435	0.05534764
158	0xbe1e450e	-0.1545603
159	0xbe1d779b	-0.15377657
160	0xbe4d54a2	-0.20051816
161	0xbcd29ccf	-0.025709538
162	0xbe53765e	-0.20650622
163	0x3daecd7a	0.08535285
164	0xbc9e1055	-0.019294897
165	0xbdca009b	-0.09863397
166	0x3af7b836	0.0018899504
167	0xbcf63540	-0.030054688
168	0x3e4b1442	0.19831946
169	0x3e2162bf	0.15760325
170	0x3e0b77f7	0.13619982
171	0x3d68b149	0.056809697
172	0xbd916422	-0.07099177
173	0x3e4313ed	0.1905057
174	0xbce153fe	-0.02750587
175	0x3e66eb07	0.22550593
176	0x3e917b4b	0.28414378
177	0x3d21dbe8	0.03951636
178	0x3e5ed548	0.21761048
179	0x3e322bb4	0.17399484
180	0x3e897563	0.2684737
181	0xbd306b2f	-0.04307097
182	0xbe4ea76b	-0.20181052
183	0x3d9fc6ca	0.07801588
184	0xbcea5eac	-0.028609596
185	0xbad206d5	-0.0016023765
186	0xbd2dfa9d	-0.04247533
187	0xbdd37a9f	-0.103261225
188	0x3e0f4881	0.13992502
189	0xbd66eed9	-0.056380127
190	0x3d389416	0.0450631
191	0xbd9c6ae4	-0.07637575
192	0x3e003906	0.12521753
193	0xbe9037b0	-0.28167486
194	0xbcc00d19	-0.023443745
195	0xbd92cae7	-0.07167607
196	0xbe4e3e93	-0.20141058
197	0xbd0b17a5	-0.033958096
198	0x3c3ec8c3	0.011644545
199	0xbdcb9e2f	-0.099422805

weight_hh_l0 f4 [200, 50]
0	0xbe56c6e6	-0.20974311
1	0xbd195131	-0.037430946
2	0xbcb0bd06	-0.021574508
3	0x3d593d81	0.05303717
4	0xbe24162b	-0.16024081
5	0x3d7741e4	0.060365573
6	0xbdcd50c9	-0.10025174
7	0x3d62d5cf	0.055379685
8	0xbd1939b0	-0.03740853
9	0x3e0bb925	0.13644846
10	0x3dce1beb	0.10063919
11	0x3dac9639	0.0842709
12	0x3db83128	0.08993751
13	0x3b1d3db7	0.0023993084
14	0xbd50bb91	-0.050960127
15	0xbd13a6a4	-0.036047593
16	0xbddf4a71	-0.109028704
17	0x3dba2c57	0.090904884
18	0xbe357720	-0.17721224
19	0xbe75af57	-0.23992668
20	0xbd8eb441	-0.069679745
21	0xbdf6fb36	-0.120596334
22	0x3e3423a1	0.17591716
23	0xbe20f7d1	-0.15719534
24	0x3e2d5d4f	0.16930126
25	0xbe7f7146	-0.24945554
26	0xbdb3bf3e	-0.08776711
27	0xbdd39b0e	-0.10332309
28	0xbe483b17	-0.19553791
29	0xbc549310	-0.012974516
30	0x3cd1ebb3	0.025625085
31	0x3d1be05e	0.03805577
32	0xbd775f41	-0.060393576
33	0xbb5376e1	-0.0032266902
34	0x3d04eb77	0.03245112
35	0x3e0195df	0.12654828
36	0x3dc3f0eb	0.09567436
37	0x3d937b8c	0.07201299
38	0x3c3988c6	0.011324113
39	0xbd84fa78	-0.064930856
40	0xbe34acc2	-0.17644027
41	0x3da0839e	0.07837604
42	0xbe05e2d4	-0.1307481
43	0xbccf29d4	-0.0252885
44	0xbc31b0da	-0.010845387
45	0xbc004e9a	-0.00783124
46	0xbd16da4a	-0.03682927
47	0x3cae889f	0.02130538
48	0xbdc167dc	-0.09443638
49	0x3d995a30	0.07487905
50	0x3e4ad5c6	0.1980811
51	0x3e15cbcc	0.14628524
52	0x3de10af8	0.1098842
53	0xbc6eae36	-0.014567902
54	0x3e71562e	0.23568031
55	0xbdd306c2	-0.10304023
56	0x3dcac52e	0.0990089
57	0x3dd59705	0.10429195
58	0xbe1d96f7	-0.1538962
59	0xbe0a3fb1	-0.13500859
60	0x3db1c555	0.08680216
61	0x3d93e307	0.072210364
62	0xbb41b7cf	-0.0029559021
63	0xbcb1dc67	-0.021711541
64	0x3d9ff5d6	0.07810561
65	0x3d7a8fe4	0.06117238
66	0xbe1766cb	-0.14785306
67	0x3d80b74b	0.0628496
68	0xbe10d3ba	-0.14143267
69	0xbc69373d	-0.014234361
70	0xbe0c981b	-0.13729899
71	0xbcaeb65c	-0.02132719
72	0x3c8018a1	0.015636744
73	0x3e290a94	0.16507941
74	0xbdca54b3	-0.09879436
75	0x3e3f481c	0.18679851
76	0x3e0fb2d6	0.14033064
77	0x3dd53b74	0.104117304
78	0x3d661fea	0.05618278
79	0xbbad4b6e	-0.005288533
80	0xbe2dc914	-0.16971236
81	0x3afddc3a	0.0019368001
82	0x3d2f56da	0.042807437
83	0x3dc06363	0.093939565
84	0xbd4ab03f	-0.049484488
85	0xbdd67173	-0.104708575
86	0xbd2e4174	-0.04254289
87	0xbe02f5a5	-0.12789018
88	0x3d5f2540	0.054478884
89	0x3d9bc3cb	0.07605704
90	0xbdadfa17	-0.084949665
91	0x3e1c08d6	0.15237746
92	0x3d147f83	0.036254417
93	0x3e491f5c	0.19640869
94	0x3d86afd9	0.06576509
95	0xbd25f9f2	-0.04052157
96	0x3db24ad8	0.087056816
97	0xbd449e07	-0.04800227
98	0x3e52afab	0.20574825
99	0x3d8ce417	0.06879442
100	0xbd1958d8	-0.037438244
101	0x3dd7971e	0.1052687
102	0x3c6cfba8	0.014464296
103	0xbe4ab83a	-0.1979684
104	0x3d95b69e	0.07310222
105	0xbe04165b	-0.12899153
106	0xbdb40128	-0.08789283
107	0x3e83524c	0.25648725
108	0x3dd1f778	0.10252279
109	0x3e0bd3a4	0.13654953
110	0xbe30aca8	-0.17253363
111	0xbde6474c	-0.112440675
112	0xbb621768	-0.0034498814
113	0xbe876954	-0.26447546
114	0x3e664960	0.22488928
115	0x3aeecaf1	0.001821844
116	0x3b838771	0.0040139486
117	0xbdb69cf8	-0.08916658
118	0x3dcddb67	0.10051613
119	0x3dfc7ef5	0.12328903
120	0xbe06ebbf	-0.13175867
121	0x3db0f937	0.08641284
122	0x3c30cfc4	0.010791723
123	0x3df93d8e	0.12169944
124	0xbda3cb1a	-0.07997723
125	0x3e81131f	0.252099
126	0x3e525a32	0.2054222
127	0x3e3d56da	0.18490162
128	0x3c626cc5	0.013819878
129	0xbdddba40	-0.1082654
130	0xbe3e2ae1	-0.18571045
131	0xbd582aba	-0.052775122
132	0x3e6a4c11	0.2288058
133	0xbe3686f7	-0.17824923
134	0x3e1f0046	0.15527448
135	0xbe32448c	-0.17408961
136	0xbe8f9be1	-0.28048614
137	0x3d582059	0.052765224
138	0x3e172145	0.14758785
139	0x3daa578f	0.08317482
140	0x3e341d90	0.17589402
141	0xbdb5179d	-0.088423945
142	0x3e663389	0.22480597
143	0xbe38e3d5	-0.18055661
144	0x3e0e7a9f	0.13913964
145	0xbe5474b9	-0.20747651
146	0xbc092b22	-0.0083721
147	0x3d4dd4c8	0.050251752
148	0x3d3697e1	0.044578437
149	0xbd868155	-0.06567637
150	0x3e4f591e	0.2024884
151	0x3e05d32d	0.13068838
152	0x3e58fbde	0.2118983
153	0x3df86e5a	0.12130423
154	0x3e562e6b	0.20916145
155	0x3d205ee7	0.039153006
156	0xbd9d71b3	-0.07687702
157	0xbcfb8eb1	-0.030707689
158	0x3d0ba727	0.034094956
159	0xbe140124	-0.1445356
160	0xbd690897	-0.056892958
161	0xbde57e7b	-0.11205765
162	0xbe0e18e3	-0.13876681
163	0x3d401d96	0.046903215
164	0xbddc359a	-0.10752411
165	0xbd825168	-0.06363183
166	0xbc8f5221	-0.017495217
167	0xbd7bd15e	-0.061478965
168	0xbe1c5171	-0.15265442
169	0x3d54419c	0.051820382
170	0x3d9ee09d	0.07757685
171	0xbd5efdb1	-0.054441158
172	0x3e08c797	0.13357387
173	0x3b23740e	0.0024941
174	0xbd2e3874	-0.042534307
175	0x3e12806e	0.14306805
176	0x3cc0d867	0.023540689
177	0xbe14d96d	-0.14536066
178	0xbcd104b6	-0.025514942
179	0xbd4a06eb	-0.049323004
180	0x3d444514	0.04791744
181	0xbddb0e1f	-0.10696053
182	0xbd9e9361	-0.07742954
183	0x3d865365	0.06558875
184	0x3daed0bc	0.08535907
185	0xbca94528	-0.02066286
186	0x3d553850	0.052055657
187	0x3dd86950	0.10566962
188	0x3dc42a6c	0.09578404
189	0x3e325f21	0.17419101
190	0x3d39b702	0.045340545
191	0xbd9041d6	-0.07043807
192	0x3d834304	0.064092666
193	0x3da395b4	0.07987538
194	0x3e4f28ef	0.20230459
195	0x3c82700f	0.015922574
196	0xbbbb16c4	-0.005709501
197	0x3debfb39	0.11522526
198	0x3e1967ad	0.14980955
199	0x3c9de297	0.019273086
200	0xbc8d0ecf	-0.017218975
201	0xbaa05001	-0.0012230874
202	0xbc3c64a8	-0.011498608
203	0xbd51fe12	-0.05126769
204	0x3d67dc44	0.056606546
205	0xbe5e9205	-0.2173539
206	0xbdfe544f	-0.12418424
207	0x3d35f0c1	0.044419054
208	0x3d8aeb2f	0.06783139
209	0x3dc0f696	0.094220325
210	0xbd2c11dd	-0.042009223
211	0xbdd3d1bb	-0.10342737
212	0xbe50bc59	-0.20384349
213	0xbe319f75	-0.17345984
214	0x3d805195	0.062655605
215	0x3dd75ea4	0.10516098
216	0x3d60d44d	0.054889966
217	0x3dbd73fb	0.09250637
218	0x3e0b696c	0.13614434
219	0x3e117280	0.14203835
220	0xbdf5ec7c	-0.120079964
221	0x3e1130ad	0.14178725
222	0xbdf9437c	-0.12171075
223	0xbd1a43aa	-0.037662186
224	0xbccb0bde	-0.024785932
225	0x3e38a098	0.18030012
226	0xbd13e7e0	-0.036109805
227	0x3ae42b0c	0.0017407848
228	0x3d0622df	0.0327481
229	0xbd973456	-0.07383029
230	0xbe460957	-0.193395
231	0xbd33c861	-0.043892268
232	0x3e2d4ca7	0.16923772
233	0xbd83c2eb	-0.06433662
234	0x3e77ab49	0.24186434
235	0xbd800a27	-0.062519364
236	0xbe795ca9	-0.24351753
237	0x3da8309f	0.08212399
238	0x3d6ee0e8	0.058319956
239	0x3e13a503	0.14418416
240	0x3e819eed	0.25316563
241	0xbe321ab4	-0.17392999
242	0x3c5d6913	0.013513821
243	0xbdeac47e	-0.11463259
244	0x3e4cec6e	0.20012066
245	0x3d215847	0.03939083
246	0xbe4da8e4	-0.20083958
247	0xbc533040	-0.012889922
248	0x3cff35f7	0.031153662
249	0xbe80cdf2	-0.25157124
250	0x3c5ad666	0.013356781
251	0xbe0a612c	-0.1351363
252	0x3dc3c635	0.09559289
253	0x3dae27f2	0.08503713
254	0x3e061515	0.1309398
255	0x3db3ee9e	0.08785747

bias_ih_l0 f4 [200]
0	0xbdfdbae6	-0.12389164
1	0xbdb1e8de	-0.08686994
2	0x3c3f1ec0	0.011665046
3	0xbe0e26d1	-0.13881995
4	0x3d0618d8	0.032738537
5	0x3cdf8a67	0.027287675
6	0xbe73d299	-0.23810805
7	0xbce5b147	-0.028038634
8	0xbddb097d	-0.10695169
9	0xbe0f6b04	-0.14005667
10	0xbe579b1a	-0.2105526
11	0xbe5fc17c	-0.21851152
12	0xbe0da5f0	-0.13832831
13	0x3cd58ea3	0.026068991
14	0x3add4b67	0.0016883434
15	0xbd776d30	-0.060406864
16	0x3c89e014	0.016830482
17	0xbe4305d8	-0.19045198
18	0x3bc2e762	0.005947993
19	0x3e3f064e	0.18654749
20	0x3df1bfd0	0.118041635
21	0xbd780364	-0.06055011
22	0xbc9a05ac	-0.018801533
23	0xbc17628e	-0.009239806
24	0xbe46a475	-0.19398673
25	0x3e451c61	0.19249107
26	0xbca93927	-0.020657135
27	0xbe41fbfe	-0.18943784
28	0xbdbb2bd5	-0.0913922
29	0xbc8b0cca	-0.016973872
30	0x3e48d0b2	0.19610861
31	0x3cffeb0b	0.031240007
32	0xba072147	-0.00051548
33	0x3e1e3963	0.15451579
34	0xbe3feeaa	-0.18743387
35	0xbdf14239	-0.11780209
36	0x3b4d1ddf	0.0031298322
37	0xbe5d9ffe	-0.21643063
38	0x3e14f264	0.1454559
39	0x3d980ddf	0.07424521
40	0x3c711e26	0.014716661
41	0x3da95e76	0.0826997
42	0x3e093664	0.13399655
43	0xbe11bb15	-0.14231522
44	0x3e3ec321	0.18629123
45	0x3cf103c6	0.029420745
46	0xbd5ddec6	-0.05416753
47	0xbe1584af	-0.14601396
48	0x3de208e7	0.11036854
49	0xbd2de746	-0.042456888
50	0xbdb4aed3	-0.088224076
51	0x3dd1ec03	0.10250094
52	0x3e21397f	0.1574459
53	0xbe0792bc	-0.13239568
54	0x3d384e0b	0.044996303
55	0xbd696541	-0.05698133
56	0x3c99e49c	0.018785767
57	0xbd004a4a	-0.031320848
58	0x3da21067	0.07913285
59	0xbdbb3c10	-0.091423154
60	0xbe3243ff	-0.17408751
61	0xbe4969e3	-0.19669299
62	0xbd979719	-0.074018665
63	0x3c52f919	0.012876772
64	0xbd97bba5	-0.07408837
65	0x3e058a89	0.13041128
66	0xbd7c7263	-0.061632525
67	0xbd153f33	-0.036437225
68	0xbc938c66	-0.018011283
69	0x3e149990	0.14511704
70	0x3cc34e30	0.023840994
71	0x3bdf626d	0.006817153
72	0xbd0b2974	-0.03397508
73	0x3c556827	0.01302532
74	0xbd4986e6	-0.049200915
75	0xbd48984b	-0.048973363
76	0x3ca7002e	0.020385828
77	0xbc06b341	-0.008221448
78	0x3dec2b75	0.11531726
79	0x3d74fe83	0.059813034
80	0x3e267f7d	0.1625957
81	0xbd98bf10	-0.07458317
82	0x3dd17074	0.10226527
83	0x3e46ec7f	0.19426154
84	0xbc2e52a1	-0.010639817
85	0xbdf37cb1	-0.118890174
86	0xbe39cc59	-0.18144359
87	0xbe3a4b3d	-0.18192764
88	0xbde4c1ab	-0.11169752
89	0x3e14720f	0.14496635
90	0x3bca4634	0.0061729196
91	0xbdc02e9e	-0.093838915
92	0xbcb19d2f	-0.021681396
93	0x3d50e1fc	0.050996765
94	0x3e4c12b8	0.19929016
95	0x3e6c4104	0.23071676
96	0x3d3e1dde	0.046415202
97	0xbe3c646f	-0.18397687
98	0x3e3c9f28	0.18420088
99	0x3c609bbe	0.013709007
100	0xbcdf596c	-0.02726432
101	0x3d2ebecf	0.042662438
102	0x3d453e44	0.048155084
103	0xbcd3284c	-0.025776051
104	0xbd93aa96	-0.07210271
105	0x3cd90b24	0.02649457
106	0xbde796f4	-0.11308089
107	0x3d1e05ca	0.03857974
108	0x3d821cfa	0.06353183
109	0x3e06f5ec	0.13179749
110	0x3c71b587	0.014752752
111	0xbb65058a	-0.0034945928
112	0x3ca98150	0.020691544
113	0x3c89b285	0.016808758
114	0xbd05c31e	-0.03265678
115	0xbd2d684c	-0.042335793
116	0x3ce38b31	0.027776333
117	0x3c9df1a7	0.019280268
118	0xbd011a75	-0.031519372
119	0xbdd77541	-0.10520411
120	0xbd69b4ab	-0.057057064
121	0xbd192e30	-0.037397563
122	0x3d9be368	0.07611734
123	0xbda9fc76	-0.08300106
124	0xbd9b373c	-0.075788945
125	0x3ca90492	0.020632062
126	0x3d6cb1c2	0.05778671
127	0x3db70e0e	0.089382276
128	0xbdb464ad	-0.08808265
129	0xbd12b010	-0.035812438
130	0x3ca1794f	0.019711165
131	0x3d33589f	0.043785688
132	0x3d8dac28	0.06917602
133	0x3d935b44	0.07195142
134	0xbaa02106	-0.0012216873
135	0x3d9ffac7	0.07811504
136	0xbd809618	-0.06278628
137	0x3b5a0b1c	0.0033270782
138	0xbd32e93d	-0.043679465
139	0x3d9c148d	0.07621107
140	0xbc672129	-0.014107027
141	0xbd8808f2	-0.06642331
142	0xbc7a4f61	-0.0152777145
143	0xbd41c386	-0.047305606
144	0xbc51c4db	-0.012803282
145	0xbcecac36	-0.02889071
146	0x3c938741	0.01800883
147	0xbcc5b5a3	-0.024134463
148	0xbd82c38e	-0.06384955
149	0xbb9ddd28	-0.0048176236
150	0x3dd1b2af	0.10239159
151	0xbda0d7d1	-0.07853664
152	0x3ddbf9ac	0.107409805
153	0xbde6f673	-0.11277475
154	0x3d0ca971	0.03434128
155	0xbd8cea65	-0.06880645
156	0xbe28ae13	-0.16472654
157	0xbd8fec72	-0.0702752
158	0xbcfa92f8	-0.030587658
159	0xbe1d8988	-0.15384495
160	0xbe4b4950	-0.19852185
161	0xbe878a2b	-0.264726
162	0xbe580ccd	-0.21098633
163	0x3d5b2d4a	0.053509988
164	0xbc7c8081	-0.015411497
165	0x3ddf2ebd	0.108975865
166	0xbd3cf2a0	-0.046129823
167	0xbdcb232c	-0.09918818
168	0xbdff9422	-0.12479426
169	0xbd8d4bc2	-0.06899215
170	0x3cb19398	0.021676823
171	0xbc4a718b	-0.012356172
172	0xbe6ac364	-0.22926098
173	0xbd87cee5	-0.06631259
174	0x3c69af0b	0.014262925
175	0x3e2700ec	0.16308945
176	0x3dd87870	0.10569847
177	0x3cc0e28a	0.023545522
178	0xbd826142	-0.06366207
179	0xbd76cbb2	-0.060252853
180	0x3d27c10f	0.0409556
181	0xbdfcf90c	-0.123521894
182	0x3e39f7c2	0.18160918
183	0x3e2d56c5	0.16927631
184	0x3d72cd90	0.05927807
185	0x3d40e198	0.047090143
186	0x3da58c78	0.08083433
187	0xbdb6111c	-0.08889982
188	0xbdd5c0e6	-0.10437183
189	0x3dc0748c	0.093972296
190	0xbe417ce9	-0.18895306
191	0x3c5d61e6	0.01351211
192	0x3d8db6e5	0.0691965
193	0x3dd965be	0.10615109
194	0x3d76525b	0.060137134
195	0x3db386f6	0.08765976
196	0xbd38e2cf	-0.045138177
197	0xbd3100b0	-0.043213546
198	0x3cb2194e	0.021740582
199	0xbe6cb65f	-0.23116444

bias_hh_l0 f4 [200]
0	0xbd7083a1	-0.05871928
1	0xbd812a0a	-0.063068464
2	0x3e2cfaa5	0.16892488
3	0xbd1601b0	-0.036622703
4	0x3df554b0	0.119790435
5	0xbe320670	-0.17385268
6	0xbe1d575a	-0.15365353
7	0xbe4d923b	-0.20075314
8	0x3dbb341b	0.09140798
9	0xbdbb059b	-0.091319285
10	0xbd97215c	-0.0737941
11	0xbd5fc6bc	-0.054632887
12	0xbdeb2fba	-0.114837125
13	0x3e12f234	0.14350206
14	0x3c7b9a82	0.015356662
15	0xbdeb9100	-0.11502266
16	0xbdd72f9c	-0.10507128
17	0xbe425232	-0.18976668
18	0x3d32034a	0.043460168
19	0x3e2387d0	0.15969777
20	0xbdc24b60	-0.09487033
21	0x3de55d96	0.11199491
22	0xbd98408f	-0.074341886
23	0x3e207403	0.15669255
24	0xbda074d0	-0.0783478
25	0xbc5e5bcb	-0.01357169
26	0x3dca64ad	0.09882484
27	0xbd8c08c5	-0.0683761
28	0xbdcb973f	-0.09940957
29	0x3d1d44d9	0.038395736
30	0xbcc806e8	-0.024417356
31	0xbd8fea15	-0.070270695
32	0xbd49351e	-0.049122922
33	0xbd857f5c	-0.065184325
34	0xbce4b12f	-0.027916519
35	0xbb357d7a	-0.0027693198
36	0xbddc7419	-0.10764331
37	0xbd862f2f	-0.06551968
38	0xbd782880	-0.0605855
39	0x3e334ccf	0.17509769
40	0xbe4a428a	-0.19751945
41	0x3cab5aaa	0.020917255
42	0x3d110080	0.035400867
43	0xbd3e4121	-0.04644883
44	0x3d3c01d1	0.04590017
45	0x3d2a7590	0.041616023
46	0x3dce9710	0.10087407
47	0xbe2fe95a	-0.1717886
48	0x3e1531e6	0.14569816
49	0xbe236d80	-0.1595974
50	0x3bd0b2e7	0.006368983
51	0xbe0f3a3f	-0.13987063
52	0x3d2e7266	0.042589568
53	0x3cf45559	0.029825853
54	0x3c327ccc	0.010894012
55	0xbe2335dd	-0.15938516
56	0x3b78209e	0.0037861238
57	0xbdf22a97	-0.118245296
58	0xbd175546	-0.036946557
59	0xbdc79500	-0.09745216
60	0xbdec5a67	-0.115406804
61	0xbdca68a2	-0.098832384
62	0xbdbda10b	-0.09259232
63	0x3dc124b6	0.0943083
64	0x3cad1347	0.021127356
65	0x3e1ad223	0.15119223
66	0x3b396592	0.00282893
67	0x3c975047	0.018470896
68	0xbe216c25	-0.1576391
69	0x3d8b141a	0.067909434
70	0xbddb6058	-0.107117355
71	0xbd94df72	-0.07269181
72	0xbda035e0	-0.07822776
73	0x3e0c76e9	0.13717236
74	0xbe33dbc1	-0.17564298
75	0x3df57057	0.11984318
76	0x3dd62f0b	0.104581915
77	0xbe0f09f0	-0.13968635
78	0x3d0eaac4	0.034830824
79	0x3cc0a6ae	0.023516979
80	0x3cce166c	0.025157176
81	0xbe1b7f4c	-0.15185279
82	0x3d6dbddd	0.058042396
83	0x3e2d7f77	0.16943155
84	0xbd67482c	-0.056465313
85	0xbe1f294b	-0.15543096
86	0x3d1dbd26	0.038510464
87	0xbd77ae44	-0.060468927
88	0xba891470	-0.0010458361
89	0x3d629933	0.055321883
90	0xbded6644	-0.11591771
91	0x3d98b5ce	0.074565515
92	0xbd20702b	-0.03916947
93	0xbd89c4f9	-0.06727023
94	0x3bfa268b	0.007633989
95	0x3e0ce98b	0.13760965
96	0xbe24966b	-0.16073005
97	0xbdc047df	-0.09388708
98	0xba6d18cc	-0.00090445275
99	0xbde891a6	-0.11355905
100	0xbc5eb3fb	-0.013592715
101	0x3c69a8d9	0.014261448
102	0xbd950b8f	-0.07277595
103	0x3bad5ef9	0.0052908626
104	0x3d5862a3	0.052828442
105	0xbc79a690	-0.0152374655
106	0x3df007d4	0.11720243
107	0xbd150cd7	-0.0363892
108	0x3d8e7330	0.06955564
109	0xbda21436	-0.07914011
110	0xbd4fd1c3	-0.050737154
111	0xbc4640af	-0.012100383
112	0xbd480a38	-0.04883787
113	0xbdabfe82	-0.08398153
114	0x3d3a2e0e	0.045454077
115	0x3db686a1	0.08912397
116	0xbca5c0fa	-0.02023362
117	0xbd0b46bc	-0.034003004
118	0x3cf602de	0.030030664
119	0x3d96d7a9	0.07365353
120	0xbcb7c5a0	-0.022433102
121	0x3d97cf25	0.074125566
122	0xbd591f46	-0.05300834
123	0x3d5d9491	0.054096762
124	0x3d77185c	0.060325965
125	0xbb812806	-0.0039415387
126	0xbd5fadcc	-0.054609105
127	0xbda6f04a	-0.081513
128	0x3ddf7c99	0.10912437
129	0xbdd599db	-0.10429736
130	0xbda581ea	-0.0808142
131	0xbd08b89b	-0.03337918
132	0x3dce2389	0.100653715
133	0xbddd3502	-0.10801126
134	0x3d2b0879	0.041756127
135	0xbda968cf	-0.08271944
136	0xbd21492a	-0.039376415
137	0xbcc44f58	-0.023963615
138	0x3d084703	0.033270847
139	0xbdccb83a	-0.09996076
140	0x3cc2cbd6	0.023778837
141	0xbd122114	-0.035676077
142	0xbbfddd7b	-0.00774735
143	0xbdb9a719	-0.090650745
144	0x3cc1de39	0.023665534
145	0x3d9769e9	0.07393248
146	0xbd7987fd	-0.060920704
147	0x3d41101a	0.047134496
148	0x3b6fd6cf	0.0036596542
149	0xbd68a1d3	-0.056794953
150	0xbe0379ed	-0.1283948
151	0xbdd285bb	-0.10279413
152	0x3e6d5add	0.23179193
153	0x3bc421f3	0.0059854924
154	0xbc02c476	-0.00798141
155	0xbde661d3	-0.11249127
156	0xbe089206	-0.13336954
157	0xbd89bf14	-0.067258984
158	0x3ccee613	0.025256192
159	0x3da4dbc1	0.08049727
160	0xbe884957	-0.26618454
161	0xbd9a58f6	-0.07536499
162	0xbd916795	-0.07099835
163	0x3d5128dc	0.051064357
164	0xbe4113a9	-0.18855156
165	0xbdb98145	-0.09057859
166	0xbe1334f7	-0.14375673
167	0xbb6ce92c	-0.0036149723
168	0xbe0b3d62	-0.13597634
169	0x3def835e	0.11694978
170	0x3d4be32e	0.049777202
171	0x3dcf212e	0.101137504
172	0xbe5d3818	-0.2160343
173	0xbc16119a	-0.00915947
174	0xbd571cdc	-0.052517757
175	0x3dd697c6	0.10478167
176	0x3dde5520	0.1085608
177	0xbd25d496	-0.04048594
178	0xbd086de0	-0.03330791
179	0xbbd673af	-0.0065445523
180	0x3e146582	0.14491847
181	0xbe22272f	-0.1583526
182	0xbdaaaeb2	-0.08334102
183	0x3d673f2c	0.05645673
184	0x3cf67443	0.030084735
185	0xbe52674e	-0.2054722
186	0xbdb5771c	-0.08860609
187	0xbdcf84d2	-0.10132755
188	0xbe065ba1	-0.13120891
189	0xbd6fdefd	-0.058562268
190	0xbd913431	-0.07090033
191	0x3d018f95	0.03163107
192	0x3e18f372	0.14936617
193	0x3da8352d	0.082132675
194	0xbd63df51	-0.055632893
195	0x3e1f019a	0.15527955
196	0x3dba0695	0.09083287
197	0xbc44dcba	-0.012015516
198	0x3e34eeb1	0.17669179
199	0xbd8f6a1b	-0.0700266

weight_ih_l1 f4 [200, 50]
0	0xbe23a1c6	-0.1597968
1	0xbc2475a0	-0.01003781
2	0x3d8386bd	0.06422184
3	0xbc3cf447	-0.01153285
4	0x3e04838b	0.12940805
5	0x3d592cd4	0.053021267
6	0x3d02b192	0.031907625
7	0xbd8503ed	-0.064948894
8	0xbc98e153	-0.01866213
9	0x3e53a86e	0.2066972
10	0x3c982b55	0.01857535
11	0xbc633022	-0.013866456
12	0xbe5e8932	-0.21732023
13	0x3c55ac20	0.013041526
14	0xbe0795bd	-0.13240714
15	0x3db65354	0.08902612
16	0xbd6a5e85	-0.057219047
17	0x3dd7ef1d	0.10543654
18	0xbcbe0125	-0.023193905
19	0xbd1f4067	-0.03887978
20	0xbd434bc8	-0.047679693
21	0xbcea9847	-0.028637065
22	0x3c82bfd7	0.015960617
23	0xba18521f	-0.0005810577
24	0x3de33fe8	0.110961735
25	0xbe198689	-0.14992727
26	0xbd913105	-0.07089428
27	0xbbd6c0f6	-0.0065537645
28	0xbe10750c	-0.1410715
29	0x3dfc0080	0.12304783
30	0x3d4c1e03	0.04983331
31	0xbd69f205	-0.057115573
32	0x3d7cd25f	0.061724063
33	0x3dd4d62e	0.10392414
34	0x3d9bb7f1	0.076034434
35	0xbc816b9c	-0.015798382
36	0xbd902154	-0.07037607
37	0x3dce7207	0.10080343
38	0x3d001cfc	0.03127764
39	0xbda2893e	-0.07936333
40	0x3d4f615e	0.050629966
41	0x3e03ea4f	0.1288235
42	0x3cf0310a	0.029320259
43	0x3cd8b727	0.026454521
44	0x3db0a40a	0.08625038
45	0x3daff7f6	0.08592217
46	0xbd488589	-0.048955474
47	0xbda7179b	-0.08158799
48	0x3d55d587	0.05220559
49	0x3db1dc22	0.08684565
50	0xbdb32b2a	-0.08748467
51	0xbd832727	-0.06403952
52	0xbde9f024	-0.11422756
53	0x3d7881a5	0.060670514
54	0xbe001d47	-0.12511168
55	0x3dd581b8	0.104251325
56	0x3e2e6ab6	0.17032894
57	0x3d4e4dcb	0.050367158
58	0xbd0bf538	-0.034169406
59	0x3da6340f	0.08115398
60	0xbd15e597	-0.036595907
61	0x3de67f45	0.112547435
62	0xbdb93de7	-0.0904501
63	0xbbc1dd42	-0.0059162686
64	0xbe49811a	-0.19678155
65	0x3e55749c	0.20845264
66	0x3dacf250	0.08444655
67	0xbe377578	-0.17915905
68	0xbdaae423	-0.08344295
69	0xbe3e1830	-0.18563914
70	0x3e2f028f	0.1709082
71	0xbe5da1bd	-0.2164373
72	0xbd9128f4	-0.07087889
73	0xbbf2bb50	-0.0074075833
74	0x3d40e660	0.047094703
75	0xbe69c021	-0.22827198
76	0xbd46be63	-0.04852141
77	0x3d14c567	0.03632107
78	0xbe6a37dd	-0.22872873
79	0x3da5e18b	0.080996595
80	0x3e1435b2	0.14473608
81	0xbd0ce9aa	-0.034402527
82	0x3d8f68a4	0.070023805
83	0xba71fa0a	-0.0009230679
84	0x3d088072	0.03332562
85	0xbbc06075	-0.0058708736
86	0x3da8e14d	0.08246098
87	0xbe509ed2	-0.20373085
88	0xbe9044b3	-0.28177413
89	0xbe759956	-0.23984274
90	0xbe735f76	-0.23766884
91	0xbdca1e2d	-0.09869037
92	0xbe7d9230	-0.24762797
93	0x3d59e858	0.053200096
94	0xbda24428	-0.07923156
95	0x3e7f9b1e	0.24961516
96	0xbd296798	-0.04135856
97	0x3d6d1268	0.05787888
98	0xbd514ba5	-0.05109753
99	0xbc2fcc35	-0.010729839
100	0xbd65b1c7	-0.056077745
101	0xb99c6198	-0.00029827352
102	0x3ab26eaa	0.0013613303
103	0x3dfb76cd	0.12278519
104	0xbcd4431d	-0.025910908
105	0xbd450a8f	-0.048105773
106	0x3d5e79c5	0.054315347
107	0xbdf9dc43	-0.12200215
108	0x3d1e004f	0.038574513
109	0xbd3bdbe9	-0.04586402
110	0xbdbde836	-0.09272806
111	0xbda254ea	-0.07926352
112	0xbd19eb7d	-0.037578095
113	0xbcb582f4	-0.02215717
114	0xbdd82e1d	-0.105556704
115	0x3cc48fed	0.02399441
116	0xbc172d42	-0.009227099
117	0x3d1a78a4	0.037712708
118	0x3db9c1bb	0.09070154
119	0x3d541a76	0.051783048
120	0xbcfee6d0	-0.03111592
121	0x3df7e61c	0.12104437
122	0x3cff31ee	0.031151738
123	0x3c00e240	0.007866442
124	0x3d61effd	0.05516051
125	0x3c99b8c1	0.018764855
126	0xbd4e182a	-0.050316013
127	0xbe06daa1	-0.13169338
128	0xbd861a67	-0.065480046
129	0x3c1d16f9	0.009587997
130	0xbe17292c	-0.147618
131	0x3dd54aa1	0.10414625
132	0x3c892f4a	0.016746182
133	0x3d93dc4c	0.07219753
134	0xb8f6de5f	-0.00011771614
135	0x3cee0e40	0.02905953
136	0x3e3b7c42	0.1830912
137	0x3e59e2ae	0.21277878
138	0x3e10fc4d	0.14158745
139	0x3e673a70	0.22580886
140	0x3d88882f	0.066666
141	0x3e33650c	0.17519015
142	0x3d6ecc8e	0.058300547
143	0x3e44964f	0.19197963
144	0x3df2d696	0.11857335
145	0xbe738b34	-0.2378357
146	0x3de5e362	0.112250105
147	0xbe142b24	-0.14469582
148	0x3def72e7	0.11691838
149	0xbceee459	-0.029161619
150	0xbdd2dd70	-0.10296142
151	0xbd58116e	-0.052750997
152	0x3e010296	0.12598643
153	0x3daf0d8b	0.08547505
154	0xbafce9db	-0.0019295769
155	0x3e496606	0.19667825
156	0x3b038e6a	0.00200739
157	0xbdcb3226	-0.099216744
158	0x3bad3e6d	0.0052869827
159	0xbdb5c04b	-0.088745676
160	0x3dd6da0b	0.10490807
161	0xbcaba797	-0.020953937
162	0xbd2f0911	-0.042733256
163	0x3db32b6e	0.08748518
164	0xbe004da1	-0.12529613
165	0xbe2913ba	-0.16511431
166	0xbcbfe4e6	-0.023424577
167	0x3d2c0f67	0.042006876
168	0xbe34299e	-0.17594
169	0xb99bd43c	-0.0002972203
170	0x3aaac17e	0.0013027636
171	0x3e2f6222	0.17127278
172	0x3e19b464	0.1501022
173	0x3e22cbe0	0.15898085
174	0x3e51fc96	0.2050651
175	0xbd323286	-0.043505214
176	0x3d524ef7	0.051344838
177	0xbd0a24cd	-0.033726502
178	0xbe5bb8d1	-0.2145722
179	0xbc214f42	-0.009845557
180	0x3e3218a2	0.17392209
181	0x3e66028e	0.22461912
182	0xbe830fad	-0.25597897
183	0x3e49e4fb	0.19716255
184	0xbe3299f5	-0.17441542
185	0x3e667943	0.22507195
186	0x3de07be1	0.10961128
187	0x3e1db53a	0.15401164
188	0xbe1e9454	-0.1548627
189	0x3dfb4ff9	0.12271113
190	0xbe6b2ae4	-0.2296558
191	0x3dc1ae19	0.094570346
192	0x3e3e87b2	0.18606451
193	0x3e41bc39	0.18919457
194	0x3e18a938	0.14908302
195	0xbcc16c38	-0.023611173
196	0x3e55a3e2	0.20863298
197	0xbe0e702c	-0.13909978
198	0xbc0161fe	-0.007896898
199	0x3e68ea1c	0.22745556
200	0x3d5e183e	0.054222338
201	0xbe1c35ce	-0.152549
202	0xbdad1a57	-0.084522896
203	0xbd0aa17a	-0.033845402
204	0xbdad96bc	-0.08476016
205	0xbcf9c71d	-0.030490452
206	0x3d57ce45	0.05268695
207	0x3d7e5805	0.06209566
208	0xbe10dae8	-0.14146006
209	0x3e297c2b	0.16551273
210	0x3db5f4d8	0.08884591
211	0x3cf27892	0.029598508
212	0xbe0f7302	-0.14008716
213	0x3e252ed8	0.1613115
214	0xbe0c52d9	-0.13703479
215	0x3ccd8efc	0.025092594
216	0xbe0ee6e0	-0.1395526
217	0x3df05368	0.117346585
218	0xbe118252	-0.1420987
219	0xbe6b7cc4	-0.22996813
220	0x3d86ba9d	0.065785624
221	0xbe58d14e	-0.21173593
222	0x3d24ce4b	0.0402358
223	0xbdad12d3	-0.08450856
224	0x3e30c21e	0.1726155
225	0xbdd691df	-0.104770415
226	0xbd1605b2	-0.036626525
227	0xbbc5cc34	-0.006036306
228	0xbe5a4618	-0.21315801
229	0x3e0ea101	0.13928606
230	0x3d11e5bb	0.03561948
231	0x3c9a183c	0.018810384
232	0xbafe99a2	-0.0019424448
233	0x3e52a0bf	0.20569132
234	0x3cf11bde	0.029432233
235	0xbd5b1f9c	-0.053496942
236	0xbd5cd1b2	-0.05391092
237	0x3dc98fad	0.09841857
238	0xbd9190c7	-0.07107692
239	0xbe10bb81	-0.14134027
240	0xbe48abed	-0.19596834
241	0xbb634318	-0.0034677442
242	0xbdc9208e	-0.098206624
243	0x3b231059	0.002488157
244	0xbe4d619f	-0.2005677
245	0xbcf2cdb3	-0.0296391
246	0xbd36255a	-0.044469215
247	0xbdd6594a	-0.10466249
248	0x3c2c7eb8	0.010528259
249	0x3e1cb39a	0.15302888
250	0x3d83a5c9	0.064281054
251	0x3d1227de	0.03568255
252	0x3e810692	0.25200325
253	0x3de59859	0.11210699
254	0xbc6d44d3	-0.014481741
255	0x3dd4e8d7	0.10395973

weight_hh_l1 f4 [200, 50]
0	0x3e2b949e	0.16755912
1	0x3e5bfbdd	0.21482797
2	0x3b8c67a5	0.0042848163
3	0xbda0f365	-0.07858924
4	0xbc22a7dc	-0.009927716
5	0x3d5ed1f6	0.054399453
6	0xbdd90ae6	-0.10597782
7	0xbc0b2ad3	-0.008494097
8	0x3c3d1300	0.0115401745
9	0xbccb1a5a	-0.024792839
10	0x3d24ad5a	0.040204383
11	0xbe1df0f2	-0.15423945
12	0xbdf8b6db	-0.12144252
13	0x3daa0851	0.083023675
14	0xbd2a9410	-0.04164511
15	0xbc62c351	-0.013840512
16	0xbd4959c1	-0.04915786
17	0xbd7c10b7	-0.061539378
18	0xbdab1b53	-0.08354821
19	0xbdf6945c	-0.12040016
20	0x3de31bce	0.11089288
21	0xbe34542c	-0.17610234
22	0x3b4ae68e	0.0030960175
23	0x3ddfa116	0.109193966
24	0x3d87741c	0.06613943
25	0x3e5c48bb	0.2151212
26	0x3dc9360d	0.098247625
27	0x3db11056	0.08645694
28	0x3df4af61	0.11947513
29	0x3d388ed2	0.04505808
30	0xbdbc8a63	-0.09206083
31	0x3dcf517c	0.10122964
32	0x3d54e72e	0.051978283
33	0x3e1e518d	0.15460797
34	0xbdfa79ff	-0.122303
35	0x3d77f4ae	0.06053608
36	0x3e0ef65c	0.13961166
37	0xbd1f10d0	-0.038834393
38	0x3d511107	0.05104163
39	0x3dd41ba4	0.103568345
40	0xbda4b5d0	-0.080424905
41	0xbdca95e5	-0.09891871
42	0xbe18f1e3	-0.14936022
43	0x3d72f477	0.05931517
44	0xbe149308	-0.14509213
45	0x3d84b0b7	0.06479018
46	0x3dc6a015	0.09698502
47	0xbe1d87de	-0.1538386
48	0xbcc26aff	-0.02373266
49	0xbcffadf2	-0.031210873
50	0xbe3356f1	-0.17513634
51	0x3bce2c8e	0.0062919324
52	0x3c75926d	0.014988524
53	0x3daf1b73	0.085501574
54	0xbdddb298	-0.1082508
55	0x3dc1709b	0.09445306
56	0xbe0400aa	-0.12890878
57	0xbcb156e9	-0.021647887
58	0xbc8cccf8	-0.01718758
59	0xbe071fd4	-0.13195735
60	0x3d016eeb	0.03159992
61	0x3d6eabb3	0.058269214
62	0x3b1f3e53	0.0024298623
63	0x3e2908d4	0.16507274
64	0xbe122498	-0.14271772
65	0xbcee64ff	-0.029100893
66	0xbd73821f	-0.059450265
67	0xbd83240d	-0.064033605
68	0x3d975737	0.07389682
69	0x3d876656	0.06611316
70	0xbda2f3fc	-0.079566926
71	0x3e63c971	0.22244813
72	0x3d901d1d	0.07036803
73	0x3d1873eb	0.037219923
74	0xbca73400	-0.020410538
75	0x3dace3b9	0.08441872
76	0x3e28ef8d	0.16497631
77	0x3d97df70	0.07415664
78	0xbdd7d907	-0.105394416
79	0x3db1b6f5	0.086774744
80	0xbd071af3	-0.032984685
81	0xbe07515e	-0.13214633
82	0x3d28cdba	0.04121182
83	0xbdb2ae1c	-0.08724615
84	0x3caf92db	0.02143233
85	0xbd239e26	-0.039945744
86	0xbc9dd290	-0.019265443
87	0xbdbf9981	-0.093554504
88	0x3d10713f	0.03526425
89	0x3e06b508	0.13154995
90	0xbc8a9259	-0.016915487
91	0x3e3b22d1	0.18275
92	0x3d28d296	0.041216455
93	0x3df1be2a	0.11803849
94	0x3c87115c	0.01648777
95	0xbc321b82	-0.010870816
96	0xbe57e95a	-0.2108511
97	0x3da5e3e6	0.08100109
98	0x3d38cafa	0.04511545
99	0x3e1bb051	0.15203978
100	0x3e4d1dc6	0.20030889
101	0xbdba89e4	-0.09108332
102	0xbe06e7dd	-0.13174386
103	0xbc2a24b5	-0.010384728
104	0x3b3a1434	0.002839339
105	0xbc137607	-0.009000308
106	0xbd48ee11	-0.049055163
107	0xba25fac0	-0.0006331615
108	0xb968fad6	-0.00022218688
109	0xbd9f5b73	-0.077811144
110	0x3dcfbc0d	0.1014329
111	0x3d025962	0.031823523
112	0xbe2851ef	-0.16437505
113	0xbb8faa86	-0.0043843416
114	0xbdf24e9b	-0.11831399
115	0xbcecd8fd	-0.028912062
116	0xbd877da1	-0.06615759
117	0xbd65b866	-0.05608406
118	0xbdef82c2	-0.11694862
119	0x3dbc1768	0.09184152
120	0x3dec56a6	0.115399644
121	0xbe1f6add	-0.15568109
122	0xbc1451da	-0.009052718
123	0x3d26e396	0.040744387
124	0xbd912fc3	-0.07089188
125	0x3e1e4ee2	0.15459779
126	0x3de76260	0.112980604
127	0xbdf723ee	-0.120674
128	0xbd0008bc	-0.03125833
129	0x3e2f04ef	0.17091726
130	0xbdb79e4e	-0.08965741
131	0xbc065aca	-0.008200357
132	0x3de3afb7	0.11117499
133	0x3e14abfd	0.14518733
134	0x3d9c4888	0.07631022
135	0x3da20b02	0.07912256
136	0x3ded2409	0.11579139
137	0x3d89eef2	0.06735028
138	0x3de85607	0.113445334
139	0x3da5fdd2	0.08105053
140	0xbb6dfa6a	-0.0036312588
141	0xbd04e8ef	-0.032448705
142	0xbd2955a1	-0.041341428
143	0xbcef0138	-0.029175386
144	0xbe081108	-0.13287747
145	0x3ce6a2ad	0.028153742
146	0x3d90cd09	0.07070357
147	0x3cdc45a9	0.026888685
148	0x3d01a340	0.031649828
149	0xbdba4a06	-0.0909615
150	0x3c9c2ddb	0.019064834
151	0xbe17770d	-0.14791508
152	0xbe271cb7	-0.16319548
153	0x3e672dca	0.22576061
154	0xbe82008c	-0.25391042
155	0xbe160859	-0.14651622
156	0xbe0110a8	-0.1260401
157	0x3df5531f	0.11978745
158	0x3d15b64c	0.036550805
159	0xbc89eb30	-0.016835779
160	0x3e00506a	0.12530676
161	0xbb926f0f	-0.0044688056
162	0xbd4b89bd	-0.049691904
163	0xbe19e580	-0.15028954
164	0xbe481073	-0.19537525
165	0x3e8a8b61	0.27059463
166	0xbe5df1aa	-0.21674219
167	0x3df56309	0.1198178
168	0xbdab2413	-0.0835649
169	0x3e00a2f8	0.12562168
170	0x3e53d450	0.2068646
171	0xbe268615	-0.16262086
172	0x3e5e5946	0.21713743
173	0x3e15d3a7	0.1463152
174	0xbda05df2	-0.07830419
175	0xbe568f40	-0.20953083
176	0x3dfa4fbf	0.122222416
177	0xbd8883e6	-0.06665783
178	0xbe150a6e	-0.1455476
179	0x3e6c2efa	0.23064795
180	0x3e3f4074	0.1867693
181	0xbdc7866b	-0.09742435
182	0x3e54fffe	0.20800778
183	0x3de7b819	0.11314411
184	0xbd6d2964	-0.0579008
185	0xbe07b6bc	-0.13253301
186	0x3d7e7691	0.062124792
187	0xbe655987	-0.22397433
188	0x3ce7ca11	0.028294595
189	0x3de15e27	0.11004286
190	0xbe715ba9	-0.23570122
191	0x3e1ffa15	0.15622742
192	0xbd8793a4	-0.06619957
193	0xbbdcf619	-0.0067432043
194	0xbdac39c9	-0.08409459
195	0x3dcc94e5	0.09989337
196	0xbe028046	-0.12744245
197	0xbe5d0317	-0.2158321
198	0xbddbb8ee	-0.10728632
199	0x3d5e37ca	0.054252423
200	0x3e122a9f	0.14274071
201	0x3e3f08e2	0.18655732
202	0xbe36df19	-0.17858543
203	0xbb45c3de	-0.003017656
204	0xbd1b95af	-0.037984546
205	0xbcfb5e9e	-0.030684765
206	0x3ad982d8	0.0016594781
207	0xbcc270c8	-0.023735419
208	0x3e2a92c7	0.16657554
209	0xbe0d393d	-0.13791366
210	0x3dda051f	0.10645508
211	0xbd549f05	-0.051909465
212	0xbda76a6c	-0.08174595
213	0x3d39af3e	0.04533314
214	0xbe03a119	-0.12854423
215	0xbc4883d2	-0.01223846
216	0xbe2805a6	-0.16408405
217	0xbd12bfed	-0.035827566
218	0xbe049bb0	-0.12950015
219	0x3e1d6461	0.15370323
220	0x3e04a349	0.12952913
221	0xbe0225fa	-0.127098
222	0x3df1cfd9	0.11807222
223	0x3e0d6426	0.13807735
224	0x3d05c1ca	0.032655515
225	0x3db66b7a	0.08907218
226	0x3c5222b1	0.012825654
227	0xbdcd42f7	-0.10022538
228	0x3daf7fc4	0.08569291
229	0xbd963161	-0.07333637
230	0x3e17af8a	0.14813057
231	0x3d14896a	0.03626386
232	0x3e4796fa	0.19491187
233	0x3e28be3e	0.16478822
234	0xbd9d0aeb	-0.07668098
235	0x3d841c6c	0.064507335
236	0xbddbb11d	-0.10727141
237	0xbd71e7de	-0.059059016
238	0x3dc9b997	0.098498516
239	0x3e410016	0.18847689
240	0x3b76affc	0.0037641516
241	0xbd10b5ce	-0.035329632
242	0x3cdb3dc2	0.026762847
243	0x3d6dbeb5	0.0580432
244	0xbda09205	-0.07840351
245	0x3dc2513f	0.09488153
246	0xbdc0f9da	-0.094226554
247	0xbba6f7ca	-0.0050954567
248	0xbc7599ae	-0.014990253
249	0xbc6a0cce	-0.014285279
250	0x3d87b1ab	0.06625684
251	0xbe08df65	-0.13366468
252	0x3d697f9c	0.057006463
253	0x3e1c4d1c	0.1526379
254	0xbc9b106b	-0.018928727
255	0xbc253a1f	-0.010084658

bias_ih_l1 f4 [200]
0	0xbdebf9b5	-0.11522237
1	0xbd0210d8	-0.031754345
2	0xbe0083e6	-0.12550315
3	0xbdcca9ec	-0.099933475
4	0xbd41d635	-0.047323424
5	0xbe46f79a	-0.1943039
6	0xbd9a5888	-0.07536417
7	0xbe064eb7	-0.13115965
8	0x3e050fdc	0.12994331
9	0x3cd00032	0.025390718
10	0xbb6d4e62	-0.003621005
11	0xbda12cf9	-0.07869906
12	0xbd1bd0d1	-0.03804094
13	0xbdfe3b38	-0.12413639
14	0xbde2070f	-0.110365026
15	0xbccf63a2	-0.025316063
16	0xbc4a5e66	-0.012351608
17	0xbe3be126	-0.18347606
18	0x3d1008ce	0.035164647
19	0xbe32216e	-0.17395565
20	0xbe3d10cc	-0.18463439
21	0xbc88885b	-0.016666582
22	0xbe0c3d8a	-0.1369535
23	0x3c0281c9	0.0079655135
24	0xbe180d1e	-0.14848754
25	0xbdcd40a2	-0.10022093
26	0x3d6a91b5	0.057267863
27	0xbda37968	-0.07982141
28	0xbd4c423a	-0.049867846
29	0x3c868d11	0.016424688
30	0xbe1572d7	-0.14594589
31	0x3daf2c89	0.08553416
32	0xbc284afe	-0.010271786
33	0xbc7cedac	-0.015437525
34	0xbd1b36de	-0.037894122
35	0xbcda20e9	-0.02662702
36	0xbdc57ee5	-0.09643344
37	0xbe3e3179	-0.1857356
38	0xbd023ef1	-0.031798307
39	0xbda7301f	-0.08163475
40	0xbb9ecdf0	-0.004846327
41	0xbdb04ebc	-0.086087674
42	0xbe15ebda	-0.14640751
43	0xbd082d70	-0.033246458
44	0xbdf512bc	-0.11966464
45	0x3dd133cd	0.10214958
46	0xbd66139d	-0.05617105
47	0xbe100043	-0.140626
48	0xbe10c43d	-0.14137359
49	0x3d9a33a7	0.07529383
50	0xbdbb5d75	-0.09148685
51	0xbdcdc1c3	-0.10046723
52	0x3d9c62d3	0.07636037
53	0xbdcfa5dd	-0.10139058
54	0xbd87f4c3	-0.066384815
55	0xbd0b7830	-0.034050167
56	0xbd53a533	-0.051671218
57	0xbe19da37	-0.15024649
58	0xbdf6dfd6	-0.12054412
59	0x3d433ba1	0.04766429
60	0xbc4817a8	-0.012212671
61	0x3d44a686	0.04801037
62	0xbe020643	-0.12697701
63	0xbdbc1551	-0.09183753
64	0xbe0c0d0a	-0.13676849
65	0xbe2356c5	-0.15951069
66	0xbdcaeee3	-0.09908845
67	0xbdaa7bbd	-0.083243825
68	0x3d42f7aa	0.047599472
69	0xbd694aac	-0.05695598
70	0xbe2f5eeb	-0.17126052
71	0xbe5d0167	-0.21582566
72	0x3d37af9b	0.044845205
73	0xbd1921d8	-0.03738579
74	0xbdf1c89b	-0.118058406
75	0x3dd02269	0.10162813
76	0x3db58753	0.08863702
77	0xbde8b9e1	-0.113635786
78	0x3d6e79e1	0.0582217
79	0xbe2923f3	-0.1651762
80	0xbd74fecf	-0.059813317
81	0xbd0efe2f	-0.034910377
82	0x3e066faa	0.13128534
83	0x3d8f6ac2	0.07002784
84	0x3d39d25a	0.045366623
85	0xbd8a4c19	-0.06752796
86	0x3db017d0	0.08598292
87	0xbcb09a25	-0.021557877
88	0xbde36a2f	-0.11104237
89	0xbda264dc	-0.07929394
90	0x3da17407	0.078834586
91	0x3d1862f9	0.037203763
92	0xbe074a0e	-0.13211843
93	0x3cb388e7	0.021915866
94	0x3dbe5f19	0.09295482
95	0x3c5d6a39	0.013514095
96	0xbde41a58	-0.11137837
97	0xbdedc921	-0.11610628
98	0x3d25d972	0.040490575
99	0xbe1a957c	-0.15096086
100	0xbdd1b252	-0.1023909
101	0x3d2e5c40	0.042568445
102	0x3dd31859	0.10307378
103	0xbc4a7553	-0.012357074
104	0xbcc5cdd4	-0.024145998
105	0x3d01bd68	0.031674773
106	0x3d73cfe0	0.059524417
107	0xbc23b5dc	-0.009992089
108	0xbccd97c2	-0.025096778
109	0xbd2c9d9c	-0.042142496
110	0xbdd32239	-0.10309262
111	0x3deb945d	0.115029074
112	0xbc8c0de3	-0.017096465
113	0x3c424172	0.011856424
114	0xbd996d47	-0.07491546
115	0xbb9c2afb	-0.004765866
116	0xbb45ef4c	-0.0030202447
117	0xbc88d95a	-0.016705204
118	0x3dc33a6a	0.09532626
119	0xbd1257e0	-0.035728335
120	0xbc3a4b54	-0.011370499
121	0xbd3005de	-0.042974345
122	0x3b919c51	0.004443683
123	0xbca99add	-0.020703727
124	0x3cf3913c	0.02973234
125	0x3d9ed05e	0.07754587
126	0xbe00b8d7	-0.12570511
127	0x3db38b2e	0.08766781
128	0x3ceded62	0.029043857
129	0x3d55956a	0.052144445
130	0xbe00654a	-0.12538639
131	0x3d3792aa	0.044817604
132	0x3ae43b98	0.001741278
133	0x3d82cbea	0.0638655
134	0x3d3f2f94	0.046676233
135	0x3cba5726	0.022746634
136	0xbc382765	-0.011239861
137	0xbd320c2d	-0.043468643
138	0xbd44b35d	-0.048022617
139	0x3de33505	0.11094097
140	0xbc261e33	-0.010139036
141	0xbd8c69a2	-0.06856085
142	0x3dbbe91c	0.091753215
143	0xbd8bd65b	-0.068279944
144	0x3d34b9a1	0.044122342
145	0xbd973686	-0.073834464
146	0x3de46b2f	0.11153256
147	0x3d370362	0.04468096
148	0xbd0af011	-0.03392035
149	0x3d60fccc	0.054928586
150	0xbe1b567a	-0.15169707
151	0xbbe89fd7	-0.0070991325
152	0x3cd0b941	0.025478961
153	0xbe424e7f	-0.18975256
154	0xbda4362b	-0.08018144
155	0x3d09d031	0.033645812
156	0xbdb76697	-0.08955114
157	0xbe10a407	-0.14125071
158	0xbda11c4d	-0.07866726
159	0xbe1313d1	-0.14363028
160	0x3d54a4e8	0.05191508
161	0xbc579b47	-0.01315958
162	0xbcea9646	-0.02863611
163	0x3daf05d6	0.08546035
164	0xbd57db4f	-0.052699383
165	0xbd854da1	-0.06508947
166	0x3e1892a8	0.14899695
167	0xbe171ded	-0.1475751
168	0xbdc9dc79	-0.09856505
169	0xbd15b07f	-0.036545273
170	0xbe07dda9	-0.1326815
171	0xbe45c40e	-0.1931307
172	0xbc537c0c	-0.012907993
173	0x3d7a1182	0.061051853
174	0xbd92cd44	-0.071680576
175	0x3d9b9085	0.07595924
176	0x3df7db4d	0.12102375
177	0xbd04406b	-0.032287996
178	0xbd14f2ff	-0.03636455
179	0xbe623386	-0.22089967
180	0xbc86bf75	-0.016448716
181	0xbd3feafe	-0.046854965
182	0xbd3da24c	-0.046297356
183	0x3d1aa8b6	0.03775855
184	0xbd454ffa	-0.048171975
185	0x3dbba430	0.09162176
186	0xbe45b503	-0.19307332
187	0xbdf35445	-0.118813075
188	0xbdd60632	-0.104504004
189	0xbe6859c8	-0.22690499
190	0x3de071a7	0.109591775
191	0x3db889bb	0.09010645
192	0xbd51e9df	-0.051248427
193	0xbd24c0a3	-0.040222775
194	0xbc899ad7	-0.016797466
195	0x3dd3ad49	0.10335786
196	0xbd83a99d	-0.064288355
197	0xbe13d4ab	-0.14436595
198	0xbe4f6ea1	-0.20257045
199	0xbb39ab2f	-0.0028330793

bias_hh_l1 f4 [200]
0	0xbcd11192	-0.025521073
1	0xbe1ff266	-0.15619811
2	0xbdb76712	-0.08955206
3	0xbdbdeb96	-0.0927345
4	0x3dbe2362	0.092840925
5	0xbe0bfddd	-0.1367106
6	0x3d767f93	0.060180258
7	0xbe00b4e8	-0.1256901
8	0xbd862be7	-0.065513425
9	0xbe0d8aef	-0.1382253
10	0x3d9d3537	0.076761656
11	0xbd5010e7	-0.05079737
12	0xbd7f796e	-0.062371664
13	0x3d92a77c	0.07160851
14	0xbddd72d5	-0.10812918
15	0xbe1ccfc4	-0.15313631
16	0x3c2a1954	0.010382015
17	0xbe279c21	-0.16368152
18	0xbe00ae67	-0.12566529
19	0x3ced21ea	0.028946836
20	0xbe493028	-0.19647276
21	0xbd8a8219	-0.067630954
22	0x3d147f91	0.03625447
23	0xbd901f3b	-0.07037207
24	0x3caa12f5	0.020760993
25	0x3d66ae91	0.056318823
26	0xbd8697b3	-0.06571903
27	0x39966c62	0.0002869098
28	0x3df6678c	0.12031469
29	0xbacf6a62	-0.0015824551
30	0xbd73974e	-0.059470467
31	0x3dc4d7c8	0.096114695
32	0xb9de7332	-0.00042428967
33	0xbe404a1c	-0.1877827
34	0x3d3be10e	0.045868926
35	0xbd3937eb	-0.045219343
36	0xbdbb3edd	-0.091428496
37	0x3cf8e83d	0.030384177
38	0xbcfdbff3	-0.030975318
39	0xbc7f94c8	-0.015599437
40	0x3dcfed95	0.10152737
41	0xbe00edb2	-0.12590674
42	0x3d05743d	0.032581557
43	0xbbb01608	-0.00537372
44	0x3b07d334	0.0020725252
45	0x3b27e730	0.0025619976
46	0x3e1559ed	0.14585085
47	0x3d99cf49	0.0751024
48	0x3d1c81d6	0.03820976
49	0xbd2edb8c	-0.042689845
50	0xbd1a0fe8	-0.037612826
51	0x3d84e905	0.064897574
52	0xbd4f24ea	-0.050572313
53	0xbdf9f09b	-0.12204095
54	0xbd9b6ff9	-0.075897165
55	0xbd92de42	-0.071712986
56	0xbe38723f	-0.18012331
57	0xbe1d9033	-0.15387039
58	0x3d9e3359	0.077246375
59	0xbe0ed7af	-0.13949464
60	0x3d0f61f5	0.03500553
61	0x3cd7fbff	0.026365278
62	0x3e039300	0.12849045
63	0xbaf93604	-0.001901329
64	0x3cb47ca5	0.022032091
65	0x3cb89553	0.02253214
66	0xbde3dff9	-0.11126704
67	0xbe155b85	-0.14585693
68	0xbce193ae	-0.02753624
69	0x3d9b13ae	0.07572113
70	0xbda876e4	-0.082258016
71	0xbde2c58e	-0.11072837
72	0x3c824b1b	0.015904954
73	0x3de6da29	0.112720795
74	0xbd4c908e	-0.049942546
75	0x3df92426	0.12165098
76	0x3ded2a15	0.11580292
77	0x3dc910b4	0.09817639
78	0x3e07df06	0.1326867
79	0xbd280574	-0.041020826
80	0xbe1768e2	-0.14786103
81	0x3dd503a6	0.104010865
82	0x3d35f99b	0.044427495
83	0xbe49c38f	-0.19703506
84	0x3cf6a0d0	0.030105978
85	0xbdd407b9	-0.103530355
86	0x3d3e7571	0.04649872
87	0x3d8eb42d	0.069679596
88	0x3c3db591	0.011578933
89	0xbd839583	-0.064250015
90	0x3d9866a4	0.07441452
91	0x3dc5baa6	0.09654741
92	0xbd9ef537	-0.07761615
93	0xbdc5966c	-0.09647831
94	0x3b4a4484	0.0030863592
95	0xbca5b6da	-0.020228792
96	0x3dec298e	0.115313634
97	0x3d566a7e	0.052347653
98	0xbd415f18	-0.04720983
99	0x3d93191c	0.071825236
100	0x3d922818	0.071365535
101	0xbc095939	-0.008383089
102	0xbd6702bc	-0.056399092
103	0xbca2bbcb	-0.019864937
104	0x3db9faf3	0.09081068
105	0x3d98948a	0.074502066
106	0xbd404900	-0.04694462
107	0xbd16d7ec	-0.036827013
108	0xbc906655	-0.01762692
109	0x3db76f3e	0.08956765
110	0x3cd7c598	0.026339337
111	0xbdd21291	-0.102574475
112	0x3dc13f71	0.094359286
113	0x3cddec9d	0.027090365
114	0x3db2a817	0.08723467
115	0xbcd5fa95	-0.026120463
116	0x3d21c8ac	0.039498016
117	0xbb600746	-0.0034184023
118	0x3d9b0f2c	0.07571253
119	0x3c596ce1	0.013270588
120	0xbc84dbfa	-0.016218174
121	0x3d9004af	0.07032143
122	0xbd95fdb8	-0.07323784
123	0xbc866ecf	-0.01641026
124	0xbb5fa7da	-0.0034127147
125	0xbd1f0df2	-0.03883166
126	0xbd088cbb	-0.033337336
127	0x3d4a6f64	0.049422637
128	0x3dfedb58	0.1244418
129	0xbd8cace3	-0.06868913
130	0xbc7087ee	-0.014680846
131	0x3db4e4b4	0.08832684
132	0xbcc2f580	-0.023798704
133	0xbd9dc7c5	-0.07704119
134	0xbb665238	-0.003514422
135	0xbb93deef	-0.0045126597
136	0xbca1b6c0	-0.019740462
137	0x3d7cf7a3	0.061759602
138	0x3b3fd577	0.0029271522
139	0xbdb7e43e	-0.089790806
140	0x3d2c0ad1	0.042002503
141	0x3d0018f0	0.031273782
142	0xbdbb64ac	-0.09150061
143	0xbdd28e21	-0.10281015
144	0x3df5ba1a	0.11998387
145	0x3c4609ff	0.012087344
146	0xbda549d9	-0.08070726
147	0x3cf40113	0.029785668
148	0x3d04846e	0.032352857
149	0xbd95b920	-0.073107004
150	0x3de4a9b8	0.11165184
151	0xbb41b930	-0.0029559843
152	0x3de75c25	0.11296872
153	0xbe01c6ae	-0.12673447
154	0xbdfe18ba	-0.1240706
155	0xbd52f74c	-0.051505372
156	0xbd974623	-0.073864244
157	0xbd2b8bfd	-0.04188155
158	0x3d91cd04	0.07119182
159	0xbd132118	-0.035920233
160	0x3d204ae4	0.03913392
161	0xbcf7dde7	-0.030257178
162	0xbd855f5b	-0.06512328
163	0xbe205610	-0.1565783
164	0xbe51f94e	-0.20505258
165	0x3d707f0c	0.05871491
166	0x3dcbe23a	0.09955259
167	0xbdb62480	-0.088936806
168	0xbe289a06	-0.16465005
169	0x3d9bdb60	0.07610202
170	0xbdf4a8fb	-0.11946293
171	0xbdb5b865	-0.08873061
172	0x3d0a2cac	0.03373401
173	0xbe125bc1	-0.14292814
174	0xbc904b89	-0.017614143
175	0xbc88f4e2	-0.016718332
176	0xbd92878d	-0.071547605
177	0x3d09681a	0.033546545
178	0x3ddb50f3	0.10708799
179	0xbe480e46	-0.19536695
180	0xbe0cd147	-0.13751708
181	0xbd35e8a5	-0.04441132
182	0x3c6b05a0	0.014344603
183	0xbde8b126	-0.113619134
184	0x3da1147b	0.078652345
185	0x3d97ff7d	0.074217774
186	0x3d989bfb	0.07451626
187	0x3d82f7cb	0.06394919
188	0xbe3c02ef	-0.18360494
189	0xbdc8de82	-0.09808065
190	0xbdcd9aa0	-0.10039258
191	0x3d9fcb14	0.07802406
192	0xbdeadce1	-0.114679106
193	0x3dc3d631	0.09562338
194	0xbc4afbea	-0.012389163
195	0x3cd008d4	0.025394835
196	0xbd813b54	-0.06310144
197	0xbdcd14ec	-0.10013756
198	0xbd18fcd1	-0.03735048
199	0xbdd8f2f3	-0.10593214

weight f4 [1, 50]
0	0x3e13926c	0.14411324
1	0xbd59a7c1	-0.0531385
2	0x3e000ccb	0.1250488
3	0x3a8bc577	0.0010663708
4	0xbd4f608a	-0.050629176
5	0x3c258984	0.010103587
6	0x3d3a0e8d	0.045424033
7	0x3e1167d0	0.14199758
8	0xbdb4c902	-0.08827402
9	0x3d31e4c6	0.043431066
10	0x3e0dac47	0.1383525
11	0xbdd5beed	-0.10436807
12	0xbdec98d8	-0.1155259
13	0xbdded25a	-0.10879965
14	0x3d65f31c	0.05614005
15	0xbd30a479	-0.043125603
16	0x3e0eec72	0.13957384
17	0xbd0fc588	-0.03510049
18	0xbd93e0f4	-0.07220641
19	0xbd0c5043	-0.03425623
20	0x3da63d25	0.08117131
21	0xbc691962	-0.014227243
22	0xbb99e3fb	-0.004696367
23	0xbd8bb192	-0.06820978
24	0xbb452851	-0.0030083845
25	0xbd81e56a	-0.063425854
26	0xbdf3e69d	-0.1190922
27	0xbd795c76	-0.060879193
28	0x3e03ef28	0.128842
29	0x3c422a1b	0.011850859
30	0xbdcf4693	-0.10120883
31	0x3d64ead6	0.05588802
32	0xbde147a4	-0.109999925
33	0xbbec575e	-0.0072125634
34	0x3da2dfe8	0.07952863
35	0x3dab0acc	0.08351669
36	0x3d631ef2	0.055449434
37	0x3d7611dc	0.060075626
38	0xbca8b9be	-0.020596381
39	0xbd5fdc4a	-0.054653443
40	0x3e1f86b9	0.15578736
41	0xbd59f535	-0.053212363
42	0xbd987ff1	-0.07446278
43	0x3d8f1393	0.06986155
44	0xbdcc8b92	-0.099875584
45	0x3dc7669a	0.097363666
46	0x3de46ba5	0.11153344
47	0xbd65e086	-0.056122325
48	0xbca2b651	-0.019862326
49	0xbdd11461	-0.10208965
