train_model_hourly/best_model_4.pth (torch, 127927 bytes, 9 tensors)

weight_ih_l0 f4 [200, 1]
-0.1563511 0.028049257 0.09590781 0.043375462 0.009181149 0.03450689 -0.086190425 -0.122460514
-0.047360323 0.02677705 0.04958519 -0.13374771 -0.15554528 0.055102315 -0.110405706 -0.19505572
-0.03568549 0.061402712 -0.032119703 0.02565129 -0.13805361 -0.13708034 -0.07383525 -0.03673021
-0.014245612 -0.20579362 0.035444535 -0.0026837524 0.03259793 -0.30115283 0.04245125 0.003044636
0.00016147191 -0.029590668 0.0037742371 -0.13584973 0.025669832 0.010504098 -0.050745707 -0.16381848
0.10653529 -0.08618038 -0.15613787 0.11526834 -0.089740686 -0.047457088 0.11875863 -0.017974326
0.06621351 -0.15158701 -0.1307083 -0.097284466 -0.13366623 -0.04521296 -0.10584385 -0.119020455
0.028672693 0.10850761 0.022113184 -0.08231897 -0.018733757 -0.1224573 -0.04683024 -0.073619284
-0.04687761 -0.14814824 -0.11379174 -0.15220425 0.008021385 0.061998058 -0.16354597 0.0845631
0.014007692 0.0041753384 -0.08948151 -0.19602787 0.08227076 -0.03814799 -0.08343709 -0.05126311
-0.09213295 -0.06313617 -0.020208968 -0.03223401 -0.1562345 -0.019596947 -0.12259994 -0.17671642
0.074586175 -0.067698576 0.06368782 -0.17793542 0.05906442 -0.12674436 -0.06835315 -0.010728389
-0.010298017 -0.08466166 0.06726754 -0.118836574 -0.07027967 0.11709875 -0.06826307 -0.014462847
-0.032414775 -0.12558559 -0.12461342 -0.065953545 -0.09615787 0.032800525 -0.068816215 0.14606744
-0.06025619 -0.00093022495 -0.07522955 -0.033796422 0.01566166 0.13659175 0.12611018 0.06271628
0.057929553 -0.12438542 -0.036303032 -0.028088855 0.07760587 0.16588609 0.06509589 -0.13435599
0.09284373 0.1616587 0.027194612 0.12945794 0.13962078 -0.060526524 -0.04563786 -0.14786622
0.09109315 0.12088037 -0.052121826 -0.09562714 0.11062631 0.114442736 0.014531538 -0.09393321
-0.10656422 -0.07231198 -0.016390558 0.08984468 0.09117984 -0.0673245 -0.08690234 0.10847796
0.09620925 -0.093469776 -0.098727755 -0.04552739 0.06886029 -0.001664259 -0.23408048 -0.1884474
-0.0016457302 -0.08710144 0.026134368 -0.13603681 0.057963062 -0.052353963 -0.016276116 -0.15296283
-0.113120124 -0.13762349 0.04333072 -0.12131798 0.05937748 -0.13241363 -0.06325865 -0.19394824
0.012395798 -0.00022719367 0.07041228 -0.1942933 0.075728856 0.09047475 -0.036087856 0.029534137
-0.14760087 -0.092183754 0.05496953 -0.19060911 -0.18401375 -0.097815454 -0.08781369 -0.09975704
-0.056966823 -0.056311883 0.028848244 -0.13380118 0.006595891 -0.053719264 0.021783486 -0.118064515
00000000: 811a 20be 8ec7 e53c 506b c43d 78aa 313d
00000010: 886c 163c 1957 0d3d 9b84 b0bd 94cc fabd
00000020: e6fc 41bd 8b5b db3c d719 4b3d 29f5 08be
00000030: 4347 1fbe f7b2 613d 631c e2bd b0bc 47be
00000040: f32a 12bd 6981 7b3d f38f 03bd a722 d23c
00000050: ed5d 0dbe ca5e 0cbe f036 97bd 6b72 16bd
00000060: 6d66 69bc 90bb 52be 4a2e 113d e5e1 2fbb
00000070: 6885 053d b430 9abe 5de1 2d3d 8488 473b
00000080: c950 2939 2168 f2bc 3159 773b 311c 0bbe
00000090: 8a49 d23c 6119 2c3c bbda 4fbd 08c0 27be
000000a0: 2d2f da3d 577f b0bd 9be2 1fbe cf11 ec3d
000000b0: f7c9 b7bd 5d62 42bd b937 f33d e53e 93bc
000000c0: f39a 873d a039 1bbe 66d8 05be 143d c7bd
000000d0: cddf 08be 3a31 39bd a9c4 d8bd ffc0 f3bd
000000e0: ffe2 ea3c 3d39 de3d b526 b53c d996 a8bd
000000f0: 8977 99bc e5ca fabd 11d1 3fbd b5c5 96bd
00000100: bd02 40bd 2cb4 17be a50b e9bd 6edb 1bbe
00000110: 216c 033c adf1 7d3d 9878 27be 6b2f ad3d
00000120: 8580 653c 47d1 883b 1542 b7bd 88bb 48be
00000130: 927d a83d 1141 1cbd 11e1 aabd 44f9 51bd
00000140: 33b0 bcbd 894d 81bd 478d a5bc cf07 04bd
00000150: f0fb 1fbe c789 a0bc ad15 fbbd 26f5 34be
00000160: a3c0 983d 8da5 8abd c36e 823d b434 36be
00000170: 89ed 713d 46c9 01be bcfc 8bbd 20c6 2fbc
00000180: 04b9 28bc 1863 adbd 90c3 893d 9760 f3bd
00000190: caee 8fbd 78d1 ef3d 82cd 8bbd 94f5 6cbc
000001a0: 5bc5 04bd 8299 00be 5235 ffbd a712 87bd
000001b0: 6bee c4bd d859 063d 84ef 8cbd b492 153e
000001c0: 32cf 76bd 57da 73ba f311 9abd 1e6e 0abd
000001d0: e24c 803c b5de 0b3e 0723 013e 6571 803d
000001e0: 8a47 6d3d c8bd febd 7db2 14bd 991a e6bc
000001f0: d4ef 9e3d 0bde 293e fe50 853d 9e94 09be
00000200: da24 be3d dc89 253e 3cc7 de3c 9f90 043e
00000210: c0f8 0e3e a9ea 77bd c4ee 3abd 3e6a 17be
00000220: 0c8f ba3d 2190 f73d b27d 55bd 29d8 c3bd
00000230: 0c90 e23d f460 ea3d b015 6e3c 0e60 c0bd
00000240: 573e dabd 4e18 94bd 7e45 86bc 7d00 b83d
00000250: 7fbc ba3d 6de1 89bd dbf9 b1bd b129 de3d
00000260: 5b09 c53d 156d bfbd c731 cabd ee7a 3abd
00000270: a006 8d3d 4423 daba cbb2 6fbe 5bf8 40be
00000280: 8bb5 d7ba 3d62 b2bd be17 d63c 3c4d 0bbe
00000290: ad6a 6d3d 1c71 56bd 7d55 85bc 4aa2 1cbe
000002a0: 86ab e7bd 2ced 0cbe 8e7b 313d 9075 f8bd
000002b0: cd35 733d 7097 07be c08d 81bd 5e9a 46be
000002c0: bf17 4b3c d63a 6eb9 5034 903d d3f4 46be
000002d0: bb17 9b3d d34a b93d dcd0 13bd 93f1 f13c
000002e0: af24 17be d6ca bcbd bb27 613d 092f 43be
000002f0: 1a6e 3cbe 7853 c8bd aad7 b3bd 6b4d ccbd
00000300: 0b56 69bd 4aa7 66bd 2753 ec3c 2d03 09be
00000310: 5822 d83b bb08 5cbd 4873 b23c cfcb f1bd

weight_hh_l0 f4 [200, 50]
0.17533982 0.05690287 0.03724824 0.045009613 -0.040320758 -0.0049039186 0.09950849 0.07618997
-0.015468671 -0.16683194 -0.016609343 0.0043453216 -0.098792456 -0.02797221 -0.029744806 0.11103227
-0.024648037 -0.031546284 -0.07835799 -0.031088335 -0.16214538 0.090864226 0.04035745 0.007314763
0.16375092 -0.11244346 0.1364865 -0.03893907 0.06460137 0.06864534 -0.124918215 0.063982956
0.09907147 -0.022857897 0.02143769 -0.008258825 0.0049439054 -0.07482786 -0.014369795 -0.009866206
0.048245896 -0.027329171 -0.07003925 0.0059359125 -0.040731076 -0.1006389 0.10408359 -0.06222454
0.02031098 0.12876616 0.11309912 0.0556534 0.041136447 0.06884984 -0.08417949 -0.09789225
0.12321939 0.06941811 -0.033684 -0.027940411 0.09942381 0.1618734 0.122250296 -0.16079979
0.005145564 -0.058669306 0.0011371741 0.063207336 -0.0678068 -0.10579554 -0.10289728 -0.16901271
0.050431926 0.14885336 0.08566757 0.03378256 -0.073450424 -0.09174542 0.015975602 -0.11661768
-0.010566236 0.07961565 -0.013982411 -0.06626346 0.010528737 -0.080622435 0.11132704 -0.15149991
-0.055274624 -0.0031877528 -0.13270505 0.00878441 -0.045696076 0.13232464 0.034934804 0.071394265
-0.020002166 0.019187286 -0.093713336 0.122096665 0.058882993 0.038321473 0.060187012 0.0376007
-0.027729988 -0.050898552 0.10677947 -0.13917091 0.04369927 -0.19176818 0.12513821 0.1137062
0.11878634 -0.09630513 -0.06404309 -0.0023756886 -0.022516249 0.021332357 0.024140403 0.02288126
-0.11865535 -0.07761797 0.034971494 0.10466044 0.121211566 0.014878043 -0.09715933 -0.086478405
-0.026457498 -0.031328756 0.07313035 -0.0745466 0.03286274 -0.17031844 0.17267475 -0.0010315974
0.12169827 -0.04147661 0.089634955 -0.028551588 0.09769054 -0.01334527 0.046273146 0.05594179
0.07471925 -0.06863317 -0.0024173444 0.011696146 -0.046735182 0.031849395 0.10384523 0.20377387
-0.04168596 -0.08062789 -0.08962239 -0.00849563 0.10180619 -0.0138953375 0.112557724 -0.15974323
0.019680843 -0.024823079 0.04624789 -0.019738853 0.16686487 0.046554733 0.03467904 -0.013743407
0.044941127 -0.10361549 -0.06285262 0.030033471 -0.051381372 -0.05650235 0.06321256 0.06665786
-0.05037998 0.1733278 -0.07817275 0.20608906 -0.07220503 -0.081226595 -0.19459559 0.07395704
0.09965995 0.050702445 0.20640612 -0.020412851 0.13143957 -0.041680515 0.030202007 -0.045301612
0.045672644 -0.009904069 -0.047141135 0.008945162 -0.08245864 -0.059217405 0.18633544 0.1808354
-0.008207884 -0.013378244 -0.03585266 -0.093103275 0.009459705 0.004877347 -0.07262897 -0.030777242
0.003022457 -0.055577654 0.016357483 0.056529976 0.13158056 -0.0842509 -0.004481758 -0.07077524
-0.16516383 -0.1508844 0.085753866 -0.063693665 0.033255775 -0.13710178 0.09030025 -0.07963364
-0.12156542 -0.090865 -0.0009155462 0.010589013 0.0011596157 0.12857838 0.018925186 -0.07056302
0.082933426 0.08608006 0.048027996 -0.015876284 0.16171792 -0.12769505 0.0705422 -0.04488285
-0.10422105 0.017732153 0.051688693 -0.035468668 -0.041823987 0.14004606 -0.13080262 -0.05537497
0.07086839 0.12846874 0.120098434 0.046575435 0.09242233 0.07921438 0.024702547 -0.033529155
00000000: 488c 333e fc12 693d 9c91 183d 005c 383d
00000010: 6127 25bd 0db1 a0bb 1bcb cb3d 7d09 9c3d
00000020: 4f70 7dbc fed5 2abe 5110 88bc 3363 8e3b
00000030: b353 cabd fa25 e5bc 61ab f3bc e364 e33d
00000040: aeea c9bc ad36 01bd 277a a0bd f7ac febc
00000050: 7009 26be 0617 ba3d da4d 253d aeb0 ef3b
00000060: 52ae 273e c248 e6bd 1ec3 0b3e 937e 1fbd
00000070: b94d 843d ee95 8c3d 1fd5 ffbd 7f09 833d
00000080: fce5 ca3d 7c40 bbbc 189e af3c 0650 07bc
00000090: 7c00 a23b 593f 99bd 4a6f 6bbc dea5 21bc
000000a0: 7d9d 453d 6de1 dfbc bd70 8fbd 0b82 c23b
000000b0: a1d5 26bd c51b cebd c729 d53d 29df 7ebd
000000c0: 3663 a63c 47db 033e 83a0 e73d d2f4 633d
000000d0: b17e 283d 2501 8d3d 4c66 acbd bb7b c8bd
000000e0: 735a fc3d 152b 8e3d 3cf8 09bd 4ae3 e4bc
000000f0: b69e cb3d 24c2 253e 5d5e fa3d b3a8 24be
00000100: 1f9c a83b 3a4f 70bd 3b0d 953a d972 813d
00000110: 4bde 8abd 55ab d8bd cfbb d2bd ab11 2dbe
00000120: b591 4e3d 046d 183e 7b72 af3d 955f 0a3d
00000130: 2d6d 96bd 06e5 bbbd 44df 823c 40d5 eebd
00000140: 021e 2dbc 880d a33d 7b16 65bc 23b5 87bd
00000150: b980 2c3c 601d a5bd 6eff e33d cb22 1bbe
00000160: a567 62bd 9ee9 50bb d5e3 07be 7cec 0f3c
00000170: cf2b 3bbd 1c80 073e cc17 0f3d 2837 923d
00000180: 95db a3bc a82e 9d3c c7ec bfbd d10d fa3d
00000190: 4b2f 713d faf6 1c3d a886 763d 3103 1a3d
000001a0: 002a e3bc 007b 50bd 32af da3d d282 0ebe
000001b0: 01fe 323d e15e 44be 3b24 003e ccde e83d
000001c0: 4146 f33d a03b c5bd 0629 83bd 71b1 1bbb
000001d0: ff73 b8bc 32c1 ae3c 18c2 c53c 7b71 bb3c
000001e0: 9301 f3bd 2cf6 9ebd 453e 0f3d 3658 d63d
000001f0: c53d f83d 09c3 733c 79fb c6bd 971b b1bd
00000200: 65bd d8bc 9552 00bd 5dc5 953d e3ab 98bd
00000210: 159b 063d f567 2ebe a6d1 303e aa36 87ba
00000220: f13c f93d 61e3 29bd 8892 b73d 05e5 e9bc
00000230: fa11 c83d 1fa6 5abc e988 3d3d 3823 653d
00000240: 6806 993d 8c8f 8cbd 4f6c 1ebb 31a1 3f3c
00000250: 646d 3fbd 8374 023d cfac d43d 19aa 503e
00000260: e6be 2abd 3c20 a5bd f28b b7bd 4131 0bbc
00000270: c47f d03d 45a9 63bc aa84 e63d bb93 23be
00000280: b839 a13c c559 cbbc 6d6e 3d3d 60b3 a1bc
00000290: a0de 2a3e 2db0 3e3d 9c0b 0e3d 072c 61bc
000002a0: 3014 383d 5c34 d4bd e0b8 80bd c108 f63c
000002b0: 4675 52bd 026f 67bd 9675 813d eb83 883d
000002c0: 3d5b 4ebd d87c 313e 0919 a0bd 0309 533e
000002d0: 3be0 93bd 215a a6bd 1144 47be ca76 973d
000002e0: 841a cc3d 5ead 4f3d 205c 533e da38 a7bc
000002f0: 1898 063e 30b9 2abd 336a f73c 2f8e 39bd
00000300: 3d13 3b3d ad44 22bc 1017 41bd bb8e 123c
00000310: 13e0 a8bd f38d 72bd b8ce 3e3e ea2c 393e
00000320: 5c7a 06bc 6c30 5bbc 3dda 12bd eeac bebd
00000330: e1fc 1a3c 27d2 9f3b 7fbe 94bd 8e20 fcbc
00000340: 6a14 463b 65a5 63bd 2100 863c fa8b 673d
00000350: 0ebd 063e bc8b acbd b6db 92bb 9cf2 90bd
00000360: b520 29be 7181 1abe b99f af3d d371 82bd
00000370: 3537 083d 6964 0cbe 56ef b83d f616 a3bd
00000380: 4af7 f8bd 6e17 babd 4401 70ba 8a7d 2d3c
00000390: 3ffe 973a 0daa 033e fe08 9b3c 5883 90bd
000003a0: 00d9 a93d be4a b03d 01b9 443d fb0e 82bc
000003b0: 6299 253e 7ec2 02be 6e78 903d 14d7 37bd
000003c0: d971 d5bd 0543 913c 86b7 533d 9847 11bd
000003d0: a14f 2bbd 3c68 0f3e 1ff1 05be ddd0 62bd
000003e0: 7223 913d 4f8d 033e 2bf6 f53d e2c5 3e3d
000003f0: eb47 bd3d 263b a23d ff5c ca3c de55 09bd

bias_ih_l0 f4 [200]
0.055616036 0.06935466 0.010473997 0.032147843 -0.12597932 -0.01769551 -0.00707955 0.083840564
-0.20845462 -0.04210871 0.117845975 -0.07271612 0.044260915 -0.023316605 0.0889714 -0.07312639
0.009097666 -0.12595823 -0.09368104 -0.15641439 0.017372841 -0.1404501 -0.16222037 -0.1281222
-0.28388804 0.018578844 0.041817214 0.06820311 -0.14810829 -0.06363123 0.02021764 -0.047043882
-0.03278609 0.009025273 -0.016057022 -0.19268535 0.0789402 -0.117956094 0.043097965 0.056669857
0.06554456 -0.073660746 0.095543616 0.11194355 -0.18133484 -0.21638188 -0.019207517 -0.08020034
-0.018369522 -0.055966206 -0.0418233 0.058946427 0.053923916 -0.012991182 0.025783712 -0.018554274
0.055321448 -0.086052194 -0.08742575 -0.049079664 -0.11073666 -0.045918956 0.051015604 -0.15809833
-0.090570115 -0.076274514 -0.00058618374 -0.12698999 0.08316082 0.049044885 0.040775888 0.07416968
-0.028121429 -0.018532163 -0.21598619 -0.100314125 0.10754238 -0.09181183 -0.04617113 -0.04660718
-0.13330208 0.011422027 -0.17813392 -0.14349872 -0.04411941 -0.029319182 -0.1229669 -0.052350406
0.016757555 0.07453259 -0.009784773 -0.039985776 -0.036628835 0.015588395 -0.22836019 -0.20010327
0.11544078 -0.007921803 0.0028789588 -0.054730304 -0.06323412 0.09241476 -0.043055996 -0.05165425
0.09084322 0.07870868 -0.1357747 0.059138916 0.113421954 -0.024384417 -0.002237831 -0.04170599
-0.03548238 -0.034761194 -0.08047027 -0.100817695 -0.13493915 0.14078486 -0.033379704 0.07382885
-0.06324244 0.041229103 0.11307067 -0.04779871 0.019079663 0.012870034 -0.1413297 0.114885
0.043174416 0.032266293 0.004248446 -0.08440537 0.119054355 -0.095866315 -0.024602901 -0.08126512
-0.10871865 0.028575871 0.0236428 0.06850329 -0.1239796 0.021720633 -0.10267324 -0.018717377
0.029392812 -0.004555601 0.10003881 -0.095234275 0.0016535046 -0.022249183 -0.08586187 -0.16084026
0.07935104 -0.10025533 -0.060086753 -0.047113787 0.1347695 -0.03846318 -0.023594772 -0.032370333
-0.045023363 -0.054695234 -7.650706e-05 -0.013440431 0.054032743 -0.16644652 0.036489047 -0.04951087
-0.14607972 0.031086082 -0.08462989 0.10105364 0.082566686 -0.00022547966 -0.31401813 0.04694986
-0.13858956 -0.14301048 -0.024096932 -0.2140499 -0.14928532 -0.14386566 -0.22788893 -0.18542938
-0.15441237 -0.11888302 0.02015907 0.015450682 -0.06875063 -0.18113804 -0.041952256 0.024764823
0.056547366 -0.13108943 -0.06755971 -0.18597077 -0.10457371 -0.064183325 0.06102308 -0.09074838
00000000: a4cd 633d d109 8e3d 219b 2b3c 75ad 033d
00000010: b900 01be 2df6 90bc 92fb e7bb 9ab4 ab3d
00000020: 2175 55be 2f7a 2cbd 3b59 f13d 30ec 94bd
00000030: ef4a 353d 7702 bfbc a336 b63d 4ac3 95bd
00000040: 600e 153c 32fb 00be d8db bfbd 182b 20be
00000050: 7d51 8e3c 27d2 0fbe 191d 26be 7732 03be
00000060: c659 91be a932 983c 8748 2b3d 12ae 8b3d
00000070: b3a9 17be 1751 82bd 779f a53c 16b1 40bd
00000080: b54a 06bd bdde 133c 048a 83bc 4f4f 45be
00000090: 66ab a13d f792 f1bd 7e87 303d a71e 683d
000000a0: 3a3c 863d 72db 96bd 5fac c33d a942 e53d
000000b0: d7af 39be 3693 5dbe 1559 9dbc 1340 a4bd
000000c0: ae7b 96bc d23c 65bd e94e 2bbd cf71 713d
000000d0: 53df 5c3d f7d8 54bc 5d38 d33c 22ff 97bc
000000e0: be98 623d 223c b0bd 460c b3bd c207 49bd
000000f0: e7c9 e2bd 8415 3cbd bdf5 503d 87e4 21be
00000100: d37c b9bd d035 9cbd 20aa 19ba aa09 02be
00000110: 3850 aa3d 4ae3 483d 9e04 273d 46e6 973d
00000120: e95e e6bc c3d0 97bc 7c2b 5dbe 7e71 cdbd
00000130: 2e3f dc3d d707 bcbd f01d 3dbd 2ce7 3ebd
00000140: 5780 08be 7423 3b3c bd68 36be 54f1 12be
00000150: 8eb6 34bd c82e f0bc 12d6 fbbd 616d 56bd
00000160: 2447 893c 8ba4 983d 5050 20bc 20c8 23bd
00000170: 1e08 16bd 7866 7f3c 41d7 69be dfe7 4cbe
00000180: 376c ec3d 73ca 01bc eaac 3c3b e22c 60bd
00000190: e480 81bd f343 bd3d 7c5b 30bd 6893 53bd
000001a0: 030c ba3d 0432 a13d 8608 0bbe a63b 723d
000001b0: c549 e83d d4c1 c7bc 93a8 12bb e6d3 2abd
000001c0: f955 11bd c161 0ebd 99cd a4bd 8279 cebd
000001d0: 7d2d 0abe e829 103e 28b9 08bd 9533 973d
000001e0: 4185 81bd d9df 283d 9891 e73d 95c8 43bd
000001f0: f44c 9c3c d6dc 523c bcb8 10be d448 eb3d
00000200: a8d7 303d a929 043d 8c36 8b3b b9dc acbd
00000210: c5d2 f33d 8f55 c4bd 068c c9bc 546e a6bd
00000220: e2a7 debd f217 ea3c 8cae c13c 744b 8c3d
00000230: 04e9 fdbd 78ef b13c 5946 d2bd 2f55 99bc
00000240: 32c9 f03c 2747 95bb 26e1 cc3d 300a c3bd
00000250: 68ba d83a eb43 b6bc 59d8 afbd 4fb3 24be
00000260: cc82 a23d ab52 cdbd 871d 76bd 63fa 40bd
00000270: 0401 0a3e 918b 1dbd d349 c1bc c196 04bd
00000280: 6b6a 38bd 1c08 60bd 6a72 a0b8 4135 5cbc
00000290: 7051 5d3d f570 2abe 8a75 153d e9cb 4abd
000002a0: ec95 15be 3da8 fe3c 7052 adbd 36f5 ce3d
000002b0: b918 a93d bc6e 6cb9 fcc6 a0be 7f4e 403d
000002c0: 6cea 0dbe 5771 12be ee66 c5bc e62f 5bbe
000002d0: 40de 18be 8551 13be b75b 69be 33e1 3dbe
000002e0: 471e 1ebe f178 f3bd a224 a53c db24 7d3c
000002f0: 21cd 8cbd 407c 39be 21d6 2bbd 99df ca3c
00000300: 369e 673d 4f3c 06be bf5c 8abd 1f6f 3ebe
00000310: be2a d6bd 8c72 83bd 56f3 793d 49da b9bd

bias_hh_l0 f4 [200]
-0.14188993 0.00918435 0.03204356 -0.07069154 -0.022955168 0.09351209 -0.045118015 0.063490026
-0.16606657 -0.21255814 -0.02082876 -0.006854604 0.00751107 0.029326146 -0.11761594 -0.16380301
-0.16423635 -0.096264444 0.016329983 -0.14412867 -0.07667032 0.025357971 -0.06555036 0.029633401
-0.13287534 -0.064531244 0.0938119 0.08936686 0.10569387 0.0077891196 -0.042948965 -0.13126771
0.03248821 -0.036360618 -0.22102587 -0.24585831 0.06936528 -0.18786024 -0.20883746 0.03528668
-0.038326606 -0.07841333 0.107737504 -0.08676361 -0.029134646 -0.18524401 0.111378916 -0.09790735
0.0022575362 0.0072881663 0.0829203 -0.14261694 -0.1551398 0.020122344 0.06283092 -0.052555736
-0.13333435 -0.13822246 -0.12201593 -0.012934804 -0.06351267 -0.044763155 -0.08808983 -0.044013612
0.05193377 -0.11631485 0.095636725 -0.12657246 -0.0582711 -0.17573926 -0.20086023 -0.14510487
-0.13557418 -0.034625497 -0.14715536 -0.064835556 0.026151318 0.10198431 0.018387621 -0.0062918854
-0.102984 -0.10228412 -0.14677282 -0.18113132 -0.22421838 -0.10258974 -0.15050705 -0.15605997
0.04951591 -0.062215477 0.039355755 -0.10650747 -0.079523854 0.00016206631 -0.25614014 0.025599863
-0.1109656 -0.102771305 -0.031166784 -0.058726046 0.08335396 -0.124769025 -0.089195214 0.072050475
0.02179482 0.04531074 -0.04292947 0.08154636 -0.08462731 0.04512375 -0.12611158 -0.005741963
-0.020189187 0.0029628058 0.048355836 0.042690784 0.0716859 0.0069181537 0.034207538 0.045962933
0.03598979 0.031025603 -0.1067047 -0.067442626 0.07558469 -0.031005839 0.094029054 -0.07833656
-0.029881442 -0.035961363 -0.0049348176 0.059092116 -0.099210665 0.06343217 0.1050764 0.03669626
-0.02191571 -0.041595858 0.059471376 0.05071147 0.12542489 -0.016252885 -0.12812784 -0.05047745
-0.08786056 -0.0025237836 -0.057036154 -0.048525583 -0.052243806 -0.11058405 -0.048831727 0.049208384
0.009260374 0.010821769 0.055904374 -0.14788172 -0.075047836 0.100468434 -0.23926601 -0.074588545
0.062182546 -0.011687654 0.088898435 -0.14949308 0.008766064 -0.060877122 -0.08397313 0.057231944
-0.032304075 0.08231818 -0.21490619 -0.079331174 -0.06450466 0.012654723 -0.08670714 -0.17758735
0.0780573 -0.019995209 -0.13475333 -0.16771685 -0.09901652 -0.077007174 -0.15431216 0.011317426
-0.1577368 -0.24959286 -0.07842114 0.019651992 -0.18803772 -0.010091187 -0.031167256 -0.029783314
0.06691703 -0.098492414 -0.055457857 -0.13931121 -0.15101698 -0.09157839 0.078508236 0.091474436
00000000: 984b 11be f579 163c 1c40 033d bac6 90bd
00000010: 7a0c bcbc 4483 bf3d abcd 38bd 0f07 823d
00000020: 5b0d 2abe d7a8 59be 13a1 aabc 969c e0bb
00000030: 6c1f f63b 633d f03c a0e0 f0bd fabb 27be
00000040: 932d 28be 4b26 c5bd 75c6 853c 7796 13be
00000050: 5405 9dbd 85bb cf3c 443f 86bd bfc1 f23c
00000060: 7910 08be f528 84bd 7420 c03d f905 b73d
00000070: 0776 d83d df3b ff3b 41eb 2fbd 0b6b 06be
00000080: 5b12 053d dfee 14bd 9b54 62be 48c2 7bbe
00000090: 620f 8e3d 6f5e 40be 7dd9 55be c488 103d
000000a0: 5cfc 1cbd 2b97 a0bd 7ba5 dc3d 1fb1 b1bd
000000b0: c8ab eebc 9bb0 3dbe a11a e43d a683 c8bd
000000c0: 2cf3 133b 92d1 ee3b 1ed2 a93d 2d0a 12be
000000d0: f8dc 1ebe 9dd7 a43c 7fad 803d af44 57bd
000000e0: cd88 08be 308a 0dbe 7de3 f9bd 80ec 53bc
000000f0: ee12 82bd 9259 37bd 7168 b4bd 9e47 34bd
00000100: 81b8 543d 7b36 eebd 30dd c33d 369c 01be
00000110: adad 6ebd fef4 33be 4eae 4dbe 5f96 14be
00000120: f5d3 0abe 77d3 0dbd e5af 16be 81c8 84bd
00000130: 4a3b d63c 26dd d03d a3a1 963c 292c cebb
00000140: 47e9 d2bd 567a d1bd 9d4b 16be 7d7a 39be
00000150: 8199 65be 921a d2bd 851e 1abe 2fce 1fbe
00000160: 32d1 4a3d a8d5 7ebd 8033 213d 9720 dabd
00000170: 67dd a2bd 58f0 2939 cd24 83be ceb6 d13c
00000180: ef41 e3bd c379 d2bd 7c51 ffbc b98a 70bd
00000190: 7bb5 aa3d e786 ffbd fbab b6bd 338f 933d
000001a0: 0d8b b23c c197 393d d0d6 2fbd c701 a73d
000001b0: 1551 adbd aed3 383d 6523 01be 1427 bcbb
000001c0: cb63 a5bc a22b 423b c510 463d 88dc 2e3d
000001d0: 0fd0 923d aeb1 e23b 341d 0c3d a143 3c3d
000001e0: 086a 133d 6829 fe3c fe87 dabd 5c1f 8abd
000001f0: 25cc 9a3d f5ff fdbc 4e92 c03d eb6e a0bd
00000200: edc9 f4bc 394c 13bd 40b4 a1bb 930a 723d
00000210: f62e cbbd bae8 813d 4c32 d73d d14e 163d
00000220: 9388 b3bc 6b60 2abd 4298 733d d5b6 4f3d
00000230: 626f 003e c524 85bc f233 03be 71c1 4ebd
00000240: 3df0 b3bd 1066 25bb be9e 69bd c3c2 46bd
00000250: 9afd 55bd e479 e2bd c703 48bd bb8e 493d
00000260: d3b8 173c ca4d 313c fcfb 643d 4e6e 17be
00000270: aeb2 99bd 65c2 cd3d 2602 75be e1c1 98bd
00000280: 20b3 7e3d 937d 3fbc 6210 b63d b714 19be
00000290: 8a9f 0f3c 4a5a 79bd 1bfa abbd 0b6c 6a3d
000002a0: 4751 04bd 6f96 a83d 5e10 5cbe 6278 a2bd
000002b0: 051b 84bd c155 4f3c 8393 b1bd 75d9 35be
000002c0: 81dc 9f3d fecc a3bc c7fc 09be f7bd 2bbe
000002d0: 2cc9 cabd f0b5 9dbd 0204 1ebe ba6c 393c
000002e0: c185 21be 4595 7fbe 439b a0bd 37fd a03c
000002f0: f68c 40be 8255 25bc 7952 ffbc 23fc f3bc
00000300: cc0b 893d 64b6 c9bd c727 63bd 99a7 0ebe
00000310: 32a4 1abe 738d bbbd edc8 a03d f356 bb3d

weight_ih_l1 f4 [200, 50]
0.18426347 0.023226583 -0.0325075 -0.1381459 -0.081831604 0.009422645 0.23060553 -0.038871672
-0.11768298 0.14104709 0.13623448 -0.0025057727 0.09801215 0.12432967 0.08383479 -0.06553082
-0.070244215 -0.1660724 -0.09146944 -0.11173659 0.034967773 -0.1065738 0.012301568 0.16155641
0.08183766 0.026284283 -0.04665523 0.09367826 -0.06635187 -0.053033885 0.0517333 -0.113130376
-0.07227682 0.0062755 -0.12245335 0.0028926448 0.14378901 0.029768469 -0.0442188 0.05773486
-0.065964326 -0.086238265 0.1702192 0.07819859 0.059743423 0.04397218 -0.16557668 -0.067698576
0.060591996 0.14051552 -0.12765697 -0.108954266 0.057295375 0.1332015 0.128218 0.0015094017
0.09390776 0.07467372 -0.02681063 0.04855302 -0.008841007 0.010862906 0.028890347 -0.04542942
0.018542849 -0.07212585 -0.11979008 -0.119711585 -0.019632041 0.1492102 -0.07747262 0.09010317
0.113684386 0.06439909 0.07730967 -0.065925635 0.050107926 -0.063601516 0.12363957 -0.10260818
-0.060075287 0.025835918 0.049705848 -0.018054074 -0.029699083 0.098498665 0.06147064 -0.19106619
0.0153466165 0.10786266 0.051804304 0.0915254 -0.071047164 0.051837318 -0.12799166 0.014544956
0.08304194 0.10472355 0.12288337 0.14283897 0.073040955 0.020314058 0.18827994 -0.20783305
-0.09454684 -0.041723598 -0.051736414 -0.15471095 -0.15179671 0.11917531 0.16847418 0.10052826
0.05119634 0.0010612038 0.16093628 -0.14808169 -0.18071882 0.00535324 -0.20689428 -0.14186458
-0.02377256 -0.16599634 -0.05121838 0.10741414 0.063111596 0.039995275 0.034126103 0.20301794
-0.21811771 0.0661168 0.0022197852 -0.049319226 0.073713385 -0.022006791 0.034512565 -0.07243046
-0.04025226 -0.01813658 -0.11183221 -0.13588212 0.022147037 0.10167421 0.22600867 0.17379397
0.09819554 0.14534234 -0.046878673 -0.056035057 0.17642085 -0.049498446 0.054857146 -0.042281725
0.08541736 0.09072272 0.015522766 0.047783148 -0.11965801 -0.017603246 -0.06478397 -0.020111982
-0.075404555 -0.06703867 0.01704375 -0.018934311 0.030300546 -0.04423544 -0.1278886 -0.087081574
-0.051994298 0.100924745 -0.102092214 0.028554328 0.12111077 0.042699493 0.038792 -0.068840295
-0.1255194 0.07306417 0.11223377 0.050553575 -0.102788754 -0.15207101 -0.03452482 0.027376935
0.17332727 -0.082095824 -0.034985315 0.07838979 0.1790372 -0.0599361 0.11073133 -0.06815248
-0.088614315 0.007982398 -0.007493578 0.004529836 -0.12292014 -0.028094329 0.10140367 0.022983858
-0.010399325 -0.020776374 0.062301587 0.0567351 0.021285556 -0.066062875 0.19971693 -0.12427211
-0.09307732 -0.0017549408 0.017872812 0.096712366 0.012395453 0.012449584 0.04422677 -0.19397317
0.025988314 -0.17045194 -0.098264076 -0.20770152 -0.011672533 -0.13603213 -0.10793324 0.20773762
-0.061708566 0.03966177 0.089903764 0.124302335 0.017676031 0.07519604 -0.17311321 -0.21487401
0.04149835 0.021062322 -0.08026451 0.1457096 0.040626403 -0.0060332087 -0.060855396 -0.03152766
-0.06187113 0.18075773 0.20294583 0.10412508 0.006245795 0.15980868 0.009610044 0.0269635
0.1647737 0.08329245 0.121176936 -0.08089101 -0.012938565 -0.030810015 -0.07050873 -0.14591211
00000000: 90af 3c3e ad45 be3c 9626 05bd 1e76 0dbe
00000010: 5497 a7bd 7061 1a3c db23 6c3e e737 1fbd
00000020: c603 f1bd a66e 103e 0d81 0b3e e437 24bb
00000030: 98ba c83d 8ea0 fe3d 93b1 ab3d 0635 86bd
00000040: 33dc 8fbd e20e 2abe 5454 bbbd 27d6 e4bd
00000050: 5e3a 0f3d 5d43 dabd 848c 493c 0b6f 253e
00000060: 819a a73d 2352 d73c 8e19 3fbd 63da bf3d
00000070: 7de3 87bd 0f3a 59bd 4ce6 533d e6b0 e7bd
00000080: df05 94bd b6a2 cd3b d2c8 fabd 8792 3d3b
00000090: 6d3d 133e 01dd f33c c61e 35bd 637b 6c3d
000000a0: 4e18 87bd b09d b0bd f14d 2e3e 9526 a03d
000000b0: 85b5 743d 2c1c 343d ef8c 29be 8da5 8abd
000000c0: 502f 783d 4de3 0f3e 82b8 02be 6a23 dfbd
000000d0: 8eae 6a3d f965 083e 944b 033e 1ed7 c53a
000000e0: b652 c03d 89ee 983d f7a1 dbbc 88df 463d
000000f0: dfd9 10bc 55fa 313c 73ab ec3c 3314 3abd
00000100: 2ce7 973c b8b6 93bd 8054 f5bd 592b f5bd
00000110: 60d3 a0bc 8fca 183e f7a9 9ebd 0388 b83d
00000120: 5cd3 e83d ace3 833d 8854 9e3d 0504 87bd
00000130: f83d 4d3d 8341 82bd be36 fd3d 3d24 d2bd
00000140: 8111 76bd d9a5 d33c 5c98 4b3d 23e6 93bc
00000150: 7e4b f3bc abb9 c93d a3c8 7b3d dba6 43be
00000160: 6070 7b3c 19e7 dc3d c030 543d ab71 bb3d
00000170: 2d81 91bd 5e53 543d 3f10 03be f84d 6e3c
00000180: e511 aa3d 4d79 d63d 47aa fb3d 6144 123e
00000190: 7f96 953d ab69 a63c 75cc 403e 30d2 54be
000001a0: c6a1 c1bd 5de6 2abd 90e9 53bd 8c6c 1ebe
000001b0: 9970 1bbe 2f12 f43d 7f84 2c3e c3e1 cd3d
000001c0: 41b3 513d 1718 8b3a 7bcc 243e baa2 17be
000001d0: 5b0e 39be 3b6a af3b 18dc 53be f344 11be
000001e0: acbe c2bc f2fa 29be 5dca 51bd f2fb db3d
000001f0: a740 813d 16d2 233d d0c7 0b3d efe3 4f3e
00000200: 405a 5fbe 3f68 873d d179 113b f502 4abd
00000210: 0bf7 963d 9647 b4bc 0c5d 0d3d 6c56 94bd
00000220: 8edf 24bd 2a93 94bc 4908 e5bd af24 0bbe
00000230: b46d b53c 913a d03d d16e 673e 0cf7 313e
00000240: be1a c93d 9fd4 143e da03 40bd 0485 65bd
00000250: aba7 343e e2be 4abd e3b1 603d 9a2f 2dbd
00000260: 4cef ae3d d5cc b93d 3353 7e3c 43b8 433d
00000270: 420f f5bd af34 90bc 75ad 84bd e2c1 a4bc
00000280: b46d 9abd 924b 89bd 569f 8b3c 211c 9bbc
00000290: da38 f83c 3930 35bd 3bf5 02be d357 b2bd
000002a0: f9f7 54bd a2b1 ce3d b915 d1bd c4ea e93c
000002b0: ec08 f83d aae5 2e3d 5ce4 1e3d 24fc 8cbd
000002c0: 2888 00be aba2 953d d2da e53d 4411 4f3d
000002d0: e982 d2bd 81b8 1bbe e669 0dbd 9845 e03c
000002e0: b47c 313e db21 a8bd c34c 0fbd d48a a03d
000002f0: 8755 373e 8e7f 75bd 1cc7 e23d 8793 8bbd
00000300: 6c7b b5bd 9bc8 023c b08c f5bb 056f 943b
00000310: 8ebd fbbd 1426 e6bc baac cf3d a548 bc3c
00000320: ee61 2abc 3733 aabc f32f 7f3d 1063 683d
00000330: 0c5f ae3c f94b 87bd 9882 4c3e 6082 febd
00000340: 529f bebd 0b06 e6ba 016a 923c 2211 c63d
00000350: 4c16 4b3c 57f9 4b3c 2127 353d e7a0 46be
00000360: 72e5 d43c f48a 2ebe ad3e c9bd b5af 54be
00000370: 273e 3fbc 024c 0bbe 1a0c ddbd 2cb9 543e
00000380: 1fc2 7cbd 6174 223d 771f b83d 3992 fe3d
00000390: 53cd 903c 6200 9a3d 9744 31be ef07 5cbe
000003a0: 2dfa 293d e48a ac3c b861 a4bd e634 153e
000003b0: df67 263d 39b2 c5bb 8243 79bd 2623 01bd
000003c0: 956c 7dbd 8e18 393e 08d1 4f3e 883f d53d
000003d0: 87a9 cc3b e3a4 233e 7273 1d3c 8fe2 dc3c
000003e0: 70ba 283e 3b95 aa3d 9d2b f83d 30aa a5bd
000003f0: 46fc 53bc 4965 fcbc e266 90bd fc69 15be

weight_hh_l1 f4 [200, 50]
-0.05344942 -0.02270992 -0.061028406 -0.17152126 -0.06952067 0.016794667 -0.23325834 0.0015550343
-0.15390715 0.10074675 0.17700472 0.14426076 0.16421752 0.13047358 0.03405912 0.098991185
-0.12792332 0.17954224 -0.091965 -0.0788803 -0.0067092176 -0.03183098 0.116152056 0.040363036
-0.08660449 0.085561715 -0.0130057745 0.08595547 0.08922239 -0.025780946 0.16013572 -0.22747467
0.0034212195 0.07577676 0.108756974 -0.020639274 0.04404063 -0.17660174 0.1350237 0.093483925
0.014267746 0.12738243 0.18934084 0.13290404 -0.14441383 0.20682947 -0.0039861933 -0.16726986
-0.0018270632 0.032087177 0.00078953954 -0.11441011 -0.096932106 -0.0998543 -0.06134132 -0.07102202
-0.1535315 -0.08859887 -0.08870451 0.11677655 -0.03464044 0.0121559845 -0.042159397 0.021323923
-0.05842674 -0.09574453 -0.093127795 0.06327193 -0.1415518 0.052413095 0.09696194 0.08440817
-0.053111646 -0.08079191 0.048050385 0.10908338 -0.07340979 0.017755965 -0.19856827 -0.12528709
0.076556906 -0.052716732 -0.06291266 -0.0031186198 0.10413212 0.08916543 -0.089568555 -0.061050527
-0.07735362 -0.13248274 0.15966596 -0.097022474 -0.03923259 0.14675966 0.16749774 -0.020754037
-0.15171222 -0.09033891 -0.18645316 -0.04064007 0.006357549 0.025777338 -0.03635442 -0.06816652
-0.14992183 0.15132846 -0.2136937 -0.014195699 -0.13476504 -0.05583702 -0.0092301145 -0.03876667
-0.006962397 -0.13454004 -0.03351832 0.059763663 0.025893455 0.097478434 -0.19640395 0.15983212
-0.20263192 -0.019026108 0.14806294 0.08648859 -0.20547715 0.16033155 0.1464727 -0.070422865
-0.009491354 0.03083379 0.12882112 -0.0029232374 -0.013215619 -0.053307533 0.054442193 -0.10907251
0.14458424 -0.044951838 0.16997407 0.1625008 0.19800417 0.03978706 0.00763639 0.077249624
-0.15968286 0.0465827 -0.11207092 -0.18225092 0.16238192 -0.13790616 0.031825762 -0.08311919
-0.17213286 -0.030666087 0.037466265 -0.075450756 0.013816011 -0.119127825 0.08752406 0.08203606
0.08166705 -0.06654765 -0.008738454 -0.033279672 -0.16750588 0.067053 0.08954253 0.011599103
0.06664276 0.021571329 -0.13300607 -0.09386848 0.01888328 -0.089531004 -0.13429643 0.002194749
-0.079909354 0.149113 0.046086 -0.028182147 -0.14847821 -0.11527273 -0.09346978 -0.15448935
-0.111763604 -0.10997474 -0.10435697 -0.025711304 0.0040266733 0.10550231 0.026503 -0.064822935
-0.013667063 -0.069163516 0.025983216 -0.05195506 -0.16447836 0.10455846 0.069148734 0.038135663
-0.14292364 -0.1656655 0.06631556 -0.0538134 0.081268474 0.1379106 -0.15545923 -0.0023802377
0.055566628 0.2137097 0.119984366 0.10917091 0.097055025 0.09185594 -0.082344085 -0.066272795
-0.009259282 0.17918754 -0.04711764 0.00023969913 -3.262456e-05 -0.14373042 0.008722064 0.20243962
-0.014001737 0.15601093 -0.03168639 -0.057953574 0.048530553 0.13824384 0.1825133 -0.20757873
0.19151095 0.06166718 0.04359003 -0.13959324 0.10522496 -0.11480177 0.06806572 -0.06686846
0.1832444 -0.11980749 -0.04437464 0.08002382 -0.14256293 0.06542423 0.018658746 -0.1535118
0.010854243 0.038890753 -0.03240711 -0.08167179 -0.16782923 -0.038893078 0.10651032 0.15677856
00000000: c7ed 5abd 270a babc ecf8 79bd 45a3 2fbe
00000010: da60 8ebd f894 893c 46db 6ebe 4bd2 cb3a
00000020: d699 1dbe 5054 ce3d ba40 353e 18b9 133e
00000030: a328 283e de9a 053e 9381 0b3d e4bb ca3d
00000040: 55fe 02be ecd9 373e 2558 bcbd ff8b a1bd
00000050: ffd8 dbbb 3461 02bd 21e1 ed3d b653 253d
00000060: b25d b1bd fb3a af3d 2c16 55bc 6c09 b03d
00000070: 3aba b63d 9032 d3bc 9efa 233e 1fef 68be
00000080: 8a36 603b d930 9b3d fabb de3d b213 a9bc
00000090: f363 343d 16d7 34be a743 0a3e 8074 bf3d
000000a0: 44c3 693c 8a70 023e 91e2 413e ff17 083e
000000b0: 38e1 13be 1bcb 533e 9d9e 82bb ca48 2bbe
000000c0: 117a efba d86d 033d 1af9 4e3a d94f eabd
000000d0: 5784 c6bd 6980 ccbd 0941 7bbd fe73 91bd
000000e0: 5d37 1dbe 5373 b5bd b6aa b5bd 8b28 ef3d
000000f0: 22e3 0dbd e529 473c 55af 2cbd 82af ae3c
00000100: e150 6fbd b515 c4bd c9b9 bebd b794 813d
00000110: f4f2 10be 1daf 563d fb93 c63d 31de ac3d
00000120: 998b 59bd 3b76 a5bd 7bd0 443d 1b67 df3d
00000130: df57 96bd f574 913c 7b55 4bbe 424b 00be
00000140: dec9 9c3d 80ed 57bd 5ad8 80bd c261 4cbb
00000150: 3943 d53d 5d9c b63d b86f b7bd 1e10 7abd
00000160: 936b 9ebd 8ea9 07be 797f 233e b8b3 c6bd
00000170: 5ab2 20bd 2a48 163e 8784 2b3e 5f04 aabc
00000180: 735a 1bbe 9b03 b9bd 94ed 3ebe 3476 26bd
00000190: fd52 d03b ff2a d33c 5fe8 14bd e39a 8bbd
000001a0: 1c85 19be d9f5 1a3e 85d2 5abe 1495 68bc
000001b0: d9ff 09be 5cb5 64bd e839 17bc cdc9 1ebd
000001c0: d224 e4bb ddc4 09be 824a 09bd beca 743d
000001d0: 831e d43c c6a2 c73d 1e1e 49be 08ab 233e
000001e0: be7e 4fbe a4dc 9bbc d09d 173e ee20 b13d
000001f0: 9a68 52be f42d 243e f1fc 153e dd39 90bd
00000200: a081 1bbc 2597 fc3c afe9 033e c993 3fbb
00000210: 5386 58bc 0059 5abd c7fe 5e3d 6861 dfbd
00000220: e40d 143e 6b1f 38bd af0d 2e3e 9c66 263e
00000230: 9bc1 4a3e c2f7 223d af3a fa3b 0d35 9e3d
00000240: e783 23be 80cd 3e3d 7085 e5bd fc9f 3abe
00000250: 7247 263e 4637 0dbe bb5b 023d 653a aabd
00000260: 9943 30be 7237 fbbc 3a76 193d ed85 9abd
00000270: 8d5c 623c 4af9 f3bd d03f b33d 8602 a83d
00000280: 0e41 a73d 224a 88bd bc2b 0fbc 4450 08bd
00000290: a986 2bbe 1553 893d 1362 b73d 2a0a 3e3c
000002a0: 007c 883d 5bb6 b03c be32 08be 1e3e c0bd
000002b0: 1cb1 9a3c 085c b7bd 0185 09be c7d5 0f3b
000002c0: 84a7 a3bd 14b1 183e acc4 3c3d 3fde e6bc
000002d0: ac0a 18be 1c14 ecbd 166d bfbd 7532 1ebe
000002e0: 51e4 e4bd 703a e1bd 1bb9 d5bd 83a0 d2bc
000002f0: 2ff2 833b 9811 d83d d21c d93c e3c1 84bd
00000300: d1eb 5fbc 9aa5 8dbd c1da d43c d4ce 54bd
00000310: 046d 28be bf22 d63d da9d 8d3d 2434 1c3d
00000320: 935a 12be 38a4 29be 74d0 873d 716b 5cbd
00000330: 1670 a63d 7038 0d3e b430 1fbe c3fd 1bbb
00000340: d599 633d b7d6 5a3e 5dba f53d 0095 df3d
00000350: c9c4 c63d f81e bc3d 04a4 a8bd 08ba 87bd
00000360: 3eb4 17bc f07c 373e 6dfe 40bd bf57 7b39
00000370: 5bd6 08b8 112e 13be fde6 0e3c 554c 4f3e
00000380: 8b67 65bc 54c1 1f3e 97c9 01bd ba60 6dbd
00000390: f9c7 463d cb8f 0d3e c4e4 3a3e 858f 54be
000003a0: 721b 443e ba96 7c3d 768b 323d 88f1 0ebe
000003b0: 2f80 d73d 311d ebbd 0a66 8b3d 55f2 88bd
000003c0: 6ca4 3b3e a15d f5bd 2fc2 35bd 87e3 a33d
000003d0: 04fc 11be 24fd 853d 3ada 983c 3332 1dbe
000003e0: ffd5 313c e94b 1f3d 51bd 04bd 8a43 a7bd
000003f0: 6ddb 2bbe 594e 1fbd 1522 da3d 8f8a 203e

bias_ih_l1 f4 [200]
0.045758944 -0.08678625 -0.2230397 -0.048986528 -0.12596862 0.07612217 -0.1164574 -0.13874087
-0.045389824 -0.010174985 -0.10016741 -0.053771753 0.037251905 -0.19804047 -0.1996936 -0.0046192287
-0.19889088 0.11858578 -0.060604475 -0.056736097 -0.006400475 -0.026082711 -0.083970696 -0.115034446
-0.0026582682 -0.049653526 -0.07061945 0.0053335 -0.056805562 -0.19145481 -0.18133254 0.0308637
0.12735501 -0.12907496 0.010352924 0.13753068 -0.023966188 -0.02174929 -0.11973754 -0.046013918
-0.013681702 -0.1953469 0.16023725 -0.0465089 -0.00888701 0.027339987 0.08384246 -0.10690356
0.0731598 0.09662338 -0.20701367 0.06913742 -0.10443267 -0.023660904 -0.052391768 -0.110547684
0.10532874 -0.02448134 0.12592298 -0.19084623 0.034376204 -0.113371596 -0.12292518 -0.1807442
-0.09219919 -0.12263677 -0.24577512 0.12817101 -0.0071899793 -0.013164754 0.060668804 0.08887965
-0.12788868 -0.027236499 -0.011535662 0.10696966 -0.0822201 -0.11133057 -0.019252216 -0.2077426
0.045725722 0.026092133 -0.06663353 0.003558167 -0.14362854 0.10380242 0.07247618 0.013531268
0.00826101 -0.16527012 -0.116091266 -0.24104603 0.1496404 -0.009434005 -0.1708481 0.0531973
-0.061426148 -0.075973906 -0.200207 0.13416803 0.114180654 0.20750706 -0.046736196 0.1338765
-0.00886941 -0.06829226 0.01003924 0.16867524 0.1836345 -0.029060718 0.035722986 -0.1781127
-0.116135314 -0.0937472 -0.031110728 0.07412861 -0.055983666 -0.037941527 0.104138985 0.057459265
-0.0361224 0.073114045 -0.15845315 -0.14639935 0.18758309 -0.090912394 -0.06667493 -0.09523031
-0.05909223 0.059993997 -0.09417864 0.15876612 -0.16244888 -0.06313073 0.030974278 0.051764544
-0.15731001 0.044589568 -0.06036298 -0.06618823 -0.13404079 0.014745241 -0.047744222 -0.1498277
-0.06636036 -0.15739343 0.08803708 0.060918193 0.09790364 0.16587617 -0.22645752 -0.09449004
-0.10245038 -0.027175229 -0.12297152 0.01368459 0.103990056 0.0566968 -0.024396446 0.058297943
0.009370578 -0.052574124 -0.0761058 -0.17079687 -0.2024124 -0.12484807 -0.3085133 0.06710414
0.0047689057 -0.124883346 0.12828058 -0.08880644 -0.108034536 -0.0014863649 -0.14660844 0.13536313
-0.008804822 -0.12911756 0.044780035 -0.04294847 -0.056938253 0.00813456 0.12163317 0.048636388
-0.1851559 -0.027941538 0.04156603 -0.19124374 0.022917511 -0.10830338 0.043377317 -0.023527797
-0.11037604 -0.19253671 -0.20449921 -0.00062103086 -0.11476856 0.053332455 -0.05472768 -0.116504595
00000000: bb6d 3b3d fdbc b1bd 8564 64be 19a6 48bd
00000010: ebfd 00be f1e5 9b3d 3881 eebd 1612 0ebe
00000020: aeea 39bd fbb4 26bc 9224 cdbd c53f 5cbd
00000030: 7495 183d 1fcb 4abe 7b7c 4cbe e65c 97bb
00000040: 0daa 4bbe 1add f23d 663c 78bd 1c64 68bd
00000050: 13bb d1bb 69ab d5bc d4f8 abbd 2e97 ebbd
00000060: 5736 2ebb 7f61 4bbd eea0 90bd a4c4 ae3b
00000070: f3ac 68bd bb0c 44be 3daf 39be dfd5 fc3c
00000080: 5a69 023e 3a2c 04be 4f9f 293c d8d4 0c3e
00000090: bd54 c4bc 912b b2bc f538 f5bd 1779 3cbd
000000a0: 3829 60bc 0509 48be 3c15 243e 1e80 3ebd
000000b0: d29a 11bc 1cf8 df3c 98b5 ab3d 41f0 dabd
000000c0: ced4 953d 7be2 c53d 64fb 53be eb97 8d3d
000000d0: cce0 d5bd 83d4 c1bc c098 56bd d366 e2bd
000000e0: 98b6 d73d 178d c8bc f4f1 003e 326d 43be
000000f0: 10ce 0c3d 5e2f e8bd 32c0 fbbd 0215 39be
00000100: eed2 bcbd fd28 fbbd 79ac 7bbe 433f 033e
00000110: eb99 ebbb fbb0 57bc da7f 783d 8906 b63d
00000120: 40f5 02be 141f dfbc 1300 3dbc e912 db3d
00000130: 0363 a8bd 4801 e4bd d3b6 9dbc 7aba 54be
00000140: e54a 3b3d 2bbf d53c 2977 88bd 2330 693b
00000150: 5c13 13be 5d96 d43d 646e 943d 40b2 5d3c
00000160: 3059 073c 923c 29be 42c1 edbd c5d4 76be
00000170: 553b 193e 1691 1abc cef2 2ebe 69e5 593d
00000180: fc99 7bbd 3598 9bbd 1003 4dbe 5863 093e
00000190: 8cd7 e93d bb7c 543e 746e 3fbd ec16 093e
000001a0: 0051 11bc d0dc 8bbd a07b 243c 34b9 2c3e
000001b0: af0a 3c3e be10 eebc 4452 123d 2d63 36be
000001c0: 5ad8 edbd 88fe bfbd eddb febc bed0 973d
000001d0: 214f 65bd 9368 1bbd d246 d53d 685a 6b3d
000001e0: 15f5 13bd d1bc 953d 8b41 22be b6e9 15be
000001f0: c815 403e 4730 babd de8c 88bd 1c08 c3bd
00000200: b20a 72bd 44bc 753d bbe0 c0bd 9693 223e
00000210: 0059 26be af4a 81bd c5bd fd3c 0f07 543d
00000220: e015 21be 8da3 363d 2c3f 77bd b28d 87bd
00000230: fd41 09be 0696 713c 728f 43bd 6f6c 19be
00000240: f1e7 87bd be2b 21be c94c b43d 5b85 793d
00000250: b481 c83d 71db 293e 7be4 67be fe83 c1bd
00000260: 81d1 d1bd 969e debc 7ed8 fbbd 5535 603c
00000270: bdf8 d43d e73a 683d 0edb c7bc d3c9 6e3d
00000280: 0e87 193c f757 57bd 5cdd 9bbd 60e5 2ebe
00000290: 3245 4fbe 58b0 ffbd 75f5 9dbe e56d 893d
000002a0: 7b44 9c3b d7c2 ffbd fc5b 033e 27e0 b5bd
000002b0: 3641 ddbd 21d2 c2ba 8620 16be a29c 0a3e
000002c0: 1a42 10bc 6537 04be 456b 373d bcea 2fbd
000002d0: 1638 69bd d146 053c d01a f93d f336 473d
000002e0: 8299 3dbe a7e5 e4bc 2441 2a3d 66d5 43be
000002f0: 81bd bb3c 2ace ddbd 6aac 313d 5ebd c0bc
00000300: d50c e2bd 5828 45be 3e68 51be adcc 22ba
00000310: c70b ebbd 2273 5a3d 222a 60bd f699 eebd

bias_hh_l1 f4 [200]
-0.08769808 0.06267037 -0.17077374 0.0174127 -0.21573892 -0.06145979 0.018624555 0.07654799
-0.08486476 -0.16044278 -0.12476468 -0.090084806 0.033561405 -0.120692864 -0.026450098 -0.21703076
-0.23976701 -0.07188742 -0.06275262 0.06088226 -0.12952752 0.053135037 -0.2909068 0.0003672077
-0.035503328 -0.11825722 0.10167865 -0.14461884 -0.09890826 -0.11691784 -0.16078664 -0.014434038
-0.022474157 -0.14932655 -0.023955967 0.13568264 -0.074037716 -0.12796995 0.07079309 -0.058947105
0.090639 -0.25555238 0.14723489 -0.24140686 -0.12517211 -0.002411091 0.047070317 -0.03052495
-0.15008783 0.14061895 -0.12966914 0.12701268 -0.10519253 -0.02836798 -0.0533981 0.05416019
0.08447857 -0.01732888 0.090397514 0.021027707 0.06983104 0.05234944 -0.10152296 -0.18020073
0.030771254 -0.22793338 -0.24640182 0.005736643 0.045880593 -0.09215475 -0.06295284 0.09478797
-0.23138393 -0.03551514 0.078600936 -0.042034935 0.12081368 -0.1418544 -0.12359662 -0.05438569
-0.002187767 -0.11814627 -0.057298858 -0.18999542 -0.18217851 0.07539897 0.051854577 -0.13513109
0.09687118 -0.035678778 -0.043393236 -0.20075035 0.107661866 -0.21168967 -0.15089543 0.1203668
0.07958671 0.019234005 0.021735324 -0.08194842 0.036090672 0.02164306 -0.04170164 0.14052945
0.004621007 -0.08461823 0.18629257 0.07483451 -0.06310646 -0.11033585 -0.12311054 0.043405272
-0.04170492 0.00578065 0.013695484 -0.03440986 0.12928203 -0.13316457 0.18886028 -0.0939583
0.15293443 0.050027102 0.013308722 -0.108656414 -0.036617268 -0.14556271 -0.1728472 0.007089192
0.06947342 -0.111128986 0.097886264 0.11480702 -0.06891304 -0.049433645 0.04252716 0.18453714
-0.10670171 0.05325229 -0.069987394 -0.05515147 0.08044561 -0.12733358 -0.16162018 0.03984759
0.088332646 -0.08949403 0.046552904 0.076867126 -0.031375106 0.15022503 -0.09861815 0.12377305
0.013642674 -0.11906403 -0.12334947 -0.010986806 -0.04335976 0.07780552 -0.047788516 -0.16502433
-0.00080191734 -0.013360989 -0.00857216 -0.14201055 -0.12172303 -0.20378114 -0.3027079 0.03423061
0.10479895 -0.012790555 0.12939738 -0.107181795 -0.07774605 0.11633778 0.06352594 -0.069972776
0.06522777 0.045171797 -0.185285 -0.15312085 -0.20422263 0.029667784 -0.1261952 -0.026572695
0.04899094 0.054704748 0.047689747 -0.10061578 -0.10918441 0.02156585 -0.07605605 -0.22309901
0.004087993 -0.27761543 -0.03054029 -0.13110432 -0.038637813 0.09300741 -0.12627777 -0.07948157
00000000: 0d9b b3bd 5359 803d 50df 2ebe 14a5 8e3c
00000010: aaea 5cbe 43bd 7bbd 8692 983c 31c5 9c3d
00000020: 93cd adbd 1d4b 24be a084 ffbd 627e b8bd
00000030: af77 093d d22d f7bd e0ad d8bc 503d 5ebe
00000040: 7c85 75be b639 93bd 7284 80bd ad5f 793d
00000050: dda2 04be 20a4 593d bcf1 94be c885 c039
00000060: f06b 11bd d730 f2bd e53c d03d f616 14be
00000070: 6a90 cabd 9f72 efbd 41a5 24be be7c 6cbc
00000080: b91b b8bc 0fe9 18be 4e3f c4bc 64f0 0a3e
00000090: 16a1 97bd 8e0a 03be f8fb 903d 8572 71bd
000000a0: f1a0 b93d c3d7 82be bec4 163e 5c33 77be
000000b0: 1e2d 00be 6503 1ebb cecc 403d 760f fabc
000000c0: a0b0 19be 6afe 0f3e fdc7 04be 9d0f 023e
000000d0: 2e6f d7bd f763 e8bc f7b7 5abd 13d7 5d3d
000000e0: 1a03 ad3d 4cf5 8dbc 5522 b93d 4c42 ac3c
000000f0: 9403 8f3d 5e6c 563d 45eb cfbd 8a86 38be
00000100: ff13 fc3c 5e67 69be c250 7cbe 73fa bb3b
00000110: 4aed 3b3d a1bb bcbd 6bed 80bd 3220 c23d
00000120: e9ef 6cbe 5378 11bd 87f9 a03d d32c 2cbd
00000130: 2a6d f73d 4842 11be 3a20 fdbd 87c3 5ebd
00000140: a460 0fbb acf6 f1bd 35b2 6abd 298e 42be
00000150: 018d 3abe c66a 9a3d 7765 543d ce5f 0abe
00000160: 6664 c63d e923 12bd 1bbd 31bd 8091 4dbe
00000170: d37d dc3d 2dc5 58be 5584 1abe de82 f63d
00000180: 5bfe a23d a290 9d3c 470e b23c 93d4 a7bd
00000190: d0d3 133d c94c b13c 57cf 2abd f4e6 0f3e
000001a0: d16b 973b 534c adbd 7bc3 3e3e d642 993d
000001b0: f63d 81bd c3f7 e1bd 6121 fcbd bac9 313d
000001c0: c7d2 2abd 9b6b bd3b 0663 603c 5af1 0cbd
000001d0: 8262 043e 4b5c 08be 9764 413e 366d c0bd
000001e0: d89a 1c3e 38e9 4c3d d30c 5a3c 4187 debd
000001f0: fdfb 15bd 640e 15be dbfe 30be 744c e83b
00000200: 1548 8e3d 9897 e3bd 9878 c83d f11f eb3d
00000210: 4822 8dbd ef7a 4abd f630 2e3d 4ef7 3c3e
00000220: 6d86 dabd 131f 5a3d 8d55 8fbd 82e6 61bd
00000230: abc0 a43d bc63 02be c37f 25be 3a37 233d
00000240: bfe7 b43d a548 b7bd 42ae 3e3d 836c 9d3d
00000250: 2f83 00bd 97d4 193e 50f8 c9bd ba7c fd3d
00000260: 8685 5f3c d8d7 f3bd a69e fcbd 0102 34bc
00000270: 019a 31bd 8058 9f3d e4bd 43bd 23fc 28be
00000280: c337 52ba 0de8 5abc 3f72 0cbc 376b 11be
00000290: ed49 f9bd 01ac 50be 88fc 9abe 6535 0c3d
000002a0: d5a0 d63d 7a8f 51bc bf80 043e 2182 dbbd
000002b0: 5239 9fbd 8142 ee3d e319 823d e34d 8fbd
000002c0: 2396 853d 1006 393d 5abb 3dbe b6cb 1cbe
000002d0: bd1f 51be da09 f33c 5139 01be fbae d9bc
000002e0: b9aa 483d 1612 603d 5356 433d a50f cebd
000002f0: 139c dfbd deaa b03c 46c3 9bbd 1174 64be
00000300: 92f4 853b 9c23 8ebe a12f fabc 3640 06be
00000310: af42 1ebd ab7a be3d f64e 01be 3cc7 a2bd

weight f4 [1, 50]
0.03247543 0.1484286 0.044854637 0.13676387 -0.033163525 -0.08845304 0.11115342 0.06330754
0.06452135 -0.02522941 -0.025992813 -0.05386121 -0.0121600665 -0.054747872 0.05909732 0.005216399
0.013689246 -0.059366934 0.1606527 0.00922383 0.04657544 0.03955161 0.0009874713 -0.05117017
0.091308534 -0.05926638 -0.16558315 -0.027093524 0.057100773 0.037439056 0.026578948 0.097165495
-0.0697768 -0.0073429914 0.03455628 0.09554691 -0.0697676 0.020770645 -0.103810735 -0.013229472
0.011795778 -0.056055736 -0.07548867 0.013747856 -0.044106226 -0.09926391 0.059834898 0.08421806
0.045788705 0.095845304
00000000: f504 053d abfd 173e 7fb9 373d d40b 0c3e
00000010: 7ad6 07bd de26 b5bd 67a4 e33d 62a7 813d
00000020: c523 843d e8ad cebc e1ee d4bc 929d 5cbd
00000030: 043b 47bc 4e3f 60bd 0810 723d 54ee aa3b
00000040: dc48 603c be2a 73bd 2482 243e 8c1f 173c
00000050: e3c5 3e3d de00 223d 0a6e 813a d097 51bd
00000060: f8ff ba3d 4ec1 72bd a18e 29be 3df3 ddbc
00000070: 80e2 693d b259 193d 18bc d93c b4fe c63d
00000080: 24e7 8ebd 7a9d f0bb e38a 0d3d 19ae c33d
00000090: 51e2 8ebd 3327 aa3c b99a d4bd 6dc0 58bc
000000a0: 1443 413c b39a 65bd ce99 9abd b03e 613c
000000b0: bba8 34bd e04a cbbd 7015 753d 857a ac3d
000000c0: f08c 3b3d 8b4a c43d
