train_model_hourly/best_model_3.pth (torch, 127927 bytes, 9 tensors)

weight_ih_l0 f4 [200, 1]
000000 bd 12 82 3d d8 fe ad bd b8 3d 52 be a7 58 04 be
       0.0635123 -0.08495873 -0.20531356 -0.12924443
000010 80 55 9a 3d fb cc df bd 6a 41 eb 3d b9 b0 0a be
       0.07535839 -0.10927769 0.11487086 -0.13543977
000020 e2 ef ff bd c8 28 81 3c 8b c1 63 3d 32 06 04 3c
       -0.12496926 0.015766516 0.0556045 0.008058118
000030 ba 24 be 3d 95 ba 31 bc 83 44 d0 bd 2d 06 66 bd
       0.09284349 -0.010847707 -0.101693176 -0.056158233
000040 20 8e bb bd 73 a5 29 be f8 e3 48 bd 56 b0 57 bd
       -0.091579676 -0.1656702 -0.049045533 -0.0526584
000050 51 cb dd 3d 10 1f a9 bd 5a 66 a5 bd c9 81 82 3d
       0.10829795 -0.08257878 -0.08076163 0.06372411
000060 3c 54 95 3d e9 47 15 bd 2e 24 fd 3d 01 ca 48 3d
       0.07291457 -0.036445532 0.12360416 0.04902077
000070 38 5e ce 3c 50 4b 16 bd 94 00 4f bd 6d 3e f8 3c
       0.025191411 -0.036692917 -0.05053766 0.030303204
000080 5c 86 5b 3c 31 f1 ff bd 77 a9 2a be 4a 9f 4d bc
       0.013398733 -0.124971755 -0.16666208 -0.0125501845
000090 cb b1 e3 3c 43 94 3d bd 02 7c e4 3d 95 32 60 be
       0.02779474 -0.04628397 0.11156465 -0.21894296
0000a0 ca 55 df 3d 24 75 ee bd cb e1 1f be aa a5 65 bd
       0.10905035 -0.116434366 -0.15613477 -0.056066193
0000b0 50 9c f2 bd d6 4c fb 3d 96 2e 30 be 16 d0 92 bd
       -0.118462205 0.12270515 -0.17205271 -0.071685955
0000c0 8b 6f 15 be f9 24 03 be 9a a4 1a bc 29 5c dc 3d
       -0.14593332 -0.12807073 -0.009438658 0.10759766
0000d0 d7 97 a3 3b 24 10 76 be fc b0 c3 3d 3c 5d 24 be
       0.004992466 -0.24029595 0.095552415 -0.16051191
0000e0 61 35 82 3c 30 9e 0c be 34 ca 9e bd 47 ad 91 3c
       0.015894594 -0.13732219 -0.07753411 0.01778282
0000f0 5d a1 22 be 3a 8a 6d be 4c f5 02 be 27 d5 90 bb
       -0.15881868 -0.2319726 -0.12788886 -0.004419941
000100 24 fa 9e bd e9 84 22 be 3c 73 67 be 92 65 b4 bc
       -0.07762554 -0.15871014 -0.22602552 -0.022021089
000110 1e ab a6 bd 98 6f b2 bd e8 91 cb 3d 77 0f 15 bc
       -0.08138107 -0.08712691 0.09939939 -0.009097925
000120 9c 45 5f 3d 1e 4e d2 bb 6e 37 a4 bd 2d 81 17 bd
       0.054509744 -0.0064180037 -0.08018385 -0.036988426
000130 37 36 c1 3d 14 53 75 bd d7 5a e1 3c 6e 1b 98 bd
       0.09434169 -0.059893683 0.027509136 -0.07427107
000140 f1 2a 44 bd 2a c7 9f bd 8e 26 3b 3d cb db 03 be
       -0.047892515 -0.078016594 0.045691065 -0.12876813
000150 05 b6 c6 3b d8 b4 f7 bd 20 14 87 3d f4 56 80 3d
       0.006064179 -0.1209504 0.065956354 0.06266585
000160 57 2f 83 3d 1b db 90 bd 7e ac 85 3d 1e e2 7b be
       0.06405514 -0.07073041 0.06527041 -0.24597976
000170 18 bc 45 be 82 b8 bc bd 00 b8 8d 3d c5 34 83 3d
       -0.19310033 -0.092148796 0.06919861 0.06406549
000180 fd 0a 1f be 36 01 f9 bd 9e 28 0c be 32 d3 26 bd
       -0.15531535 -0.12158434 -0.13687369 -0.040728755
000190 9d f7 05 bd 68 db ad 3d 50 30 0a be e9 ce 9d 3d
       -0.032706846 0.08489114 -0.13494992 0.077054806
0001a0 a1 2f 1e 3d 9e 33 0f be e3 85 a5 3c 5a 26 d5 3c
       0.03861964 -0.13984534 0.020205444 0.026019264
0001b0 e7 00 f4 bd 73 2d 90 3d 26 7c fe 3c ff 6f a5 3d
       -0.119142346 0.07039919 0.031065058 0.08078002
0001c0 67 21 10 3e 14 a8 60 3d 4c a5 fc 3d 39 9f 09 3e
       0.14075242 0.05484779 0.123362154 0.13439645
0001d0 95 1c c1 3d 01 7f 70 3c 49 08 d4 bd d8 db 1e bd
       0.0942928 0.014678718 -0.10353143 -0.038783878
0001e0 d7 df 0f bd 7f 09 81 3d ef 2c 3e bd c4 9c 06 3e
       -0.03512558 0.06300639 -0.04642957 0.13145739
0001f0 82 72 db bd 15 d7 c6 3d 51 e2 0f be 1b 84 c8 3c
       -0.107152 0.097089924 -0.14051177 0.024477055
000200 39 23 a2 3c b6 e5 b9 bd 8f 1a d5 3d b8 38 d5 bd
       0.019792186 -0.09077017 0.10405456 -0.10411209
000210 4b a7 b8 3d b8 39 c3 bd 49 f2 e8 bc 5e b0 4f bd
       0.090162836 -0.09532493 -0.028435843 -0.050705306
000220 aa 42 05 bd b2 a8 f8 bb 14 0e c8 bd 8e b0 8a bb
       -0.03253428 -0.0075884694 -0.0976831 -0.0042324727
000230 78 43 01 bc cd 11 b4 3c 69 83 3d bd 9f 09 33 bd
       -0.007889621 0.021981144 -0.0462679 -0.043710347
000240 42 f1 97 3c e0 1b 58 3d d7 73 5d bc 65 87 a6 3d
       0.018547658 0.05276096 -0.013516388 0.08131293
000250 36 a9 b2 bd db df 43 3d 71 48 79 3d f1 a3 32 be
       -0.08723681 0.047820907 0.0608601 -0.17445351
000260 c7 43 36 be 44 e6 62 bd 79 0e f5 3d 4e 2d c1 3d
       -0.17799293 -0.05539538 0.11965651 0.09432469
000270 19 56 14 be 01 00 60 bd 58 10 85 3d 2c 8e 27 bd
       -0.14485969 -0.054687504 0.06497258 -0.04090707
000280 92 d6 e9 bd a6 97 21 be aa fa fe bd c4 07 af 3d
       -0.11417879 -0.15780506 -0.12450154 0.08546403
000290 1e d1 9e 3d 89 71 10 be a4 bf 27 be a9 57 29 bd
       0.0775473 -0.1410581 -0.16381699 -0.041343365
0002a0 94 ea 08 bd 17 4f 13 3d 70 10 04 3e 28 8f b9 bb
       -0.033426836 0.035964098 0.12896895 -0.0056628175
0002b0 bd 81 c1 3d e4 ef 35 bd 08 73 a9 bd 2d e8 44 3d
       0.09448574 -0.04441823 -0.082738936 0.048072983
0002c0 db 2f 06 be 96 70 d0 3d 5e 80 23 be c5 4d 88 3d
       -0.13104193 0.10177724 -0.15966937 0.06655458
0002d0 d5 9d c4 3d f2 a8 8c bc a8 cc 77 3c 2e be 07 3b
       0.096004166 -0.017170403 0.015124477 0.002071272
0002e0 3d d3 85 3c 91 50 ed bd 24 f6 d0 3c a5 61 6f 3c
       0.016336078 -0.115876324 0.025507994 0.014610683
0002f0 a6 01 7b bc 68 8f 09 be f9 3e 9d bd c6 cd f5 bb
       -0.015320217 -0.13433611 -0.07678027 -0.0075013367
000300 87 3d 65 be f6 9b ef bd c9 ca 3c bd 01 51 19 be
       -0.22386752 -0.11699669 -0.04609183 -0.14972307
000310 9b 26 74 be ff 64 c7 bd fb da 55 3d 05 2f 09 be
       -0.23842852 -0.0973606 0.05221079 -0.13396843

weight_hh_l0 f4 [200, 50]
000000 0b 05 1a 3d 44 92 0b 3d d2 79 b4 bd df d7 0e be
       0.037602466 0.034075037 -0.08812298 -0.13949536
000010 5b f5 ec bd c9 83 d4 3d 0a 33 3e bb ad 3d 0a be
       -0.11570235 0.103766985 -0.002902212 -0.1350009
000020 14 31 ce 3c c7 17 db bc ad c0 8e bc 35 fc 0f 3d
       0.025169887 -0.026744736 -0.01742586 0.035152633
000030 75 da b2 bd bb 88 4f bd 63 09 5b bd f5 cb a6 3d
       -0.087330736 -0.050667506 -0.05347575 0.081443705
000040 06 9b d7 bd 3d 69 5d 3c 4b 85 73 3d 2b 04 3a 3d
       -0.10527615 0.01351386 0.05945329 0.04541413
000050 70 f1 07 bd a4 69 dc bc fe 88 13 be 3e e6 94 3c
       -0.033189237 -0.026905842 -0.14407727 0.018176194
000060 27 1d e3 3d 26 a1 32 bd 6d 86 a6 3d ba d8 c5 3d
       0.11089545 -0.043610714 0.081311084 0.09660478
000070 d1 3d 12 be 78 4e 68 3c 63 e1 0e 3a 09 cf a7 bc
       -0.14281394 0.014178865 0.00054504554 -0.020484464
000080 66 0e 95 3d a7 59 af 3c 95 8c 15 be 35 5f e9 3d
       0.07278137 0.021405054 -0.14604409 0.113951124
000090 c2 f4 70 3d 4a 12 85 bd 13 ba c4 bd 10 af 11 3c
       0.05882717 -0.06497629 -0.09605803 0.008891836
0000a0 4d 36 1f bd 00 3f eb bd 25 3e 1d be f4 ab de 3d
       -0.038870145 -0.11486626 -0.15355738 0.10872641
0000b0 42 f0 cc bd 80 78 9b 3c e3 72 15 3e 97 6d 63 bd
       -0.10006763 0.018978357 0.14594607 -0.055524435
0000c0 11 cc 2b bd c1 f5 cb 3d 99 5f 0b be 63 96 97 3c
       -0.04194266 0.09958983 -0.13610686 0.018504327
0000d0 15 d6 af 3c 61 2d 80 3d 21 5f 47 3d 2c e5 06 be
       0.021464387 0.06258655 0.048674706 -0.1317336
0000e0 43 73 d2 bd 06 42 ac 3d 20 22 d2 bc 2d 93 48 3e
       -0.10275891 0.084110305 -0.025651038 0.19587393
0000f0 3b 86 a6 bd 6e bf 19 3e 17 de 92 bd c2 34 b6 bd
       -0.08131071 0.15014431 -0.071712665 -0.088967815
000100 90 24 2e be 9e 32 c0 bd cb 7f c5 bc 50 90 4a 3d
       -0.17006135 -0.093846545 -0.024108788 0.049454033
000110 ea 87 a2 3d c1 d3 f0 bd 1f fd 0f 3e e7 af 81 3d
       0.0793608 -0.11759139 0.14061402 0.06332379
000120 d3 db 27 be f7 77 f1 bd 52 b6 24 be c4 dd ca 3c
       -0.1639245 -0.117904596 -0.16085175 0.02476395
000130 9a 4f a9 3d 2a 87 9c bd ca 43 a0 3c e8 8e f1 3d
       0.08267136 -0.07642968 0.019563574 0.11794835
000140 a5 d1 24 bd f1 12 c5 bd 56 ac bf bc 79 95 4e bb
       -0.040238995 -0.096227534 -0.023397606 -0.0031522198
000150 2f cb 34 3d 81 00 f8 3c 52 3a 04 3d 57 b5 4d bd
       0.044139083 0.030273678 0.03228218 -0.050221767
000160 de 1e 83 3d 3c 89 07 be 16 a6 b6 bb 4f d9 0c be
       0.06402372 -0.13235945 -0.005573998 -0.13754772
000170 58 ae 37 be 76 cb c8 bd 0e 55 ec 3c f7 fa 0e 3c
       -0.179376 -0.09804432 0.028849151 0.008726827
000180 36 1b 28 3e 02 0a 2c bd c8 48 9f bc c4 74 97 bd
       0.1641663 -0.04200173 -0.019443884 -0.07395318
000190 65 48 ac 3d ac 14 00 be e7 5e 26 be cf 51 44 be
       0.08412246 -0.12507886 -0.1624714 -0.19171833
0001a0 87 66 b0 bd 43 fc 2b 3d 9d db 33 be ff 20 77 3c
       -0.086133055 0.041988622 -0.17564245 0.0150835505
0001b0 cc e9 41 3e 63 1c 7d 3d 23 0c ad 3d 18 3a fe bd
       0.18936843 0.06179465 0.084495805 -0.12413424
0001c0 5d 93 a9 bd a8 d2 0a 3c 13 5b 24 be 37 95 37 bc
       -0.082800604 0.008473076 -0.16050367 -0.011205009
0001d0 cf b4 27 bd c0 fe 41 bd 12 b2 62 bd e1 fb 0a be
       -0.040943917 -0.04736209 -0.055345602 -0.13572647
0001e0 04 5b e2 3d 32 b6 db bd 68 56 88 bb 50 52 2a 3d
       0.11052516 -0.107281104 -0.004160691 0.041582406
0001f0 5b 3f 06 bc 8f df 0e bd 93 07 4b 3d 07 d1 e8 3c
       -0.008193816 -0.03488117 0.04956777 0.028419985
000200 91 79 e1 bd 06 56 d2 bc ef d3 9c bd 7b 2e 8f 3a
       -0.11009515 -0.025675785 -0.076576106 0.0010923886
000210 28 40 ec bd bc b2 a7 3d d9 34 30 be ad a5 12 3e
       -0.11535674 0.08188388 -0.1720766 0.14321013
000220 33 55 95 3d f1 8f 21 bd 42 34 12 3e 38 d8 3c 3d
       0.07291641 -0.039443914 0.14277747 0.04610464
000230 82 df 8c bc 03 f8 0e 3e 54 a0 03 bd 2d ee a8 bc
       -0.01719642 0.13961796 -0.032135323 -0.020621384
000240 9b 7d 67 bd a5 5f 4e be 9f 0f 59 3c 32 14 96 3c
       -0.05651627 -0.20153673 0.013248353 0.018320177
000250 47 92 aa 3d 79 7e 08 3e c9 75 74 be 0c 80 0d 3d
       0.083286814 0.13329495 -0.23873056 0.034545943
000260 39 1d 27 be d8 cc 13 3d b2 90 80 be 56 27 a0 bd
       -0.16319741 0.036084026 -0.25110394 -0.07820003
000270 5a 9d 35 be e7 10 1e 3e ec 44 1f 3e 9e 07 9e 3d
       -0.17735806 0.15436135 0.15553635 0.077162966
000280 c1 59 8d bd f3 99 00 bd dc aa 3d be c0 05 2b be
       -0.06901885 -0.031396817 -0.18522209 -0.16701412
000290 ad 3d 14 be 19 ef 32 3e 47 77 51 3e 46 ee b9 3d
       -0.14476652 0.17474021 0.20455657 0.0907865
0002a0 cc f5 5c be e0 72 0a be e2 ab 14 3d 38 9d c7 3d
       -0.21578139 -0.13520384 0.036296733 0.09746784
0002b0 84 c3 cb bd 15 de 82 be 1e d2 ea 3c 74 4f 0e be
       -0.09949401 -0.2556006 0.028664645 -0.13897496
0002c0 0d a6 8c 3e 16 cb 96 be d4 b8 02 bd 8b c9 d2 3d
       0.27470437 -0.29451817 -0.031914547 0.102923475
0002d0 da 50 80 3e 04 d6 47 3e 9e 10 77 3d af 0c 4c 3e
       0.25061685 0.19515234 0.06031858 0.19926713
0002e0 40 b5 ac 3d 33 22 f5 3d 39 90 4f 3e 10 80 13 be
       0.08433008 0.119694136 0.2026986 -0.1440432
0002f0 0f d4 22 3e b7 f6 58 3e bd 0f 85 bc fc 8c 12 be
       0.15901206 0.21187864 -0.016242856 -0.14311594
000300 ad 84 e2 3d aa 2d 30 3e d2 4a f8 3c ef 2c 97 be
       0.11060462 0.1720492 0.030309115 -0.2952647
000310 a0 a2 30 3e 89 06 ed bd 6f 19 db 3c 0c 7f 6f bc
       0.17249537 -0.11573512 0.026745526 -0.014617693
000320 f4 d6 2b bd 77 f9 92 bd b0 9a 3f 3d c0 10 be bd
       -0.041953042 -0.07176488 0.04677838 -0.092805386
000330 d3 82 11 be f2 d6 04 bd 22 9c 0f be 2a 38 96 bd
       -0.14210062 -0.03243155 -0.14024404 -0.07334931
000340 02 69 31 3d 8e ee 02 3d f3 74 4d be 4a ba 25 3e
       0.043313034 0.031965785 -0.20064144 0.16184345
000350 80 dc 05 be 4f 2f 14 be 1b 0e 1c be bf c0 e6 bd
       -0.13072395 -0.14471172 -0.15239756 -0.11267232
000360 fe 2d 31 3c f1 22 cf 3d 49 9e 48 bd 8b 97 89 3d
       0.010814188 0.101140864 -0.048979077 0.06718358
000370 ab d5 1e 3d d5 47 4e 3e 41 47 8c bd 24 d5 3a 3c
       0.03877799 0.20144589 -0.06849528 0.011403356
000380 8d 10 b7 bd 65 76 8a bd 75 89 c5 3d e3 81 0c 3c
       -0.08938704 -0.06760863 0.096453585 0.008575889
000390 48 40 b8 3c b5 0c f3 bc 0b e8 8f bd 1c 1c fc bd
       0.02249159 -0.029669145 -0.070266806 -0.12310049
0003a0 89 a3 23 be bf 7d e3 3d e1 7c da 3d 0a fa d5 3d
       -0.15980352 0.111079685 0.1066835 0.10448082
0003b0 21 fe 9b 3c 67 5e 00 be 7f fa f0 3d 02 1f df bb
       0.019042077 -0.12536012 0.11766528 -0.0068091163
0003c0 a3 f7 d8 bd b9 b2 13 be 11 a5 c4 bd b8 48 cd 3c
       -0.10594108 -0.14423646 -0.096017964 0.025059089
0003d0 e1 75 ca 3d 35 b6 f5 3b f9 a8 23 3e c4 69 f6 3c
       0.09885765 0.0074985274 0.15982427 0.03007973
0003e0 11 c7 11 3d 46 ee 15 3e 78 d1 83 bc ea 23 e8 3d
       0.035590235 0.14641675 -0.016091093 0.11334975
0003f0 38 8f 11 be 7c ae 5b 3d e8 20 91 3d d5 63 a9 3d
       -0.1421479 0.0536332 0.070863545 0.082709946

bias_ih_l0 f4 [200]
000000 c5 38 66 bd 33 2b 04 3d 34 91 d5 bd b9 c0 65 be
       -0.056206483 0.03226776 -0.10428086 -0.22436799
000010 8d fa b0 bd 34 4e 4c bd ff 28 87 bd d3 46 0d bd
       -0.08641539 -0.049879268 -0.06599616 -0.03449137
000020 25 4b ca bc eb d9 09 be df 56 98 bd d3 a2 7c 3d
       -0.024694035 -0.13462035 -0.07438444 0.06167872
000030 5f cb fd 3c 76 f7 c7 bd ee 73 2a bd 1f 55 96 3d
       0.030980764 -0.09763996 -0.041614465 0.07340454
000040 e7 0c f7 bd 75 61 23 be ef 30 d9 3d 7a 4e 25 bd
       -0.12063008 -0.15955146 0.106050365 -0.040358044
000050 7d c1 34 3d b1 f0 95 3b 37 de 9b 3d 1f c1 59 3d
       0.044129837 0.004575812 0.076107435 0.05316269
000060 b0 25 97 bd 1e a8 bb bd f5 4f 60 bd 40 b0 53 3d
       -0.07380235 -0.09162925 -0.054763753 0.051681757
000070 90 78 1b be 87 ac 05 be c6 37 fb bd 8f b2 e9 3c
       -0.1518271 -0.13054095 -0.12266497 0.028527526
000080 d9 eb 4b be 10 85 aa bd b1 4e 26 be aa d1 47 3d
       -0.19914187 -0.08326161 -0.16240956 0.048783936
000090 7f 15 25 bd b5 6c cd bd 4e 72 61 bd 17 a1 c1 bd
       -0.040303703 -0.100305 -0.05504065 -0.094545536
0000a0 59 8c db 3c b2 df 5a bd 3b 48 e4 bd 7f 86 a1 3d
       0.026800321 -0.05343599 -0.11146589 0.07886981
0000b0 1b b4 95 3d 04 c8 a7 bd 0e 44 f8 bd 0b c2 88 3d
       0.07309743 -0.08192447 -0.121223554 0.06677636
0000c0 b0 42 27 be 94 09 80 be 4b 9f ba 3d c4 1d 10 be
       -0.16334033 -0.25007308 0.09112414 -0.14073855
0000d0 a2 da 40 bd a0 db 5e be 4c ea c7 3d 50 65 d6 bd
       -0.047083504 -0.21763468 0.097614855 -0.104685426
0000e0 f6 3a 12 be 15 86 17 be fd 1e ec bd 74 d6 7d be
       -0.14280304 -0.14797242 -0.11529348 -0.24788839
0000f0 8d 72 6d be 13 68 38 be fc 94 c9 bd 03 a2 a2 3d
       -0.23188229 -0.18008451 -0.0984287 0.079410575
000100 c0 8e 39 3c ef 0b e8 bc 7f 77 6b be 37 13 6b be
       0.011325538 -0.028326003 -0.22994803 -0.22956549
000110 35 80 bf bd d2 c2 9d 3d 91 35 f9 bb e1 42 4f be
       -0.093506254 0.07703175 -0.0076052626 -0.20240356
000120 2c 8a 1f be 52 4d e9 bd ef 44 e0 3c 3a 10 d2 bd
       -0.15580052 -0.11391701 0.02737662 -0.10257001
000130 e3 50 bc 3d c7 63 d3 bc 16 74 19 be f7 e9 15 3e
       0.091951154 -0.025804413 -0.1498569 0.14640032
000140 ee 91 85 3d f6 08 6d 3d 8a 66 97 bd 41 c7 54 bd
       0.065219745 0.057869874 -0.07392605 -0.051947836
000150 c6 6e 31 bd 4b 98 9f 3d 36 75 10 be 3a 48 8c 3d
       -0.043318532 0.077927195 -0.14107212 0.068497136
000160 f7 fd 93 3d fe a5 6b be de f4 9f bd e2 57 ce bd
       0.07226174 -0.2301254 -0.078103766 -0.10075356
000170 99 13 2a bd 85 d9 e8 bb 06 38 02 bd d1 1b a2 3d
       -0.041522596 -0.0071060085 -0.03179171 0.07915462
000180 20 1e 0a be b4 0d 39 bd f8 4d 33 bd 49 2f a7 bd
       -0.13488054 -0.045179084 -0.04377553 -0.08163316
000190 9b 95 d8 bd 35 4a 97 3d 62 3e 9b 3d fa 8d b1 bd
       -0.1057541 0.07387201 0.07580258 -0.08669658
0001a0 cb 98 a2 3d f8 ff 87 bd 6a 2f 10 3e a1 7a 28 be
       0.07939299 -0.06640619 0.14080587 -0.16453029
0001b0 54 d7 a2 bd d0 ab c9 3d 87 54 82 3d 92 d7 b6 3d
       -0.07951227 0.09847224 0.063637786 0.089278355
0001c0 1b 38 a0 3d 17 75 53 bc da 93 12 bb a9 b2 c0 bd
       0.07823201 -0.012906334 -0.0022365958 -0.09409077
0001d0 65 ad 1b bd e5 fd a2 3d bb ab e4 3d 51 2e 21 bc
       -0.03800716 0.07958583 0.111655675 -0.009837703
0001e0 bb 74 06 be 11 4b b5 bc e9 89 1a 3c e1 ab 4b bd
       -0.13130467 -0.022130521 0.009432294 -0.049724463
0001f0 d8 41 f8 bc c4 73 52 bd f8 56 d4 bd a5 58 00 3d
       -0.030304834 -0.051379934 -0.103681505 0.031334538
000200 13 ea 80 3c 7c 95 a2 bd 36 f4 14 be 26 bb cc bd
       0.015736615 -0.07938668 -0.14546284 -0.09996633
000210 b2 9e 5a 3d 61 ae d4 bd 11 da 29 3d e4 4f f7 bd
       0.053374 -0.10384823 0.04146773 -0.12075785
000220 72 17 06 be b9 d0 d2 3d b1 d6 7c bd c5 c4 14 bb
       -0.13094881 0.10293717 -0.061728183 -0.0022700292
000230 06 95 ef bd ef 2f b9 bd 98 25 e2 bd 04 09 b1 bc
       -0.11698346 -0.09042346 -0.11042327 -0.021610744
000240 06 7d f9 3c 6a ec 21 3e 0b 02 83 3d 89 f3 50 bd
       0.030455124 0.15812841 0.06396874 -0.051013503
000250 c8 5a ce 3d 51 b8 bf 3d d3 99 9b bc 76 db 22 be
       0.10075909 0.093613274 -0.018994248 -0.1590403
000260 5b e5 3a be e6 f0 f8 bd 62 05 b3 bd 23 60 ae bb
       -0.18251555 -0.12155323 -0.08741261 -0.005321519
000270 9c d0 2c bd df 7f 37 be c2 c7 a6 bd 4f 47 57 bd
       -0.042191133 -0.17919873 -0.081435695 -0.05255824
000280 40 85 38 be 6b 2c 24 3c 63 44 8b bd a4 7d 6a bd
       -0.18019581 0.010020356 -0.06800153 -0.057248726
000290 26 92 17 be 87 0e 03 be 46 25 8d be c5 e8 27 be
       -0.14801845 -0.1279851 -0.275675 -0.16397388
0002a0 6e 88 96 bd 20 5f b0 bd 86 86 ae 3d ac 34 3e be
       -0.07350241 -0.08611894 0.08521752 -0.1857478
0002b0 fd fc a1 bd 02 ca 90 3d 1a eb ab bb 64 80 c9 bd
       -0.07909582 0.0706978 -0.005246532 -0.09838942
0002c0 27 7e a5 3d 9e 7d e6 bd bb 62 3f bd 3f e8 cb bd
       0.08080702 -0.11254428 -0.046725016 -0.09956407
0002d0 71 3c 04 be 4e 91 dc bd 59 42 ae bd db 14 0f be
       -0.12913682 -0.10769902 -0.085087486 -0.139728
0002e0 da a7 e4 bc 97 e9 36 bc 33 63 6d 3d 39 7a 26 bc
       -0.02791207 -0.011164091 0.057955932 -0.010160976
0002f0 d4 3f 89 3d 39 d2 d7 bd 18 86 e7 39 ef e9 48 bc
       0.067016274 -0.10538144 0.0004415966 -0.012262805
000300 95 5b 57 bd 5b 6c 1e be 22 26 e7 bd cf c7 3e 3d
       -0.052577574 -0.15471022 -0.1128657 0.04657727
000310 cd 2f 10 be 74 f8 f0 3c 46 9a 99 bd 08 55 1c be
       -0.14080735 0.029415347 -0.075001284 -0.15266812

bias_hh_l0 f4 [200]
000000 ec a2 0d bd a6 f5 11 bd b3 39 b6 bd 9c 4d 56 be
       -0.034579203 -0.03563466 -0.08897724 -0.20928043
000010 7f 7c 14 3d b0 18 08 be c0 2e 1c bd 7b 9d 70 be
       0.03625154 -0.13290668 -0.03813052 -0.23497574
000020 6e a2 7f bd 93 dd bc 3c cc 0d 22 be 40 7e 77 3d
       -0.062410764 0.023054874 -0.15825576 0.060423136
000030 d4 41 20 bd 82 9e 8c 3b 10 e0 c9 bd 44 84 2c bc
       -0.03912528 0.0042913565 -0.0985719 -0.010529581
000040 6b d2 60 be 07 95 92 bc 1d 3b d2 bc 9e 85 ec 3d
       -0.21955268 -0.017893327 -0.025662953 0.11548923
000050 4e 22 8e 3d b0 c7 47 be 0a 05 0b be c6 f1 d9 bd
       0.06940137 -0.19509768 -0.13576141 -0.10641818
000060 65 5c af 3c a7 0e fb bc 96 43 db bd 75 7e f9 bb
       0.021406362 -0.030646635 -0.1070625 -0.007613952
000070 c1 ad a1 3d 5f 10 c8 3d cd b4 00 3e ea 4b 24 bd
       0.07894469 0.097687475 0.1256897 -0.04011146
000080 ab e3 1f be 26 a3 f5 bd 50 24 94 bd 0b 1f 99 3d
       -0.15614192 -0.11994009 -0.072334886 0.07476624
000090 c2 5c 1f be b3 bb 76 3d 3c 0f c7 3d 33 a5 6e bd
       -0.15562728 0.060237598 0.097197026 -0.058263015
0000a0 fa e3 f0 3c e0 8f 62 be f7 a1 66 be ed 12 8d bd
       0.029405583 -0.22125196 -0.22522722 -0.068883754
0000b0 12 13 06 3e 84 ff b8 3d bd 85 ac bd 2f ed d9 3d
       0.13093212 0.09033111 -0.08423946 0.10640942
0000c0 ce 94 a4 bd e5 77 24 be f4 64 77 bd b7 98 6e 3d
       -0.08036195 -0.16061361 -0.06039901 0.05825111
0000d0 97 ea 10 bd d1 fb 14 bd 0a 6b e8 bd 86 cb 93 bd
       -0.035379972 -0.036372963 -0.11348541 -0.072165534
0000e0 5a 5f 09 be 1d 08 a9 bd 2b 47 10 3d 85 72 28 bd
       -0.1341528 -0.082535006 0.03522412 -0.04112484
0000f0 9f d3 aa bc ca c3 3d bd fe 8a a9 bc c1 83 7d bd
       -0.020852862 -0.046329297 -0.02069616 -0.06189323
000100 21 e0 be bb 12 ac c8 3d 5c f0 3b be 68 49 55 be
       -0.005825058 0.09798445 -0.18353409 -0.20828784
000110 41 25 ce bb d4 86 88 bc c8 9a ca bd 91 a2 54 bd
       -0.006291062 -0.016665854 -0.098928034 -0.051912848
000120 28 79 82 3d 59 53 df bd 0e 3e d4 bc 04 99 b7 bc
       0.06370765 -0.10904569 -0.025908496 -0.02241183
000130 99 af dd bd 30 56 f3 3d 7c 9c 78 bd 43 60 53 3d
       -0.10824508 0.11881673 -0.06069611 0.051605474
000140 29 52 de 3c 39 49 7b 3c ef 09 c1 ba 6e 19 8f bd
       0.027138786 0.015337282 -0.0014727692 -0.06987272
000150 28 7d fb bd 28 f1 19 3e 5b 0a ad bd 30 45 b7 bc
       -0.12279731 0.150334 -0.08449241 -0.022371858
000160 b3 12 14 be ed fc 23 be 8b ef f0 3b e8 b8 85 be
       -0.14460258 -0.16014452 0.0073527745 -0.26117635
000170 22 e2 3f 3b 43 d4 16 be c6 ce b1 bd 7f 03 ad bc
       0.0029279073 -0.14729409 -0.08682017 -0.021119831
000180 4f 7a 23 bd 61 8f 95 bd 80 f1 19 3d 10 60 2c be
       -0.039911564 -0.07302738 0.037583828 -0.1683352
000190 c7 58 0c 3e d7 fb c9 bd 5c 42 ba 3d 7d 49 ec 3d
       0.13705741 -0.09862488 0.09094688 0.11537454
0001a0 5a f0 da bc 99 18 d3 3d 7b d6 08 3d 81 04 8b 3d
       -0.026725937 0.10307426 0.03340767 0.067879684
0001b0 97 82 13 be a2 d0 af bd 28 66 8c bd 81 b0 32 bc
       -0.14405285 -0.085847154 -0.06855422 -0.01090634
0001c0 72 5e 80 3c 32 7c d5 3d bb cc bc 3d b3 8d ff bc
       0.015670035 0.10424079 0.09218737 -0.031195497
0001d0 28 ae 1e be 2f 16 c2 3c ad 09 b9 3d 99 20 9c 3d
       -0.15496123 0.023692219 0.09035049 0.07623405
0001e0 9c 46 d7 bc 8e 21 20 3e 5d 87 9b 3d 2e 52 0f 3e
       -0.026278786 0.156378 0.07594178 0.13996193
0001f0 02 5a 20 3d 03 b6 04 3e 04 cc 05 be 0f a5 0c 3e
       0.03914834 0.12960057 -0.13066107 0.1373484
000200 d3 f6 32 bd 3c 8a e3 bd fa 28 ba bd 88 4e 79 3d
       -0.04369242 -0.111103505 -0.09089847 0.06086591
000210 73 93 e3 bd 46 57 8c bc b3 e2 aa 3d 24 14 1f be
       -0.11112108 -0.017131459 0.08344021 -0.15535027
000220 21 b9 d7 3d 07 bb a1 3c 66 f2 24 bc c6 2c ac 3b
       0.105333574 0.019742502 -0.010067558 0.005254361
000230 5f 7b 0b 3d d3 5b 38 3d 33 64 b9 bd 6b e2 d7 bd
       0.034053203 0.045009445 -0.090523146 -0.10541233
000240 31 eb 0a be 68 14 06 3e 7a 25 be bc c9 21 f3 3d
       -0.13566281 0.13093722 -0.02321123 0.118716784
000250 fe dd 94 bd f5 b3 ce bb 27 8a 4b bd 0a 5d 0f be
       -0.07268904 -0.0063080736 -0.0496923 -0.14000335
000260 33 3b 83 3d 3c 91 5b be 3c a0 f5 3c 8b 1e 14 3d
       0.06407776 -0.21442121 0.029983632 0.03616194
000270 d8 e3 2e bd 22 3f 22 be 5b 7b d6 3c 5d e6 7b be
       -0.042697757 -0.15844396 0.026181867 -0.24599595
000280 a3 81 08 bd f3 27 ee bd ce cc 13 3d c7 ea f3 3d
       -0.033326756 -0.116287135 0.03608399 0.119100146
000290 34 44 7a 3d 53 67 b1 3c 8c 7d 0a be 65 02 82 bd
       0.0611002 0.021655714 -0.13524455 -0.06348113
0002a0 d4 22 38 bd 6a 2b 14 bc 51 99 d1 bd 54 dc 64 be
       -0.04495509 -0.009043554 -0.10234321 -0.22349674
0002b0 d6 32 83 bd e4 c8 f8 3d 0c ec ae bd 07 c0 0d 3d
       -0.064061806 0.12147692 -0.08541116 0.03460696
0002c0 af e0 8b 3c 53 80 09 3c 6c 68 0a be ce 25 42 3d
       0.01707491 0.008392411 -0.13516396 0.047399335
0002d0 be 0f 10 be e0 dc 09 be 38 b5 4c bd ee b2 0f be
       -0.14068505 -0.13463163 -0.04997751 -0.140331
0002e0 14 a7 35 be 90 6a ee 3c 42 52 c7 3d 8c fc 14 be
       -0.17739516 0.029103547 0.09732486 -0.14549464
0002f0 e4 5c c0 bd 69 2e 05 be 50 15 2b 3d 95 84 50 be
       -0.093927175 -0.13005985 0.041768372 -0.20363076
000300 d3 dd 24 be 3f 34 68 3a 14 9c 0f bc 47 bb 5d bd
       -0.16100244 0.0008857883 -0.008765239 -0.05413368
000310 5a 47 ef bc 75 6b 9d 3b 1b ca 7b 3d 38 f7 8a bd
       -0.029208828 0.0048040696 0.06147204 -0.067854345

weight_ih_l1 f4 [200, 50]
000000 5b 76 59 be 6e 37 df bc 40 49 01 be 66 84 e7 3c
       -0.21236555 -0.02724811 -0.12625599 0.028261375
000010 7c 61 73 be 00 09 83 bc b4 4a 77 be df 22 00 3d
       -0.23767656 -0.015995502 -0.2414959 0.031283256
000020 f7 17 13 3e 00 9e e1 bd 83 12 61 bd 0c e2 fb bd
       0.1436461 -0.11016464 -0.054949295 -0.122989744
000030 d7 cf d1 bd 06 7d 4c be 26 c3 09 bd 23 af 7b 3e
       -0.102447204 -0.19969568 -0.033633374 0.24578528
000040 da 4a 8e 3d f3 cd 45 bd 63 86 43 be 2c b6 84 be
       0.069478706 -0.04829211 -0.19094233 -0.25920236
000050 21 79 2a 3e c1 23 55 be 97 53 b2 3c 58 fa b4 bd
       0.1664777 -0.2081442 0.021768374 -0.08836812
000060 8c 60 d0 bd d8 11 25 be 5b 7e 72 3e 85 52 49 be
       -0.10174665 -0.16120088 0.23681013 -0.19660385
000070 13 0c 88 be df f5 31 3e 29 e7 46 3e 8b f2 0f 3d
       -0.26571712 0.17378949 0.19424118 0.035143416
000080 ab 63 aa 3d 94 c5 79 3e b9 b0 93 be 16 7e 4a 3e
       0.083197914 0.24391776 -0.28845766 0.1977466
000090 c4 e7 19 3e e6 e4 e9 bb 67 85 05 3e f9 37 10 bd
       0.15029818 -0.0071378825 0.1303917 -0.03520963
0000a0 b4 1b 4d 3e b6 78 a0 3d ab 31 98 3d 6e d9 25 3d
       0.20030099 0.07835524 0.074313484 0.04049056
0000b0 d7 74 53 3c b4 9f 89 bc 19 16 22 3e aa a6 13 be
       0.012906275 -0.016799785 0.15828742 -0.14419046
0000c0 84 23 1b bc 5a 7c 11 be 98 73 3e be 05 0c 5b be
       -0.009468917 -0.14207593 -0.18598783 -0.21391304
0000d0 68 ba 83 3d b9 af 0b 3d 85 87 56 3d d1 2f 75 bd
       0.064320385 0.03410313 0.052375335 -0.059860054
0000e0 48 c0 24 be 8b d9 51 bc c1 e6 31 3e c8 38 bd 3b
       -0.16088974 -0.012808214 0.17373182 0.005774591
0000f0 71 1a 6c bd 2d 9a 6e bd 9a 64 48 be 4f 58 65 be
       -0.057642404 -0.058252502 -0.19569626 -0.22396968
000100 12 8e 3d be 9c 0a 23 3e 5c d2 2f 3d 00 67 87 bd
       -0.18511227 0.15922016 0.042925224 -0.066114426
000110 de 43 32 be e3 48 29 be 05 8a b2 3d 9b 31 57 bd
       -0.17408702 -0.1653171 0.087177314 -0.05253754
000120 94 11 5f bd 2d 77 cd bc 68 fd e7 bd c4 53 1b be
       -0.054460123 -0.025081242 -0.1132763 -0.15168673
000130 93 80 f7 3c bc 35 14 be b4 33 5b 3d a8 a8 3f 3e
       0.030212676 -0.14473623 0.053516105 0.18716681
000140 da 20 19 3e e3 6c 9a 3d 90 a3 20 3d 37 fd 74 3d
       0.14953938 0.075403 0.039218485 0.059811797
000150 9f a7 02 be 0a 27 3e bd 4f 48 c1 3d c2 86 81 bd
       -0.12759255 -0.04642395 0.0943762 -0.06324531
000160 f4 c6 1c bd 27 cc 9b 3c 38 2b 2f bd 5c 49 2f 3d
       -0.038275674 0.019018246 -0.042765826 0.04279457
000170 1a c2 70 3c 2f a0 d4 bc 89 b7 52 3e 4f 09 18 be
       0.014694715 -0.025955288 0.20577826 -0.14847301
000180 2c 7e d9 3d 28 9a 37 3c 3c ac 50 3e 20 f2 f5 3d
       0.106197685 0.011206187 0.20378202 0.12009072
000190 4f 53 86 ba 00 72 4d be 1c 31 40 bd 6c a0 1b be
       -0.0010248217 -0.20063019 -0.046921834 -0.15197915
0001a0 7b d8 b7 bd 2a 56 59 be 6d 50 b5 bd e1 df c3 bd
       -0.08976837 -0.21224275 -0.088532306 -0.09564186
0001b0 75 a3 3c 3e 41 60 1c 3d 61 07 e4 bb a3 ba 08 bd
       0.18421729 0.038177732 -0.0069588874 -0.033381116
0001c0 34 9e 55 bd 60 3e 40 be 84 79 51 be 82 df 00 bd
       -0.052152827 -0.18773794 -0.20456511 -0.031463154
0001d0 4c a6 d5 bc 98 0c b0 bd c7 a6 8a bb 76 d9 54 bd
       -0.026080273 -0.08596152 -0.004231307 -0.0519652
0001e0 e0 fc f1 3d ea 28 39 bd 87 d5 42 be d3 87 e9 3b
       0.1181581 -0.045205034 -0.19026767 0.007126787
0001f0 ae 4d 2d 3d 35 3b b0 bd d1 b4 3a 3e f7 25 4a bd
       0.04231041 -0.08605043 0.18233038 -0.049352612
000200 54 ac 11 bd e5 a9 79 3c 32 ee a9 3b cd ed d8 bd
       -0.035564736 0.01523826 0.005185866 -0.10592232
000210 92 e9 1a be 72 b2 11 3c f9 06 27 be ec 3a ef 3d
       -0.15128163 0.008892642 -0.16311254 0.1168116
000220 51 5d 62 3e 94 75 39 3c dc 34 63 3e f8 2b be 3d
       0.2210591 0.011319537 0.22188133 0.0928573
000230 ec 0b 6c 3c 50 1f ff bc 6f 81 a6 3c 65 0b 9f 3d
       0.014407139 -0.03114286 0.02032539 0.07765845
000240 48 2d 4a 3d b4 68 94 3c 68 3e ec bd 01 22 e1 bc
       0.04935959 0.018116333 -0.115353405 -0.027482035
000250 e4 b8 3d 3e 02 f7 ae bc f8 8e 2a be f8 25 8f bd
       0.18527561 -0.021358017 -0.16656101 -0.06989664
000260 aa c4 00 be 96 d1 d6 bb 58 59 df bd bc 2e 9f bd
       -0.12575021 -0.0065557463 -0.10905713 -0.07772586
000270 eb 20 32 be f2 8f 22 3d f5 95 2f bd 97 59 c7 3d
       -0.1739537 0.03968806 -0.04286762 0.09733885
000280 36 fb ac 3b 76 8b 58 bd 44 d9 35 3c 42 cb 21 bd
       0.00527897 -0.052867375 0.011099163 -0.039500482
000290 77 29 bb bd c0 11 57 bc 1b 09 4a bd 46 77 27 3e
       -0.09138768 -0.0131267905 -0.04932509 0.16354093
0002a0 d7 fa 5e be 59 7a c3 bd d0 2f ac 3b 80 9e f2 3c
       -0.21775375 -0.0954482 0.005254723 0.029616594
0002b0 80 21 14 3d e7 31 15 3d da a7 82 bd f8 67 44 be
       0.03616476 0.036424544 -0.063796714 -0.19180286
0002c0 25 b8 8c 3c 02 80 b7 bd 7d e3 be bd a4 58 25 3d
       0.01717765 -0.089599624 -0.09320734 0.040367737
0002d0 90 79 0a 3e 9b a8 03 3d 10 f0 15 be 39 42 63 3d
       0.13522935 0.032143217 -0.14642358 0.055483077
0002e0 59 4e 61 bd a8 b5 5b 3e 9d a0 77 3d 70 72 13 be
       -0.05500636 0.21456015 0.060455907 -0.14399123
0002f0 e3 d5 87 3d 88 9c fe bd 5a 69 7a bd 8a 0c d4 bd
       0.066325925 -0.124322 -0.061135627 -0.10353954
000300 75 6a 88 3d b1 cf b3 3d 90 6e df 3c 1b df ad bd
       0.0666093 0.08779848 0.0272744 -0.084898196
000310 66 78 36 3b 21 cd 94 bd 4d 1a 92 3c b6 72 c8 3c
       0.002784276 -0.07265688 0.017834807 0.024468761
000320 a4 dd 79 be 6b 08 39 3d 93 12 21 be d9 5e dc 3c
       -0.24400955 0.045174044 -0.15729742 0.026900696
000330 6e 54 87 bd ad 05 92 3d 9f ad 42 bd 38 e8 e4 bd
       -0.066079006 0.07129989 -0.04752886 -0.11177105
000340 30 c0 a9 3d 43 af 5d bd d3 d2 95 3d 20 39 00 be
       0.0828861 -0.05412222 0.07315602 -0.12521791
000350 e1 2d 23 be bf 6b 06 be 81 ca 3c bd 25 6c ac 3d
       -0.1593547 -0.1312704 -0.04609156 0.084190644
000360 1e ce 4c 3e 7e d0 77 3c b9 0d 6b be a3 c3 16 be
       0.20000502 0.015125392 -0.22954454 -0.14723067
000370 ee e5 20 bc 30 79 06 3d 28 a8 90 bd 60 09 b5 bd
       -0.0098204445 0.032830417 -0.07063323 -0.08839679
000380 8e 97 63 3d 85 2f 75 bd e8 f1 9b 3d 99 cb 27 be
       0.055564456 -0.05985977 0.07614499 -0.1638626
000390 62 3b 98 bd 72 f0 65 3e 2b 49 85 3e 94 c9 fb 3c
       -0.074332014 0.22455004 0.26032385 0.030735768
0003a0 32 43 88 bd 98 be 23 3e 2b 0a 87 be ac 12 3b 3d
       -0.066534415 0.15990674 -0.26374945 0.045672104
0003b0 15 7b 6d bc 4b 96 86 bd 4d 1d 28 3e af 88 98 bd
       -0.014494677 -0.06571635 0.16417427 -0.07447945
0003c0 f1 0c 0c 3c 2d 78 a8 3c ef ca 0f 3e 69 d2 5b bc
       0.008548007 0.020565117 0.14042257 -0.013416865
0003d0 83 e9 23 3e 36 96 7a bd e9 38 91 bd 15 ad c9 3b
       0.16007046 -0.06117841 -0.07090933 0.006154666
0003e0 56 31 23 3d 61 c2 5b bc f4 9e ae 3d e5 13 1c 3d
       0.039841972 -0.013413043 0.08526412 0.03810491
0003f0 41 c1 1a 3c 30 b6 a7 3d 58 41 2c 3d 67 7e 60 bd
       0.009445489 0.081890464 0.042054504 -0.054808047

weight_hh_l1 f4 [200, 50]
000000 54 b2 27 3d 01 0f 23 3d 25 90 93 3e bc bb 6f 3c
       0.04094155 0.03980923 0.2882091 0.014632162
000010 a5 7a 0b be 0e f5 ea 3c 90 ce 49 be 27 01 47 be
       -0.13621004 0.028681304 -0.19707704 -0.19434033
000020 29 ae 9d 3d ab e4 4a be b3 f6 09 be 83 d5 c9 bc
       0.07699234 -0.19813792 -0.13473015 -0.024637943
000030 cc 85 7f 3b a4 80 d4 bd c8 fe d1 bd 82 9b 07 3d
       0.0038989661 -0.10376099 -0.10253674 0.03310729
000040 bb 94 76 be 44 79 8e 3b ec 4b 21 be 2b fc 70 bc
       -0.24080174 0.004347952 -0.15751618 -0.014708559
000050 d7 d7 4f bb a2 1b f7 3c a2 de 13 bd b9 6d 9b 3d
       -0.0031714344 0.030164544 -0.03610099 0.07589287
000060 19 cb 8d 3e b3 e0 61 3d 0b c0 8b 3e 16 91 67 3d
       0.27694014 0.05514593 0.27294955 0.05653485
000070 d3 10 f0 3c b0 48 91 be 3b 5f a7 bd ce 61 70 be
       0.029304897 -0.2837577 -0.08172461 -0.2347481
000080 82 1a d7 3d 6b e1 cc bd 6a c8 3b be e8 19 40 be
       0.10503103 -0.100039326 -0.1833817 -0.18759882
000090 af 55 a0 3b c1 fa 24 bc 79 0e 9f 3d 06 a7 e2 bc
       0.004893027 -0.01006955 0.07766432 -0.027667534
0000a0 da 15 3d bc 0b fc ff ba 43 cb 39 3d ca 6c 5a 3e
       -0.011540854 -0.0019530071 0.04535986 0.21330562
0000b0 e1 d9 04 3e 33 fb 34 3d b7 4b b4 3d 44 24 72 3d
       0.12973739 0.044184875 0.08803504 0.059116617
0000c0 b5 0d 5b 3d eb 1b 4e be 83 4c 8a 3d e4 30 f1 3d
       0.05347987 -0.20127837 0.06752875 0.11776903
0000d0 14 d7 ea 3d b1 b7 fc 3d 40 25 8b 3d 20 b9 e8 3c
       0.11466804 0.12339724 0.06794214 0.028408587
0000e0 e4 0b e8 bd de 92 c2 bd db 69 3e 3e 85 3e 49 be
       -0.11330393 -0.09500669 0.18595068 -0.19652756
0000f0 3a 95 42 3d f1 94 2b be 33 f9 99 bc e4 9a 10 be
       0.047505595 -0.16756035 -0.018795585 -0.14121586
000100 5b b3 45 be bb 6e e4 bc fd 84 db bc 0e d8 c4 3c
       -0.193067 -0.027884832 -0.026796812 0.024028804
000110 76 7a 09 3c 4d 3c 0e 3d 23 c2 23 3b 95 3d 1c bd
       0.008391013 0.034725476 0.002498754 -0.038144667
000120 c9 7a 53 be ce c2 af 3d d3 c5 e4 3d 8c 5c 1f 3e
       -0.20652308 0.08582078 0.111705445 0.15562648
000130 36 c7 bc 3c e5 7b 3c bc eb 40 1d 3e b0 a0 40 be
       0.02304421 -0.011504148 0.15356795 -0.18811297
000140 a4 34 5f 3d 99 30 05 3d a0 a5 f5 bc bf aa d3 bc
       0.05449356 0.03251705 -0.029986203 -0.025838254
000150 e5 78 27 be 18 80 9f b9 97 a6 f2 3d 63 22 f8 bd
       -0.16354711 -0.0003042228 0.11848181 -0.12115934
000160 e4 53 31 bd 69 ca 4b be 96 a0 66 3d fc 9d cb 3d
       -0.043292895 -0.19901432 0.05630549 0.099422425
000170 f4 74 44 bd 0f 84 a2 bb 72 d5 eb 3d cc 09 c0 3c
       -0.047963098 -0.0049595903 0.11515321 0.023442172
000180 37 70 8c 3d 37 f7 a5 3d a3 7e c2 3d a7 c3 36 be
       0.06857341 0.08103793 0.0949681 -0.17848073
000190 42 3b 1d 3c 9b 9c 2d 3e 2e 7e 69 bd 72 c0 a8 3d
       0.009596648 0.16954271 -0.0570051 0.08239831
0001a0 06 cb 40 be 63 3c c0 3d 65 37 7d be 1e 95 82 be
       -0.18827447 0.09386518 -0.24728163 -0.25504392
0001b0 cc be 23 3d 73 7b a1 bd 07 da 79 bd 45 f6 17 bd
       0.03997688 -0.07884874 -0.060998943 -0.037100095
0001c0 fc 35 bc bd e4 ff 2d be 43 8a 50 bd c8 61 3f 3e
       -0.09189984 -0.16992146 -0.050913107 0.18689644
0001d0 48 41 d6 bd 31 72 44 3c 74 8a 69 bd d9 05 1c bc
       -0.1046167 0.011990116 -0.057016805 -0.009522879
0001e0 18 1a 06 3d c9 33 ec 3d 74 88 5f be e4 04 d6 3b
       0.03273973 0.11533315 -0.21829396 0.0065313447
0001f0 1b 01 86 bd ea 8a ee 3d 5d ca 82 3e f6 09 06 3e
       -0.065431796 0.116475895 0.25545016 0.13089737
000200 ce d8 a8 3d 20 7f d9 3c 8f 67 5b be f2 6f 6b bc
       0.08244477 0.026549876 -0.21426223 -0.014369952
000210 0e 33 34 3e 66 a9 3f be ad c8 12 be 58 39 47 3c
       0.17597601 -0.18716964 -0.14334364 0.012159668
000220 8f e5 40 3e 14 81 e3 3b c0 8c 0a 3e 09 29 7f be
       0.1883757 0.0069428775 0.13530254 -0.24917997
000230 5f 36 f6 bd 11 b7 a0 bc c4 5e 81 3d ba 5e d8 bd
       -0.12022089 -0.019618543 0.06316903 -0.10564943
000240 5c 5b 23 3e 0d 38 39 3e 39 80 a9 3d b1 ad f2 3d
       0.1595282 0.18087788 0.0827641 0.11849535
000250 a2 1f a2 bd e3 54 ce bd b7 28 9a 3c 57 a5 1b 3d
       -0.0791619 -0.100747846 0.018818242 0.037999477
000260 9f 24 4b bd ad d3 03 bd 9a aa 51 bd 88 25 bb 3d
       -0.04959547 -0.03218429 -0.05118809 0.09138018
000270 29 04 1a bd e5 09 30 be 3e 11 46 bd cb 9e 1d 3d
       -0.037601624 -0.17191274 -0.048356287 0.038481515
000280 97 8e 36 be f0 78 8e bd b9 78 98 3d ea 93 2a be
       -0.17827831 -0.06956661 0.07444901 -0.16657987
000290 35 fe 30 be 69 de 58 3e c1 03 ba bd b3 89 ac bd
       -0.17284472 0.21178593 -0.09082747 -0.084247015
0002a0 c6 38 28 be 07 69 a0 3b 92 ff 01 3d 8e 0f 92 bc
       -0.16427907 0.0048953327 0.03173787 -0.017829683
0002b0 2d c2 bc 3c 9b 1a 18 3d db 0e e4 bd 72 a9 01 3e
       0.023041809 0.037134748 -0.11135646 0.12662295
0002c0 45 4a 84 3d c6 34 85 3d cf 53 d6 3d 9b 86 5a be
       0.06459478 0.06504206 0.10465204 -0.2134041
0002d0 9e fd f6 bd 44 7b c6 ba ec 91 8a 3d 54 59 27 bd
       -0.120600924 -0.0015142937 0.06766114 -0.040856674
0002e0 b8 f9 54 3d a6 b6 d2 bd e4 40 0a 3e 81 27 3c be
       0.051995963 -0.10288744 0.13501316 -0.18374445
0002f0 e1 47 a0 bc 09 e4 c8 3c a4 e1 0f 3e 64 3c a3 3d
       -0.019565525 0.024522798 0.14050919 0.07970503
000300 0f a6 3c bd 5a 9a 10 bc 79 4e 86 3d 53 14 43 3d
       -0.046056803 -0.008825863 0.06557936 0.047626805
000310 1e fe 47 3c 0c 52 ba 3c 28 ab c9 bd 5b e9 20 be
       0.012206582 0.022744201 -0.098470986 -0.15714018
000320 01 2d 24 bd c0 a5 d8 3c 81 00 52 3e bb 36 a4 3d
       -0.04008198 0.026446223 0.20508005 0.080182515
000330 3d fa 5e 3c 57 1e 3e 3e bb f8 80 be 47 d4 88 be
       0.013609466 0.18566261 -0.25189766 -0.26724455
000340 18 1a 0e 3e d7 91 0b be 09 c7 ee bd 44 b3 a4 bc
       0.13877141 -0.13629852 -0.11659057 -0.020105012
000350 b0 82 97 3d d5 90 80 be 2a 0c 12 be 54 b9 19 3e
       0.073979735 -0.25110498 -0.14262453 0.15012103
000360 5a 2f 0d be b1 7d 2e be 05 a6 30 be f1 14 59 be
       -0.13787594 -0.17040135 -0.17250831 -0.21199395
000370 2f 0c f7 3d e1 a8 87 3e 2b 50 7b be 36 e0 30 3d
       0.12062871 0.26496032 -0.245423 0.043182574
000380 84 14 31 3e 64 ef 27 3e 29 c6 40 3e 98 ad 07 3d
       0.17292982 0.16399914 0.18825592 0.033124536
000390 52 7e 07 3e 7c 59 83 be 4a bf 5d be 86 ff d4 bb
       0.13231781 -0.2565421 -0.21655002 -0.0065001873
0003a0 02 d7 b7 3d 02 7c a1 3a eb d5 cf bd 0f 95 c0 3c
       0.08976556 0.0012320282 -0.101482235 0.023508577
0003b0 6d 68 f3 3d 78 17 62 be 9a 51 ea 3d 47 5d 51 be
       0.11885152 -0.22079265 0.114413455 -0.20445739
0003c0 98 a8 57 bd 6b 83 97 3c 67 8e 13 3e b3 b6 d2 3d
       -0.052651018 0.018495282 0.14409791 0.10288753
0003d0 bb 60 9d 3d 24 ec 05 3e 21 2e a0 3d 02 fa b9 3d
       0.076844655 0.13078362 0.078212984 0.09080888
0003e0 18 65 c5 bb ab c2 5e be 05 fe 94 3d 5a 3f 1a bc
       -0.006024014 -0.21753947 0.07275013 -0.009414518
0003f0 c5 38 77 3c 4d 61 c0 3d 13 88 4f 3d 8f a1 93 3d
       0.0150892185 0.09393559 0.05066688 0.07208549

bias_ih_l1 f4 [200]
000000 56 8f 85 be fc 80 c0 3c ea c9 6a bb 7d fb 38 be
       -0.2608592 0.023499005 -0.0035825917 -0.18064685
000010 ef 9b ba bd 4b 99 9f bc 34 f3 b4 bd ec cf 92 bd
       -0.09111773 -0.019482275 -0.0883545 -0.07168564
000020 4c 40 9c bc 6d f3 a5 bd ea cc dd bc 24 e1 08 bc
       -0.019073628 -0.081030704 -0.02707525 -0.008354459
000030 2a bc 52 be 3a 68 5d 3e fa a6 39 bd 9b 8b 6a be
       -0.20579591 0.2162179 -0.045325257 -0.22904818
000040 83 fa d9 3d b2 28 9f bd 26 aa b9 bd 49 f8 96 3c
       0.106434844 -0.07771434 -0.09065656 0.018428938
000050 87 02 29 be cb 51 46 3d 81 42 cd 3d 2c a6 ba 3c
       -0.1650487 0.048417848 0.1002245 0.022784315
000060 41 10 9e bc ca 93 1d be d1 f8 0c be ab c9 1b be
       -0.01929486 -0.15388408 -0.13766791 -0.15213649
000070 5c 9f f0 3c 70 eb 04 be 5d cb e7 bd 69 33 d3 bc
       0.029372863 -0.12980437 -0.11318085 -0.02578135
000080 74 cf b0 bc b3 65 56 be 77 45 0e bd 1b f9 4a bc
       -0.021583296 -0.20937233 -0.034734216 -0.012388493
000090 2e df 42 3e 20 15 36 3d ca 0a e5 bd b2 75 ec bc
       0.19030449 0.04445374 -0.111836985 -0.028864715
0000a0 0c ad 3a be 61 bc a9 bc 83 04 0e 3d e2 f7 2e be
       -0.18230075 -0.020719709 0.03467227 -0.17086747
0000b0 da 69 4f 3d 5f 2e 26 3e 06 a9 1f bc f3 16 1b 3d
       0.050638057 0.16228627 -0.009744888 0.037863683
0000c0 1e e5 42 be ba d4 e8 3b 6c 47 88 be 98 0d e0 bb
       -0.19032714 0.007105437 -0.2661699 -0.006837558
0000d0 08 20 17 bd df 9e 53 be d5 a4 3a bd ec 88 76 3d
       -0.03689578 -0.20666073 -0.045567352 0.060189173
0000e0 c1 4c 09 3e 48 9f a2 bd 83 43 c0 3d 9c 18 82 3d
       0.13408186 -0.07940537 0.09387877 0.0635235
0000f0 c0 09 3c 3d d4 ab 92 bd 45 64 62 bd cd cd 3b bd
       0.045907736 -0.0716168 -0.055271406 -0.045850564
000100 37 10 e9 bc ae d7 d9 bd 79 a9 0c be 2a 7c da bd
       -0.028450115 -0.10636841 -0.13736524 -0.10668214
000110 ec 4a f8 3c 39 35 80 bd 01 2d ea 3a 14 11 ff bc
       0.030309163 -0.062601514 0.0017866195 -0.031136073
000120 f5 b6 f4 bd 5d d3 d7 bd f5 87 db bd 67 04 9b bd
       -0.11948959 -0.10538361 -0.10719291 -0.07569199
000130 a1 1b 18 3d bb 5a 01 be 6b 04 82 3d 2e c6 0e bc
       0.037135724 -0.12632267 0.06348499 -0.008714242
000140 e2 fc e9 3d 50 fe 95 bd c9 54 49 3c 2e 81 e4 bc
       0.11425187 -0.07323897 0.012288281 -0.027893629
000150 58 6c b9 3d e0 0c 63 be a8 0e 66 bc d9 93 89 bd
       0.09053868 -0.2217288 -0.01404158 -0.06717653
000160 e7 51 c2 bd a4 0b ca 3d 44 18 e2 bc 20 09 1b be
       -0.09488278 0.098655015 -0.027599461 -0.151402
000170 62 2f bb 3b e7 6c 24 be 00 bc c4 bb 30 43 be bd
       0.0057124356 -0.16057168 -0.0060038567 -0.09290159
000180 d4 dd fe bd ae ea 04 3e 86 85 d0 3b 78 43 0f 3e
       -0.12444654 0.12980148 0.0063635735 0.13990581
000190 fd 6e cb bd c7 ba 96 bc 1f 71 c6 bd 11 1e 31 bd
       -0.09933279 -0.01839961 -0.09689545 -0.043241564
0001a0 c9 72 37 3d 9c f6 40 be 43 5a 86 3d 00 e6 aa 3c
       0.044787202 -0.18844074 0.06560185 0.020861626
0001b0 ff 88 41 be d8 3e 1c bd 43 f7 06 3e 34 e5 bf 3c
       -0.18899916 -0.03814587 0.1318026 0.023424722
0001c0 a4 46 51 bc 43 01 83 3e 45 b6 54 3e 1d 54 b1 bd
       -0.01277319 0.255869 0.20772655 -0.086586215
0001d0 39 a8 8d 3d 95 08 17 bc e3 16 18 3d 24 c2 d8 3c
       0.069168516 -0.009218355 0.0371312 0.026459761
0001e0 03 10 c4 bd 17 7f 1c be a6 e9 57 3c 83 be 5c bd
       -0.095733665 -0.15282856 0.013178265 -0.053892624
0001f0 be d4 1e be 8d d5 be bd 11 da 76 3c c0 c4 c5 3d
       -0.15510842 -0.09318075 0.0150666395 0.09656668
000200 16 10 48 be 4e 4b c6 3d 03 f0 c9 3a 37 a6 dc 3d
       -0.19537386 0.09682332 0.0015406612 0.107738905
000210 a9 89 1e be fd 1e 0f 3e a7 08 f6 bc 82 b3 ee bc
       -0.154822 0.13976665 -0.030033423 -0.02913833
000220 e1 ea 50 be f7 c8 78 3d bb 0f a0 3d 21 db 44 3e
       -0.20402099 0.06073853 0.078155 0.19224216
000230 c8 80 84 3c f8 12 82 ba bc a5 46 be 15 4c 01 be
       0.016174689 -0.0009923866 -0.1939916 -0.12626679
000240 9d 45 b4 bc ff 85 2f be bf a9 8f 3c 8b ed 49 be
       -0.02200585 -0.17140959 0.017536996 -0.19719522
000250 37 6a ae bc f5 1d 71 3e 4b 5a 26 be a2 75 e0 bd
       -0.021290882 0.23546584 -0.16245382 -0.10959937
000260 a7 3d 2e be 57 09 78 3c 18 7c 44 be 91 51 8e bc
       -0.17015706 0.015138946 -0.19187963 -0.017372878
000270 f0 eb b4 bd 83 ed cb bd 4b 85 8e 3d eb c1 f0 3d
       -0.08834064 -0.09957411 0.06959017 0.11755737
000280 50 84 01 3d ac 3d 23 be c8 e5 37 be 87 8b 14 bc
       0.031620324 -0.15941495 -0.17958748 -0.009066469
000290 26 16 cc bd d5 1c 90 bd f9 56 67 3d 2c cd 69 be
       -0.09965162 -0.07036749 0.056479428 -0.22832173
0002a0 c4 4d d9 3c 73 bb ac 3a 61 b1 88 bd 75 51 14 3d
       0.02652634 0.0013178423 -0.06674457 0.036210496
0002b0 2d 2a 05 be 4a 95 16 bd 69 77 6c be 40 e5 c2 bd
       -0.1300437 -0.036763467 -0.23092426 -0.09516382
0002c0 b4 37 19 bd d7 f2 60 be f4 2a c6 bd 8d 9c 31 3d
       -0.03740664 -0.21967636 -0.096761614 0.04336219
0002d0 2e 6a ce 3d a2 17 f5 bd 3a e2 04 3d eb a7 db bd
       0.10078846 -0.11967398 0.03244231 -0.10725387
0002e0 47 45 ee 3d 4b 88 1d be d8 e2 4e bd b3 c9 6e bd
       0.11634307 -0.15384023 -0.050509304 -0.058297824
0002f0 5e 92 8e be e5 94 b4 3d bd f5 92 ba a1 64 7b 3a
       -0.27846044 0.08817462 -0.0011212152 0.0009589885
000300 c8 7d 2b 3e f6 c8 12 be 19 c1 15 be 78 4b b7 3d
       0.167472 -0.14334473 -0.14624442 0.089499414
000310 0a d8 e2 bd a9 af 05 3e 7f 16 f9 bd c9 bf 18 bd
       -0.110763624 0.1305529 -0.12162494 -0.037292276

bias_hh_l1 f4 [200]
000000 43 2d 8b be 0a 87 e8 bd dd 8e 5a be 72 5e 38 be
       -0.2718297 -0.11353882 -0.2134356 -0.18004778
000010 38 35 0d be 4a 54 22 bd 87 c7 cf bd 0a b2 a6 3d
       -0.13789833 -0.039631166 -0.10145479 0.08139427
000020 06 f6 24 bd f9 7e b9 3d c8 9e eb 3d b4 37 31 be
       -0.04027369 0.09057421 0.115048945 -0.17306405
000030 ae 92 d9 bc b1 c5 63 3d da a8 3b 3d ec f0 c6 bd
       -0.0265592 0.055608455 0.045815326 -0.09713921
000040 89 41 e2 3d 3b 48 3a be 16 fa 25 3d 7f 8b 40 3d
       0.11047656 -0.18191616 0.040521704 0.047008034
000050 29 1a 07 bd ee 1b 01 3d 7a b4 e7 bc 21 63 19 be
       -0.032983933 0.031520776 -0.0282843 -0.14979221
000060 c3 59 68 be 8a 14 0d be 27 a6 c0 bd d4 96 84 bd
       -0.22690491 -0.13777366 -0.09406691 -0.06474081
000070 21 ff c1 3c 80 4b e3 bd 05 40 23 3e 44 a2 8b bd
       0.023681225 -0.11098385 0.1594239 -0.06818059
000080 eb 9f 0b 3e ee a3 13 be 47 60 bb bc ab 64 7c 3c
       0.13635223 -0.14418003 -0.022873057 0.0154048605
000090 34 61 55 3e 61 c5 ce bc c2 de 7f bd bb 30 89 bd
       0.20837861 -0.025240602 -0.062468298 -0.06698748
0000a0 59 38 14 3d ba 3c a2 bd 31 b8 22 3d 5d 6f 31 3d
       0.03618655 -0.07921739 0.03972644 0.043319095
0000b0 48 50 12 be d7 fd 7a bd 44 c9 06 be 4c 53 22 bd
       -0.14288437 -0.061277237 -0.13162714 -0.03963022
0000c0 9a ca 2c 3b a6 7a 83 3d 6a 12 af bc a3 9d 8b bd
       0.0026365877 0.06419878 -0.021371085 -0.06817176
0000d0 e1 5e 36 be fa 17 2b 3d cd 28 a6 bd 6a 2f 80 3d
       -0.17809631 0.041770913 -0.08113251 0.062590435
0000e0 64 fd af bc bf 23 c5 bd 82 32 86 bd 12 f7 af 3d
       -0.02148313 -0.09625959 -0.06552602 0.08592047
0000f0 23 9a 58 3d 5c 80 50 3d 55 49 6e bd f3 9b dc 3c
       0.05288137 0.050903663 -0.058175404 0.026929831
000100 69 f9 3d 3e 2a f3 1a be ba 40 08 be 57 67 c7 bd
       0.18552174 -0.15131822 -0.13305941 -0.097365074
000110 f0 99 35 bc 43 0b da bd 07 16 e7 bc e7 96 84 bd
       -0.011084065 -0.10646679 -0.028208746 -0.06474095
000120 8e 85 d9 bd c5 ab 00 bd 4f 75 d8 bd 67 2a 3d be
       -0.10621177 -0.031413812 -0.1056925 -0.18473206
000130 5a 92 04 be fa 19 2b be a3 ab bc bd 8d bb 34 b9
       -0.12946454 -0.16709128 -0.092124246 -0.00017236006
000140 1f e6 b3 3d 62 3b 32 be 72 67 02 3d 58 73 ea bd
       0.087841265 -0.17405465 0.031836934 -0.11447781
000150 5b 02 a8 ba a1 db b7 bd af ed 01 3e f5 9a 68 bd
       -0.0012818085 -0.08977438 0.12688325 -0.056788404
000160 74 ad 59 be d7 8e a8 bd 7a 1c 09 3c 53 39 08 be
       -0.21257573 -0.082303695 0.008368606 -0.13303117
000170 4b 00 fd 3c c7 91 a7 bd 78 6c 2d bd a0 97 41 bd
       0.030883929 -0.08182102 -0.042339772 -0.04726374
000180 70 5b cc bd da 58 b7 bd 76 6a 07 be 69 cb d3 3d
       -0.09978378 -0.08952494 -0.13224205 0.10341532
000190 16 22 aa 3d 30 98 ea 3d fd 0f c7 bd 33 2a 26 3c
       0.083072826 0.11454809 -0.097198464 0.010141897
0001a0 8a a9 16 3e eb 45 68 be eb 69 00 3e 53 a1 37 3e
       0.14713112 -0.22682922 0.12540404 0.17932634
0001b0 8a 53 8f bd 06 0c 65 3e 94 ed 86 3e 9e 19 c6 3d
       -0.06998356 0.22367868 0.26353133 0.09672855
0001c0 d4 63 c5 39 ce d5 98 3d ed 61 73 3e 90 ab bc 3d
       0.00037649146 0.07462655 0.23767824 0.092124104
0001d0 e8 c0 31 3e 01 d8 d0 3d be d2 83 3b d2 ce ea 3d
       0.17358744 0.101974495 0.004022925 0.11465229
0001e0 71 fd fc bd 4c cc 37 3c c4 ed 43 3e 40 78 16 3d
       -0.123530276 0.011218142 0.19133669 0.036735773
0001f0 21 56 fc bd 57 76 48 bd ac 57 0e be f5 6b 19 be
       -0.12321115 -0.048940983 -0.13900632 -0.14982589
000200 0d 7e 4f be 48 06 c9 3d 98 ae 47 3e e1 a1 e9 3d
       -0.20262928 0.09815651 0.19500196 0.11407829
000210 ff 22 58 be ae 72 8e 3d 76 3b 51 3e a8 25 22 3c
       -0.211071 0.06955467 0.20432839 0.009896673
000220 d1 e8 6b be 4f 85 f6 3d 88 63 9e bd a6 c3 4b 3e
       -0.23038031 0.12037145 -0.07733828 0.19898853
000230 04 6c df 3b f6 5d 82 bd cd 41 4c be 9c 14 ef bc
       0.0068182964 -0.06365578 -0.19946976 -0.029184632
000240 c9 2f 3a bd e3 e9 ab bd 61 f8 13 bd cc 09 10 bd
       -0.045455728 -0.0839422 -0.036125544 -0.035165593
000250 99 24 bd 3c 46 eb 16 3e 6c e9 d9 bd 2f b5 15 bd
       0.02308874 0.14738187 -0.10640225 -0.036549743
000260 86 28 60 be 2f 44 23 bd ef 7a 81 bd 78 e9 e8 bd
       -0.21890458 -0.039859947 -0.06322276 -0.11372656
000270 6e 89 13 be 1c 53 87 3b 39 3b 3f 3d 54 10 3b bd
       -0.14407894 0.0041297805 0.04668734 -0.04566987
000280 54 21 2c bd 64 02 ab 3d 57 50 8c bd 0b f2 05 3d
       -0.04202397 0.08350065 -0.06851261 0.032701533
000290 74 ed 24 bd 16 28 eb bd c9 15 3d bd 51 7b a3 bb
       -0.040265515 -0.11482255 -0.046163354 -0.0049890657
0002a0 be 4d d6 bd 67 55 d5 bd 13 80 0b be 9d e0 0d be
       -0.10464047 -0.1041668 -0.13623075 -0.13855214
0002b0 92 9b dc bc 3a b7 09 3c e4 02 1a be 2d c1 d4 bd
       -0.02692965 0.008405501 -0.15040165 -0.10388408
0002c0 c7 07 d8 bd 7e b8 58 be 6c 2d 7d bc 08 43 a3 3d
       -0.105483584 -0.21164128 -0.015452724 0.079717696
0002d0 17 ee 43 3d 51 e8 c9 bc 0a 3c f0 3d 0f c9 53 be
       0.047834482 -0.02464691 0.117302015 -0.20682167
0002e0 5f ad 0b 3b e7 2e f0 bd c2 83 41 bd 6e 79 dc bc
       0.0021313054 -0.11727696 -0.047244795 -0.026913371
0002f0 cc 18 86 be 12 9c e5 bd 84 f8 3f 3d 68 e5 01 be
       -0.26190794 -0.11211409 0.046867862 -0.12685168
000300 70 03 87 3d ff 42 b2 bd e1 87 94 bc c6 12 13 3e
       0.065924525 -0.08704185 -0.018131198 0.1436263
000310 f5 dd 42 be 60 57 db 3d 84 25 58 be ca b3 15 3e
       -0.19029982 0.10710025 -0.21108061 0.14619365

weight f4 [1, 50]
000000 05 01 32 3c 2b bd 9b 3d ae 55 fc bb 9d 70 63 bd
       0.010864501 0.0760444 -0.0077006435 -0.05552732
000010 91 3b c4 3b 0a a5 d8 bd ba c3 4b 3d 8e 46 b1 3b
       0.005988546 -0.10578354 0.049747206 0.005410022
000020 aa a9 94 bd c1 20 76 3d b2 55 ee 3d cb 73 16 3d
       -0.07258923 0.06008983 0.11637439 0.036731523
000030 89 95 6a bc a9 3e 03 3e 99 f5 42 3d c8 3f cf 3c
       -0.0143178785 0.12816872 0.0475975 0.025298968
000040 7e 82 bd 3d 71 e4 b2 bc 17 3d c0 3d f4 fa c5 3d
       0.09253405 -0.021837445 0.09386652 0.09667006
000050 4b 40 8e ba 73 47 5a bd 8c ed ed 3c 2a ac 98 bd
       -0.0010852901 -0.053290796 0.029043935 -0.07454713
000060 e3 02 bf 39 57 a8 94 bc fa fb 27 bd 5e 05 cc 3c
       0.0003643251 -0.018146677 -0.041011788 0.024904903
000070 b5 ce a5 bd f7 ef 89 3c 8a c3 a3 3d 83 56 56 bc
       -0.08096067 0.016838057 0.079962805 -0.013082149
000080 b2 f2 0c be 51 c0 c4 bc 03 f2 a6 3d 5c 00 42 3d
       -0.13764456 -0.024017485 0.08151629 0.047363624
000090 e1 98 d3 bd 96 c3 93 bb 4c 46 13 3c bf 6d 93 3d
       -0.10331894 -0.0045093996 0.008988928 0.07198667
0000a0 56 77 82 bd 07 fb 14 3d 60 18 fd bd ec d0 a2 bd
       -0.06370418 0.03637221 -0.12358165 -0.07950005
0000b0 d0 f5 25 3d 31 57 19 be 65 2e 54 bd 17 89 07 bd
       0.04051763 -0.14974667 -0.051802058 -0.033089723
0000c0 66 44 09 3c a7 d8 0e 3e
       0.008378124 0.13949834
