train_model_hourly/best_model_3.pth (torch, 127927 bytes, 9 tensors)

weight_ih_l0 f4 [200, 1]
-0.24096073 0.07730826 -0.03844623 0.04258834 -0.07650943 -0.11804841 -0.07533027 0.0045770276
0.02014084 0.0075558997 -0.0477651 -0.06656956 -0.10545366 -0.09162522 0.01208045 0.069037415
0.0147788245 0.050036803 0.0038070579 0.014119489 -0.05270913 0.100473136 0.08202107 -0.08251891
-0.022554476 -0.1643396 -0.01829871 -0.0035879952 0.0020122256 -0.08496965 -0.13108036 -0.08067784
-0.11682686 -0.093757026 -0.25644055 -0.15194432 0.03553318 0.058322486 0.044504784 -0.11799854
0.014875292 -0.020084184 -0.029173857 0.046439376 -0.0044224607 -0.004350167 -0.1361546 -0.005055822
-0.014620798 0.07844745 -0.1631317 -0.15420184 -0.17039676 -0.22419153 0.099995576 -0.02616093
-0.07527803 0.06983865 -0.13724011 -0.012312202 0.04259303 -0.12735403 0.1096638 0.047252703
-0.0032473952 0.005451273 -0.021250198 -0.15587564 -0.20218296 -0.12160981 0.042916957 -0.124781676
0.0022405887 0.06342965 -0.01643295 -0.10814413 -0.19851904 -0.13767573 0.11932582 -0.30363163
-0.07039894 0.013550008 -0.08241121 -0.21071877 -0.05181872 -0.027548691 -0.11637979 -0.033270825
-0.014547908 -0.0926997 -0.08926288 -0.0046176948 0.059843935 0.086645156 -0.056015924 0.03694557
-0.17306684 -0.06265651 0.03260504 0.02956468 -0.019054776 0.029934132 0.038537636 -0.019943967
0.10491578 -0.1293719 0.13522503 0.026305543 -0.018997394 -0.09325453 -0.07488898 -0.045512766
-0.046219856 -0.09989091 0.03987229 0.04530054 -0.03450596 0.009032124 0.00079512753 0.038254533
-0.12566599 0.11558918 0.043319494 -0.046737056 -0.04138297 -0.10616173 -0.13559112 -0.058446802
-0.03597238 -0.041205235 0.12730226 0.098839626 0.08039708 0.11869289 0.08044957 0.03363442
-0.008616528 -0.046673447 0.11910843 -0.15313506 0.08421238 -0.16431351 0.1053294 0.089332685
-0.062990576 0.013397847 -0.021991605 -0.16467606 -0.010765328 0.090228096 -0.18623118 -0.03076127
-0.1975139 -0.16932201 -0.066154696 -0.09937051 -0.19992973 -0.043868702 -0.16539967 -0.1920284
-0.04663597 -0.14723423 0.11819814 0.028489793 -0.0074776984 -0.16934934 0.01431027 0.04221822
-0.12659141 -0.049064662 -0.07126356 -0.13006768 -0.1176406 0.014879303 -0.14090602 -0.03468231
0.019683147 -0.1581321 0.04346152 -0.123245604 -0.032452967 0.06721609 -0.046994396 -0.19800016
-0.0996005 -0.036088217 -0.07887139 0.081847124 -0.041178647 0.101579145 0.10018986 0.050398402
0.10370427 0.08692307 -0.0958401 -0.14041463 -0.19729137 -0.0011591228 0.0049407803 -0.12911646
00000000: 69be 76be cb53 9e3d cb79 1dbd 1c71 2e3d
00000010: fab0 9cbd 5dc3 f1bd c246 9abd e4fa 953b
00000020: 67fe a43c 7b97 f73b 56a5 43bd 9f55 88bd
00000030: 17f8 d7bd 01a6 bbbd 14ed 453c 7d63 8d3d
00000040: e222 723c 64f3 4c3d d57f 793b 6e55 673c
00000050: 87e5 57bd dcc4 cd3d aafa a73d adff a8bd
00000060: 2ac4 b8bc a448 28be 2de7 95bc 9224 6bbb
00000070: 8bdf 033b 9104 aebd ee39 06be 6c3a a5bd
00000080: ec42 efbd af03 c0bd 2d4c 83be 4b97 1bbe
00000090: 3d8b 113d 8fe3 6e3d a64a 363d 38a9 f1bd
000000a0: 7fb7 733c 9687 a4bc 03fe eebc 3737 3e3d
000000b0: 4aea 90bb d88b 8ebb 1d6c 0bbe 4fab a5bb
000000c0: 128c 6fbc 0fa9 a03d ff0b 27be 16e7 1dbe
000000d0: 7d7c 2ebe 7792 65be 7bca cc3d 724f d6bc
000000e0: 5e2b 9abd 9107 8f3d ac88 0cbe 1eb9 49bc
000000f0: 0776 2e3d 1869 02be 6a97 e03d 0d8c 413d
00000100: 40d2 54bb 98a0 b23b e514 aebc dd9d 1fbe
00000110: 0d09 4fbe 900e f9bd b1c9 2f3d 898d ffbd
00000120: d7d6 123b 68e7 813d 659e 86bc ab7a ddbd
00000130: 9348 4bbe defa 0cbe 1861 f43d 9b75 9bbe
00000140: 522d 90bd da00 5e3c 35c7 a8bd a9c6 57be
00000150: de3f 54bd cbad e1bc 8758 eebd fd46 08bd
00000160: 595a 6ebc 57d9 bdbd 75cf b6bd 0850 97bb
00000170: ea1e 753d 0473 b13d f470 65bd 3d54 173d
00000180: 6f38 31be 0e52 80bd dd8c 053d a131 f23c
00000190: c318 9cbc 6d38 f53c a4d9 1d3d 8861 a3bc
000001a0: 16de d63d 117a 04be 6e78 0a3e b97e d73c
000001b0: 6ca0 9bbc 3bfc bebd 655f 99bd 986b 3abd
000001c0: 0851 3dbd 9b93 ccbd 2051 233d 0f8d 393d
000001d0: 1f56 0dbd 79fb 133c 1b70 503a c9b0 1c3d
000001e0: 96ae 00be 05ba ec3d c86f 313d 5b6f 3fbd
000001f0: 3081 29bd 526b d9bd 66d8 0abe ea65 6fbd
00000200: c657 13bd d2c6 28bd 865b 023e 6e6c ca3d
00000210: 39a7 a43d 4215 f33d bfc2 a43d 3fc4 093d
00000220: 562c 0dbc a82c 3fbd 1fef f33d 70cf 1cbe
00000230: 8a77 ac3d cd41 28be f1b6 d73d 0ef4 b63d
00000240: 3401 81bd a582 5b3c bd27 b4bc d7a0 28be
00000250: 0f61 30bc 82c9 b83d 63b3 3ebe 0fff fbbc
00000260: 1541 4abe c062 2dbe 1d7c 87bd c482 cbbd
00000270: 61ba 4cbe abaf 33bd 885e 29be 18a3 44be
00000280: 5c05 3fbd 92c4 16be de11 f23d 6d63 e93c
00000290: 7b07 f5bb ea69 2dbe 9f75 6a3c 03ed 2c3d
000002a0: 2ea1 01be 07f8 48bd a1f2 91bd 7630 05be
000002b0: 8eed f0bd 52c8 733c ab49 10be 0a0f 0ebd
000002c0: 8d3e a13c 62ed 21be b504 323d 3168 fcbd
000002d0: 67ed 04bd 97a8 893d 327d 40bd 8ec0 4abe
000002e0: 59fb cbbd 3dd1 13bd 5387 a1bd 779f a73d
000002f0: f1aa 28bd ba08 d03d 5730 cd3d 8e6e 4e3d
00000300: e862 d43d b904 b23d d047 c4bd dac8 0fbe
00000310: c006 4abe b5ed 97ba 45e6 a13b 1b37 04be

weight_hh_l0 f4 [200, 50]
-0.086313255 0.0724651 -0.0022897767 0.055041667 0.00892751 -0.13710698 -0.045885563 -0.24068609
-0.033213295 0.26386672 -0.08366637 -0.08216414 -0.19600111 -0.20392554 0.08992305 0.079783194
0.17178878 0.062480535 0.011995636 0.21133025 -0.144899 -0.10217139 -0.15086025 -0.21107878
0.20902324 -0.03701055 -0.24965134 0.15715137 0.17826536 0.14378627 -0.12016064 -0.15959512
0.06394338 -0.053103887 -0.12178936 -0.02726283 -0.0073372256 -0.21129657 0.239961 0.20496504
0.14923748 0.03693301 -0.016615693 -0.19832246 0.09771667 0.11537979 0.019876376 0.2634624
0.08885249 -0.11008619 -0.11596562 -0.05456006 0.15587614 -0.012858648 -0.06780253 0.07655795
-0.14049956 -0.0010848041 -0.09645107 0.020595342 0.06677871 -0.0073680906 0.04390563 0.011079977
-0.040554695 -0.0059031285 -0.13096672 0.07885499 -0.023802333 0.037038773 0.023682898 0.039676603
-0.086262956 -0.07497394 -0.04377225 -0.09856581 -0.050687138 0.034199458 -0.096198715 -0.00791241
-0.1020657 -0.04046651 -0.033639736 0.06296424 -0.0498559 0.11696515 0.092747726 0.0027852806
-0.045815382 -0.051110137 0.15347087 0.025757248 -0.08816403 -0.022640245 0.065657474 -0.06864598
-0.10100046 0.13903049 -0.102846906 0.03855265 0.18501292 0.27523166 0.028514981 0.03471568
-0.11115008 -0.19881307 0.0047227587 -0.12847221 -0.005021847 0.09353344 -0.06482595 -0.2961897
-0.28421244 -0.24587886 -0.041957725 0.32684892 0.3086306 0.26549128 -0.018969039 0.09143384
-0.08590238 -0.19898367 -0.051713254 -0.19026269 0.1849645 -0.03067363 -0.21884666 0.004627978
0.106783375 -0.023415327 -0.030617742 -0.007146911 -0.039706193 -0.07701085 -0.15087487 0.14506017
-0.044590075 -0.06777384 0.1614962 0.20464079 0.23244971 0.06641514 -0.09359308 -0.08532013
0.08262826 -0.089455806 0.07071919 0.13955988 0.1891096 -0.2337932 -0.20795712 0.16420002
0.0015776757 0.09579769 -0.14027523 0.009793927 0.11619477 -0.00039827416 0.04915938 0.051323418
-0.090092346 0.03548168 -0.0878353 -0.13243967 -0.21628378 -0.010728763 0.044484902 0.06142759
0.17085257 -0.021377193 0.055603616 -0.14607514 -0.11613454 -0.016700571 -0.006634354 0.024310313
-0.065777875 0.05275694 -0.0068377955 -0.11800366 -0.01417321 -0.023153624 -0.015204689 0.04473197
-0.029045165 0.091949694 0.007870736 0.006400012 0.1981656 -0.005790785 0.032834064 0.090506084
-0.121434346 0.010073481 0.051269006 0.15980734 -0.0509774 -0.02308567 -0.025943281 -0.0393606
-0.1540884 -0.11707046 -0.0010997793 0.0075535327 -0.12323139 0.10656794 -0.15573463 -0.045296058
0.032097347 -0.0068857083 0.10059396 -0.1495051 0.06361401 0.006815233 -0.10200167 0.07681015
-0.007660072 -0.11420363 -0.06938281 -0.043382663 -0.019503854 -0.04372586 0.06977908 0.026447026
0.004797911 -0.0445141 -0.14981256 0.12491402 -0.09335762 -0.0042903866 -0.109418 0.041027267
0.08979472 0.13632935 -0.040391553 -0.051576585 0.053986106 -0.037451282 0.10253283 0.101009145
-0.093516305 0.20442525 -0.021449385 -0.14990166 0.034908295 -0.24023078 0.039183717 0.066240795
-0.033814084 -0.096053995 -0.11234508 -0.056366824 0.026087692 0.00015345152 0.0371322 -0.06628588
00000000: 01c5 b0bd 9568 943d 1410 16bb 5f73 613d
00000010: b144 123c c665 0cbe 80f2 3bbd 6a76 76be
00000020: aa0a 08bd 8a19 873e 4659 abbd ac45 a8bd
00000030: 84b4 48be dbd1 50be 9329 b83d 5f65 a33d
00000040: 66e9 2f3e 97eb 7f3d 5889 443c f566 583e
00000050: 6760 14be 3c3f d1bd 1c7b 1abe 0925 58be
00000060: 300a 563e 6098 17bd 9aa4 7fbe 4aec 203e
00000070: 328b 363e b53c 133e c816 f6bd e76c 23be
00000080: bff4 823d 7683 59bd b36c f9bd 4c56 dfbc
00000090: 1c6d f0bb 215e 58be 56b8 753e 5be2 513e
000000a0: b6d1 183e 1147 173d a21d 88bc 0b15 4bbe
000000b0: ad1f c83d 3d4c ec3d c8d3 a23c 8be4 863e
000000c0: 4bf8 b53d de74 e1bd 627f edbd 5f7a 5fbd
000000d0: ff9d 1f3e 14ad 52bc 0edc 8abd 6aca 9c3d
000000e0: 1edf 0fbe fc2f 8eba 2388 c5bd 90b7 a83c
000000f0: 47c3 883d 0670 f1bb 64d6 333d cb88 353c
00000100: ae1c 26bd 086f c1bb 241c 06be ba7e a13d
00000110: 1cfd c2bc f8b5 173d a302 c23c ef83 223d
00000120: a2aa b0bd f08b 99bd 884a 33bd dfdc c9bd
00000130: 519d 4fbd bb14 0c3d d503 c5bd 0ea3 01bc
00000140: d207 d1bd 36c0 25bd d2c9 09bd 65f3 803d
00000150: b335 4cbd 6d8b ef3d 85f2 bd3d 4189 363b
00000160: e9a8 3bbd dd58 51bd 7827 1d3e dd00 d33c
00000170: 588f b4bd 0978 b9bc 6d77 863d 4396 8cbd
00000180: 54d9 cebd 025e 0e3e 66a1 d2bd 62e9 1d3d
00000190: 0774 3d3e 2aeb 8c3e 4098 e93c 0732 0e3d
000001a0: a7a2 e3bd a795 4bbe 5fc1 9a3b 388e 03be
000001b0: 4e8e a4bb 768e bf3d 78c3 84bd 2da6 97be
000001c0: 4b84 91be abc7 7bbe dddb 2bbd be58 a73e
000001d0: d404 9e3e 79ee 873e f564 9bbc aa41 bb3d
000001e0: 96ed afbd 60c2 4bbe 47d1 53bd 39d4 42be
000001f0: 5567 3d3e 4447 fbbc 5719 60be 4ba6 973b
00000200: 3eb1 da3d 80d1 bfbc 0fd2 fabc a330 eabb
00000210: f6a2 22bd ddb7 9dbd f17e 1abe a78a 143e
00000220: 15a4 36bd 03cd 8abd 435f 253e 5b8d 513e
00000230: 4c07 6e3e a904 883d bbad bfbd 52bc aebd
00000240: 0139 a93d 9b34 b7bd 39d5 903d c9e8 0e3e
00000250: f2a5 413e 7c67 6fbe b6f2 54be 0d24 283e
00000260: 03ca ce3a 9431 c43d 4fa4 0fbe b576 203c
00000270: 86f7 ed3d 74cf d0b9 595b 493d 8138 523d
00000280: 5682 b8bd 3d55 113d fee2 b3bd 449e 07be
00000290: 7f79 5dbe b2c7 2fbc cd35 363d 7f9b 7b3d
000002a0: faf3 2e3e 391f afbc 9ec0 633d b994 15be
000002b0: f2d7 edbd a3cf 88bc ff64 d9bb 6c26 c73c
000002c0: 8db6 86bd a917 583d 960f e0bb e7ab f1bd
000002d0: c036 68bc abac bdbc 171d 79bc df38 373d
000002e0: 20f0 edbc 1f50 bc3d 42f4 003c 31b7 d13b
000002f0: eceb 4a3e a0c0 bdbb 037d 063d 415b b93d
00000300: 92b2 f8bd 3e0b 253c 73ff 513d 89a4 233e
00000310: aecd 50bd 291e bdbc 0187 d4bc 9538 21bd
00000320: 59c9 1dbe a3c2 efbd 7826 90ba a083 f73b
00000330: bd60 fcbd 4b40 da3d e678 1fbe 5c88 39bd
00000340: 8278 033d 82a1 e1bb 3504 ce3d dd17 19be
00000350: 1048 823d 5152 df3b 40e6 d0bd a44e 9d3d
00000360: 5701 fbbb 98e3 e9bd 9318 8ebd 05b2 31bd
00000370: 8cc6 9fbc e319 33bd 56e8 8e3d 6fa7 d83c
00000380: cb37 9d3b 6b54 36bd 7768 19be ecd2 ff3d
00000390: 4832 bfbd 5f96 8cbb 8b16 e0bd 350c 283d
000003a0: 4be6 b73d ec99 0b3e 9d71 25bd f841 53bd
000003b0: 8920 5d3d 8466 19bd bbfc d13d e2dd ce3d
000003c0: 7a85 bfbd da54 513e 9fb6 afbc d27f 19be
000003d0: 00fc 0e3d 0fff 75be 1b7f 203d 41a9 873d
000003e0: a380 0abd f5b7 c4bd 2d15 e6bd e6e0 66bd
000003f0: dbb5 d53c d4e7 2039 ef17 183d e4c0 87bd

bias_ih_l0 f4 [200]
-0.08763239 0.052158862 -0.252169 -0.1461305 -0.04355011 -0.018653244 -0.1268922 -0.0014847391
-0.009715286 -0.111541376 -0.066354156 0.103391305 0.05360295 -0.03756741 -0.10298165 0.14575228
-0.08285838 -0.15324119 -0.16035013 0.06607346 -0.1386408 -0.054261796 -0.12454855 -0.03464724
-0.07614173 0.09143494 -0.07297609 0.017867444 -0.045155168 -0.19742902 -0.22456193 0.042634524
-0.062488314 -0.12420866 -0.19905446 0.05097422 -0.17900097 -0.13883933 -0.09931864 -0.058171798
0.03842184 -0.03292086 0.036529563 -0.00729836 -0.047433056 -0.029823514 -0.07221929 0.0887624
-0.13034348 -0.09419777 -0.18107028 -0.12763971 -0.27049002 -0.02787222 -0.12529173 0.093319796
-0.24209508 -0.109933555 -0.012897281 0.040637396 -0.0535724 -0.13250853 0.01558129 -0.06968285
-0.05981417 0.1380015 -0.09841628 -0.13754314 0.032437127 -0.055734262 0.095997214 0.13989273
-0.015545404 -0.12439059 -0.06802811 0.068382 -0.1754156 -0.093236834 -0.026930371 -0.030244958
-0.023758508 -0.037690338 0.034980252 -0.22015925 -0.04563799 -0.110410206 -0.18127413 -0.024949422
-0.09050014 0.009787598 -0.09924525 0.014643943 0.013907166 0.12634307 0.030120296 -0.18575126
-0.08217785 0.11571375 -0.1659692 -0.03162441 -0.036968414 -0.135176 -0.02734353 -0.024546793
-0.018829266 0.1381626 -0.019690607 0.07355184 0.009474401 -0.07446438 -0.15459189 0.13222569
0.054029092 -0.07187696 0.059536085 -0.15126045 -0.098226435 -0.05698067 0.027143268 -0.13398977
0.09121058 -0.006311832 -0.0003288623 0.086417064 -0.103584945 0.12188561 0.05830331 0.07445269
-0.08480677 0.08200149 -0.07064476 0.09396674 -0.0440861 0.0029296256 -0.14426568 -0.027846335
0.09928785 -0.0143948905 0.050466068 -0.04639612 -0.0072459877 0.07284173 0.0067905593 0.09417462
-0.165887 0.07941521 -0.013122571 0.04750065 -0.044613082 0.056605116 -0.09989386 0.084327824
-0.07873616 0.013849161 0.052239504 0.011084399 -0.055996392 0.0029380498 -0.14387012 0.010479602
-0.17583448 0.06728556 0.12839887 -0.11510988 -0.23500878 0.14208283 -0.047178876 0.052797914
-0.04592037 -0.12598494 0.10105236 0.053345498 0.088669315 -0.13114384 -0.03669357 -0.02179803
-0.16019824 0.06961887 -0.14730997 -0.2664722 -0.10672793 0.11381294 -0.10641823 -0.05457766
-0.10471401 -0.09686387 -0.09229487 -0.18907161 0.10927804 0.01959586 0.019074928 -0.0027078034
0.07892171 0.08547523 0.03651323 -0.030770278 -0.031388156 0.08614984 -0.0562286 -0.07437404
00000000: 9c78 b3bd 88a4 553d 4c1c 81be 3ca3 15be
00000010: 9a61 32bd b0ce 98bc 07f0 01be 949b c2ba
00000020: dd2c 1fbc ce6f e4bd b0e4 87bd d2be d33d
00000030: c48e 5b3d 49e0 19bd 0be8 d2bd 1640 153e
00000040: a8b1 a9bd 42eb 1cbe d332 24be 8651 873d
00000050: dbf7 0dbe 9e41 5ebd 4f13 ffbd 44ea 0dbd
00000060: 32f0 9bbd 3e42 bb3d 7d74 95bd bf5e 923c
00000070: a0f4 38bd d52a 4abe 90f3 65be 8aa1 2e3d
00000080: bff3 7fbd 1c61 febd efd4 4bbe 58ca 503d
00000090: 084c 37be e62b 0ebe 9267 cbbd 8d45 6ebd
000000a0: 3860 1d3d 06d8 06bd 06a0 153d 1527 efbb
000000b0: 2a49 42bd 7150 f4bc b5e7 93bd 10c9 b53d
000000c0: c378 05be c3ea c0bd 7d6a 39be fcb3 02be
000000d0: ab7d 8abe 4854 e4bc 7a4c 00be 731e bf3d
000000e0: c6e7 77be d824 e1bd 1e4f 53bc 6673 263d
000000f0: bc6e 5bbd 51b0 07be ab48 7f3c e2b5 8ebd
00000100: b4ff 74bd 4450 0d3e 798e c9bd 1cd8 0cbe
00000110: cbdc 043d 9c49 64bd 309a c43d 0a40 0f3e
00000120: 26b2 7ebc 7ec0 febd 5252 8bbd dd0b 8c3d
00000130: 26a0 33be f4f2 bebd 159d dcbc 46c4 f7bc
00000140: 34a1 c2bc 2f61 1abd 7447 0f3d 6d71 61be
00000150: e7ee 3abd bf1e e2bd ed9f 39be bb62 ccbc
00000160: 2358 b9bd 295c 203c 1841 cbbd 26ed 6f3c
00000170: e2da 633c 1460 013e d7be f63c 9435 3ebe
00000180: dc4c a8bd 55fb ec3d d4f3 29be 9988 01bd
00000190: 316c 17bd 946b 0abe 8aff dfbc 5b16 c9bc
000001a0: d53f 9abc 7f7a 0d3e 324e a1bc 59a2 963d
000001b0: 853a 1b3c c880 98bd 564d 1ebe 2c66 073e
000001c0: 9c4d 5d3d 3a34 93bd 1cdc 733d 05e4 1abe
000001d0: f12a c9bd 9064 69bd 8f5b de3c 9d34 09be
000001e0: 9dcc ba3d 7cd3 cebb 276b acb9 6efb b03d
000001f0: 5824 d4bd 2a9f f93d 74cf 6e3d a77a 983d
00000200: 2caf adbd 66f0 a73d 33ae 90bd a271 c03d
00000210: a093 34bd f6fe 3f3b 62ba 13be ff1d e4bc
00000220: 6e57 cb3d 8cd8 6bbc 82b5 4e3d dc09 3ebd
00000230: c06f edbb 0c2e 953d 5783 de3b a0de c03d
00000240: 48de 29be 71a4 a23d 0d00 57bc 0b90 423d
00000250: 35bc 36bd c4da 673d 2795 ccbd 11b4 ac3d
00000260: 6d40 a1bd 97e7 623c 17f9 553d 579b 353c
00000270: 795c 65bd 4c8c 403b b052 13be a3b2 2b3c
00000280: f40d 34be 03cd 893d fe7a 033e bbbe ebbd
00000290: 24a6 70be 297e 113e a33e 41bd a042 583d
000002a0: ff16 3cbd 3202 01be 8af4 ce3d cf80 5a3d
000002b0: 4298 b53d 924a 06be ff4b 16bd c891 b2bc
000002c0: 020b 24be 5794 8e3d 6dd8 16be 0b6f 88be
000002d0: 2c94 dabd c216 e93d cdf1 d9bd d38c 5fbd
000002e0: 4d74 d6bd 9160 c6bd 1805 bdbd fd9b 41be
000002f0: 2acd df3d 7f87 a03c 0643 9c3c 6775 31bb
00000300: b5a1 a13d a30d af3d e68e 153d f311 fcbc
00000310: de90 00bd 546f b03d f64f 66bd 6b51 98bd

bias_hh_l0 f4 [200]
-0.17987463 -0.1218178 -0.1358684 -0.027013484 -0.13343884 -0.09045619 -0.20851296 0.07198543
0.018370725 0.056202516 -0.13450114 -0.11745437 0.09770396 -0.08125986 -0.04598344 -0.005056249
-0.015356032 -0.06501152 -0.063701026 0.024630973 0.009666354 -0.06968152 -0.021208717 0.08133001
-0.048178107 -0.07044557 -0.13362433 -0.027112056 -0.0033070552 -0.07299538 -0.093095355 -0.1289499
-0.17862077 -0.24521129 -0.2526998 -0.14530165 -0.064399034 -0.038699646 0.08170454 0.04007005
0.07234743 -0.039071415 -0.057652768 0.13525167 0.04305753 -0.22976673 -0.15058018 0.08698566
-0.07553222 -0.16750726 -0.22875929 -0.08395098 -0.25242114 0.02899349 -0.030532692 0.019707816
-0.22472702 -0.08515663 0.07243401 -0.038712855 -0.100924976 -0.004941114 -0.017690005 -0.14860906
0.005629189 -0.122080095 -0.08154091 0.02273765 0.019122494 -0.13223857 -0.16346848 0.04485381
0.0040544597 -0.09785497 -0.01661875 -0.030077958 0.028610442 -0.059108194 0.03210956 -0.0425837
0.00250592 -0.08948543 -0.19460495 0.028700601 -0.07242897 -0.091736004 -0.10823343 -0.067580424
-0.13166837 -0.014224084 -0.14245212 -0.036872152 -0.13681348 0.014275007 0.0072513907 0.014673085
-0.014259855 0.07594581 0.03298689 -0.13929349 -0.029409451 -0.1287549 0.02969883 -0.0608896
0.0508869 -0.02688536 0.042644657 -0.0022941544 0.108632624 0.005844764 0.10230623 0.059613314
0.14059201 0.13503453 -0.05128725 -0.118097104 -0.12006594 0.011684422 0.01067077 -0.12304201
0.07127717 0.1305527 0.031924326 0.07778262 -0.073665865 0.05936484 0.0602567 -0.041565184
-0.0014711444 -0.10078069 0.043999508 -0.06052104 0.030470133 0.035289202 0.13105217 0.032218773
-0.043492235 0.036488995 -0.12229694 -0.18707441 -0.12563135 -0.024750587 0.056894653 0.031576063
-0.10753285 -0.08401298 -0.10439952 -0.06322718 -0.024966668 0.06701852 -0.2688256 0.08701824
-0.2881744 0.008957008 0.017144231 -0.0793781 -0.06570701 -0.14438018 -0.085776605 -0.015236708
-0.14681478 0.12953898 -0.039528467 -0.09603864 -0.14373685 0.063589655 -0.051850215 -0.0024008309
-0.20231394 -0.08940492 -0.028703045 -0.043105546 -0.030725079 -0.07995562 -0.11838744 -0.17173071
-0.011908168 -0.102588505 -0.11459149 -0.24550748 -0.08686704 -0.14350851 -0.01669071 -0.24283616
-0.20883223 -0.15127891 -0.16426428 -0.11641257 -0.046331313 0.16044584 -0.10390526 -0.11670915
0.03323302 -0.13742195 0.10030891 0.040581655 -0.12029753 0.053047035 0.07035524 0.048927087
00000000: 0e31 38be 9c7b f9bd 1621 0bbe 624b ddbc
00000010: 31a4 08be 1841 b9bd 6c84 55be 196d 933d
00000020: 347e 963c 9c34 663d abba 09be eb8b f0bd
00000030: 0419 c83d 926b a6bd 2259 3cbd e4ae a5bb
00000040: de97 7bbc c324 85bd af75 82bd e5c6 c93c
00000050: a15f 1e3c 2fb5 8ebd e7bd adbc 5990 a63d
00000060: 6856 45bd c445 90bd d1d4 08be 1a1a debc
00000070: 2ebb 58bb 9a7e 95bd c7a8 bebd 710b 04be
00000080: 5de8 36be ab18 7bbe de61 81be f5c9 14be
00000090: a4e3 83bd 8583 1ebd b654 a73d 7e20 243d
000000a0: e42a 943d 5909 20bd 4f25 6cbd 6a7f 0a3e
000000b0: 185d 303d f847 6bbe b131 1abe 8a25 b23d
000000c0: a3b0 9abd 0687 2bbe e03f 6abe 7eee abbd
000000d0: 583d 81be c183 ed3c b21f fabc 4972 a13c
000000e0: d71e 66be 9966 aebd 4858 943d 5f91 1ebd
000000f0: c1b1 cebd 12e9 a1bb a1ea 90bc f92c 18be
00000100: 0f75 b83b 2105 fabd ecfe a6bd 4f44 ba3c
00000110: c7a6 9c3c 8c69 07be 4864 27be a1b8 373d
00000120: 46db 843b 3068 c8bd 0b24 88bc 0d66 f6bc
00000130: 7260 ea3c 6f1b 72bd 5085 033d 3f6c 2ebd
00000140: 5c3a 243b 2344 b7bd 8546 47be 861d eb3c
00000150: a455 94bd 16e0 bbbd 7da9 ddbd 9b67 8abd
00000160: 13d4 06be 220c 69bc f8de 11be 4107 17bd
00000170: d518 0cbe b8e1 693c 139d ed3b 6167 703c
00000180: 2ba2 69bc 7a89 9b3d 431d 073d f4a2 0ebe
00000190: 17ec f0bc 53d8 03be f64a f33c 6067 79bd
000001a0: c86e 503d b03e dcbc 2aac 2e3d 8659 16bb
000001b0: c87a de3d 6f85 bf3b ee85 d13d 172d 743d
000001c0: 5af7 0f3e 7e46 0a3e 9412 52bd e5dc f1bd
000001d0: 22e5 f5bd 0570 3f3c 74d4 2e3c 73fd fbbd
000001e0: c4f9 913d 9baf 053e 15c3 023d 7f4c 9f3d
000001f0: 21de 96bd 8c28 733d bbcf 763d 4140 2abd
00000200: 6ad3 c0ba 1b66 cebd d438 343d e9e4 77bd
00000210: 809c f93c 698b 103d 8a32 063e d5f7 033d
00000220: ea24 32bd 7c75 153d d176 fabd 6f90 3fbe
00000230: 81a5 00be bec1 cabc 5e0a 693d e755 013d
00000240: 2f3a dcbd ff0e acbd 6acf d5bd 407d 81bd
00000250: e686 ccbc 0141 893d 82a3 89be 9e36 b23d
00000260: 988b 93be 6ac0 123c 0f72 8c3c fc90 a2bd
00000270: 6691 86bd 66d8 13be a5ab afbd 63a3 79bc
00000280: 9d56 16be dea5 043e 9ae8 21bd e8af c4bd
00000290: c12f 13be 4b3b 823d e460 54bd 4257 1dbb
000002a0: 632b 4fbe ed19 b7bd a622 ebbc 718f 30bd
000002b0: 29b3 fbbc c6bf a3bd 1d75 f2bd 2dda 2fbe
000002c0: 7a1a 43bc ec19 d2bd f1ae eabd 5066 7bbe
000002d0: 59e7 b1bd e5f3 12be f5ba 88bc 0baa 78be
000002e0: 1ed8 55be dce8 1abe e534 28be b769 eebd
000002f0: e7c5 3dbd ea4b 243e 48cc d4bd 3505 efbd
00000300: 591f 083d 57b8 0cbe c26e cd3d f338 263d
00000310: 8d5e f6bd d947 593d 6816 903d c567 483d

weight_ih_l1 f4 [200, 50]
-0.0048996396 0.07629181 -0.057651356 -0.1889155 0.07122738 0.0627064 0.082544774 0.08776883
0.16115567 -0.120736144 -0.034787416 0.10564299 0.053068254 -0.06429072 0.07062929 -0.060187746
0.0030027516 -0.05228578 -0.06191427 -0.099750325 0.1466688 -0.036623113 -0.14577554 0.05742881
-0.041888468 0.12552884 0.13761498 0.0028904171 0.033342842 0.016259646 0.01214788 -0.041490745
0.04511657 -0.13892473 -0.086636685 0.1065049 0.06001475 -0.0718296 0.0018018328 -0.13369295
-0.16051826 -0.098541126 -0.052851904 -0.07850886 0.06264558 0.0057318565 -0.05228925 -0.002863042
0.105643064 0.15220194 -0.1972405 0.11128867 -0.016516272 0.20038286 0.051097583 -0.13297072
0.21313563 -0.11166719 -0.1245546 0.03271748 -0.1438363 -0.19046368 0.016997091 -0.23503764
-0.03053663 0.0003577526 0.1924354 0.1935158 0.14747524 0.1733556 0.021334387 -0.22031246
-0.21652249 -0.06652217 0.13882078 -0.17798305 -0.099757604 -0.0219132 0.07019198 -0.06721146
0.11076652 -0.08670529 0.08499271 0.1354655 -0.08771706 -0.05277906 -0.2098756 0.059576068
0.21961659 0.014483868 -0.0100090755 0.0013317371 -0.007701244 -0.17390732 0.121180624 -0.018477228
-0.083039835 0.0037496225 -0.061912384 0.050336108 -0.1830869 0.10658 0.08234367 0.101363316
-0.06366941 0.049665283 0.14081381 -0.16035752 -0.10452339 0.03909471 0.06365495 -0.15236086
-0.17481017 -0.18987161 -0.18696025 0.04458634 -0.048254397 0.057134856 0.14681184 0.039249755
-0.03936304 -0.1972914 -0.06960653 -0.035753034 0.03867533 -0.086326346 -0.1361771 0.052491542
-0.051285982 -0.05774159 0.08329336 -0.05322534 0.08554645 -0.058580074 -0.026112523 0.13796692
0.026831558 0.03551642 -0.011143068 0.059602957 0.18494925 -0.1044266 -0.089719124 -0.06886029
0.10216685 -0.022198135 0.056138232 -0.014834209 0.11109346 -0.18708922 0.061773058 -0.05763743
-0.13798466 0.08244639 0.070577584 0.06966149 -0.052146167 -0.065181896 0.042294223 -0.05256114
0.094481505 -0.12805536 0.02930119 0.07245474 0.15662117 0.13073933 -0.040743757 0.012205334
-0.12432434 0.045722973 0.050598036 0.12856057 -0.12650149 -0.08674758 -0.048882723 0.02978622
-0.0303092 0.023275299 0.03793309 0.09753616 0.050411735 0.12476496 -0.1187622 0.07401011
-0.117152885 -0.033093143 0.08326069 0.1504407 -0.042394206 0.10962644 -0.04377401 -0.031187536
-0.12538502 0.09148112 -0.14524513 0.09706859 0.11638306 0.0013541061 -0.12265036 0.10752518
-0.10392703 -0.020206677 0.06129797 0.06434098 0.024023294 -0.04143641 0.097222164 -0.19351862
0.023797808 -0.028543025 0.088571146 -0.18848665 -0.00029260764 -0.20341502 -0.025869673 0.15133308
0.002101417 0.14903577 0.11001053 0.009335185 -0.028431905 -0.1511539 0.0261208 -0.04722608
0.1724603 -0.06313274 -0.18505858 0.04131448 0.014840509 0.06501801 -0.017414449 0.09557615
-0.051046677 0.098534636 -0.09371172 0.10962391 -0.017628742 -0.12089686 0.16583379 0.12591092
-0.005544238 0.011688741 0.09804477 -0.05040583 0.00586104 0.10702377 -0.017903315 0.18590604
0.09149349 -0.17926909 -0.19040391 -0.02034337 0.12127052 -0.03384483 -0.2021707 -0.120412886
00000000: 288d a0bb e13e 9c3d d423 6cbd 1173 41be
00000010: a9df 913d 376c 803d 3c0d a93d 25c0 b33d
00000020: fe05 253e 8344 f7bd 407d 0ebd 5a5b d83d
00000030: 195e 593d daaa 83bd 17a6 903d 6d87 76bd
00000040: d0c9 443b 9d29 56bd d199 7dbd e649 ccbd
00000050: 5930 163e 1e02 16bd 2f46 15be 793a 6b3d
00000060: 3e93 2bbd a28a 003e f1ea 0c3e 276d 3d3b
00000070: 8192 083d f332 853c e707 473c 33f2 29bd
00000080: 27cc 383d 4942 0ebe 936e b1bd 3e1f da3d
00000090: 07d2 753d 661b 93bd 7a2b ec3a cee6 08be
000000a0: e65e 24be eecf c9bd 3d7b 58bd 41c9 a0bd
000000b0: 534c 803d 4cd2 bb3b 412d 56bd e0a1 3bbb
000000c0: 645b d83d d3da 1b3e 6af9 49be 50eb e33d
000000d0: 224d 87bc 2a31 4d3e b34b 513d 7a29 08be
000000e0: 3a40 5a3e c5b1 e4bd 7b16 ffbd c402 063d
000000f0: d349 13be e908 43be 7c3d 8b3c b5ad 70be
00000100: f427 fabc be90 bb39 c90d 453e 0229 463e
00000110: c003 173e 2184 313e 74c5 ae3c 9799 61be
00000120: 12b8 5dbe c73c 88bd 0927 0e3e 3041 36be
00000130: b74d ccbd 5083 b3bc d0c0 8f3d 29a6 89bd
00000140: 8fd9 e23d 8b92 b1bd a810 ae3d 78b7 0a3e
00000150: 01a5 b3bd db2e 58bd a1e9 56be 0906 743d
00000160: 2ce3 603e bf4d 6d3c 1bfd 23bc af8d ae3a
00000170: b85a fcbb c314 32be 8c2d f83d 8e5d 97bc
00000180: ca10 aabd 3abc 753b d797 7dbd 3c2d 4e3d
00000190: 227b 3bbe 9d46 da3d cca3 a83d 9297 cf3d
000001a0: 1c65 82bd d36d 4b3d 7f31 103e c334 24be
000001b0: 5c10 d6bd c621 203d 875d 823d 7c04 1cbe
000001c0: 7001 33be b46d 42be 8272 3fbe 2ba0 363d
000001d0: 67a6 45bd 3d06 6a3d d855 163e 5ac4 203d
000001e0: 243b 21bd c206 4abe de8d 8ebd c671 12bd
000001f0: 066a 1e3d decb b0bd 0272 0bbe 5f01 573d
00000200: 4011 52bd 7282 6cbd b695 aa3d d002 5abd
00000210: fa32 af3d a9f1 6fbd eee9 d5bc 3347 0d3e
00000220: dbcd db3c aa79 113d 6a91 36bc 3b22 743d
00000230: 5663 3d3e 9ddd d5bd a9be b7bd a006 8dbd
00000240: da3c d13d ddd8 b5bc 34f1 653d 2f0b 73bc
00000250: f884 e33d 5194 3fbe bf05 7d3d 3a15 6cbd
00000260: da4b 0dbe a7d9 a83d fb8a 903d afaa 8e3d
00000270: 3897 55bd 167e 85bd b53c 2d3d 5a4a 57bd
00000280: 857f c13d f220 03be 0d09 f03c 2763 943d
00000290: 4d61 203e 88e0 053e ede2 26bd e2f8 473c
000002a0: c29d febd 0348 3b3d e33f 4f3d 62a5 033e
000002b0: 9b89 01be b7a8 b1bd 4039 48bd 3b02 f43c
000002c0: 004b f8bc d7ab be3c ba5f 1b3d 0ac1 c73d
000002d0: 897c 4e3d c584 ff3d 9939 f3bd 9d92 973d
000002e0: daed efbd ad8c 07bd 9584 aa3d 200d 1a3e
000002f0: 8ca5 2dbd d483 e03d 604c 33bd 017d ffbc
00000300: ee64 00be 745a bb3d 24bb 14be e6cb c63d
00000310: 3e5a ee3d 437c b13a 1d30 fbbd 2936 dc3d
00000320: b2d7 d4bd 7988 a5bc 9513 7b3d 34c5 833d
00000330: 80cc c43c 3ab9 29bd 6a1c c73d bf29 46be
00000340: 9ff3 c23c 10d3 e9bc ca64 b53d a502 41be
00000350: 2269 99b9 074c 50be a3ec d3bc 0ff7 1a3e
00000360: edb7 093b d59c 183e 334d e13d 9bf2 183c
00000370: 07ea e8bc 17c8 1abe 4afb d53c 2270 41bd
00000380: 6f99 303e bd4b 81bd ff7f 3dbe 5f39 293d
00000390: 9b25 733c 2a28 853d bfa8 8ebc 6ebd c33d
000003a0: 5216 51bd 87cc c93d eeeb bfbd 8082 e03d
000003b0: 276a 90bc c698 f7bd 55d0 293e cbee 003e
000003c0: 70ac b5bb 2282 3f3c b2cb c83d 5876 4ebd
000003d0: f80d c03b 472f db3d f9a9 92bc 275e 3e3e
000003e0: f060 bb3d 5192 37be 3ef9 42be 24a7 a6bc
000003f0: ae5c f83d e0a0 0abd d605 4fbe 089b f6bd

weight_hh_l1 f4 [200, 50]
0.08713151 0.091477044 -0.16109143 0.08714375 0.07673862 -0.07859623 0.03740133 -0.12652165
0.0111737875 0.12347827 0.06588209 0.124266714 -0.10258735 -0.075409964 0.16724542 0.09205056
0.07468649 0.16213642 0.09216283 0.027319368 -0.016293695 0.15490942 0.014244717 0.14835198
0.06046394 -0.09566065 0.088126145 0.017550217 -0.081487454 -0.05001286 -0.03658276 -0.12029226
0.10275163 0.118298 0.17521934 0.13351984 0.107352525 0.037286844 0.056000616 0.07536896
0.02456215 -0.040883653 0.02797002 0.15619208 -0.005407907 -0.02827516 0.043014992 0.117157936
0.104769975 -0.17581701 0.16477004 0.052866008 0.1095353 -0.1491823 -0.035305105 0.13650563
0.020726804 -0.09660619 -0.18755624 -0.10086909 -0.14344506 -0.16866782 0.033521984 -0.008094875
0.054088533 -0.1703889 -0.08505063 -0.0144157605 -0.1369909 0.040962007 0.07124188 0.052540228
0.0065876297 -0.16748919 -0.074697785 -0.12599117 -0.16864228 0.028467905 0.01849842 -0.07806248
-0.20827505 -0.111572064 0.12726453 -0.16410889 -0.13765484 0.1888052 -0.011881535 -0.09052326
-0.18301086 -0.06716623 -0.08480908 0.07883342 -0.028019862 -0.16302215 0.066114806 -0.06329233
-0.06262137 0.008000474 0.06348566 0.14741693 0.0076480256 0.015940135 -0.100805655 -0.16894722
-0.11706651 -0.009345497 0.010843669 -0.12374016 -0.094060056 0.030477662 -0.032041885 -0.095015235
0.024625007 -0.08643839 -0.043032415 -0.012222656 0.01712886 -0.07665049 -0.091035664 -0.120715246
0.08716392 -0.18464832 -0.12373235 -0.115340464 -0.14568695 -0.12788042 -0.037578575 -0.024104474
-0.12995026 -0.14813879 -0.19724391 0.025244037 -0.06463529 0.059666045 -0.025208576 0.1779658
-0.12335929 -0.129873 -0.007481048 0.08501612 -0.18920091 0.05526686 -0.1097338 -0.16833927
0.13786809 -0.018636798 0.1668332 -0.08143559 0.10307167 0.08229332 0.071759194 0.238782
-0.091810375 -0.056388814 -0.17169759 -0.20758085 0.06056075 -0.06311695 0.07940025 -0.06365627
0.039509945 0.0822432 0.07611317 -0.12274896 0.13005453 -0.044354714 -0.1114407 -0.035680376
-0.04123892 -0.012054004 0.11732078 -0.111091554 0.14545996 0.18959545 -0.10042088 -0.00554071
0.045452207 -0.05401531 0.09059732 0.02679476 0.051084146 -0.10896115 0.12797697 0.071224235
0.044181973 -0.117837794 -0.08500217 0.16777848 -0.04482118 0.037227686 -0.11036562 -0.058860686
0.13079748 -0.019912481 0.13554044 -0.07245709 0.1383534 -0.038722947 -0.016686503 -0.15380529
-0.045801774 0.017859574 0.09283885 -0.14388427 -0.019982092 0.10739931 0.19235347 -0.19736782
-0.10419805 0.025882665 -0.096386835 0.002252071 0.00024008575 0.026919942 -0.14943157 -0.13151053
0.0469122 -0.1261679 -0.072073884 0.05519423 0.12766191 -0.122953594 -0.075693876 0.047577754
-0.0002060735 -0.010344118 0.06592347 0.07553943 0.076196074 -0.13345818 0.009238173 -0.04157893
0.08829136 -0.16719988 -0.01778969 0.049062844 -0.18618484 -0.09798718 -0.16905001 0.14191912
-0.06710974 -0.0036528953 0.045185655 -0.000450741 0.036271848 -0.04429665 -0.03858991 -0.15833548
-0.1701989 0.013081171 0.05542888 -0.071141236 -0.0006843208 -0.011834817 -0.01411328 0.02662736
00000000: 0172 b23d 5158 bb3d 27f5 24be 6c78 b23d
00000010: 2329 9d3d 0ff7 a0bd 2332 193d e48e 01be
00000020: 4312 373c 2de2 fc3d 30ed 863d 8c7f fe3d
00000030: 5119 d2bd 8a70 9abd 6242 2b3e 0185 bc3d
00000040: 3bf5 983d 1707 263e debf bc3d decc df3c
00000050: 5b7a 85bc 93a0 1e3e ac62 693c 95e9 173e
00000060: 09a9 773d bbe9 c3bd 7b7b b43d 79c5 8f3c
00000070: e5e2 a6bd 49da 4cbd ced7 15bd ca5b f6bd
00000080: 726f d23d 3946 f23d b36c 333e 6db9 083e
00000090: a4db db3d 17ba 183d e760 653d 0b5b 9a3d
000000a0: 9036 c93c 9e75 27bd 6221 e53c d1f0 1f3e
000000b0: d034 b1bb 4fa1 e7bc 7d30 303d 80f0 ef3d
000000c0: a491 d63d 6009 34be 7ab9 283e 078a 583d
000000d0: 0b54 e03d 3fc3 18be 169c 10bd 22c8 0b3e
000000e0: 42cb a93c 77d9 c5bd be0e 40be 7494 cebd
000000f0: 43e3 12be 42b7 2cbe 594e 093d 5ea0 04bc
00000100: f08b 5d3d 6e7a 2ebe 062f aebd 1530 6cbc
00000110: 5847 0cbe c7c7 273d 43e7 913d 6c34 573d
00000120: 0bdd d73b 4982 2bbe 27fb 98bd d403 01be
00000130: 90b0 2cbe 8635 e93c 008a 973c 39df 9fbd
00000140: 0e46 55be e57f e4bd a251 023e 290c 28be
00000150: 64f5 0cbe 2656 413e c5aa 42bc 4264 b9bd
00000160: 3367 3bbe 738e 89bd 62b0 adbd 6b73 a13d
00000170: e989 e5bc 47ef 26be 3367 873d 699f 81bd
00000180: a23f 80bd 6c14 033c c504 823d 77f4 163e
00000190: 4a9c fa3b e394 823c 3273 cebd 8000 2dbe
000001a0: 91c0 efbd db1d 19bc a5a9 313c 7b6b fdbd
000001b0: 8fa2 c0bd 4aac f93c 5a3e 03bd 5997 c2bd
000001c0: 62ba c93c 9c06 b1bd c242 30bd 8941 48bc
000001d0: d351 8c3c effa 9cbd e870 babd 8e39 f7bd
000001e0: ff82 b23d 7314 3dbe 6367 fdbd 9f37 ecbd
000001f0: f62e 15be 16f3 02be feeb 19bd bf76 c5bc
00000200: ae11 05be b2b1 17be 4ffa 49be 95cc ce3c
00000210: 825f 84bd 6264 743d 3782 cebc ab3c 363e
00000220: cca3 fcbd 6dfd 04be 9423 f5bb ee1c ae3d
00000230: e2bd 41be 815f 623d 1dbc e0bd 2161 2cbe
00000240: 4b2d 0d3e 33ac 98bc 53d6 2a3e b4c7 a6bd
00000250: 3d17 d33d 6689 a83d 7cf6 923d 4583 743e
00000260: 1407 bcbd f5f7 66bd 7ed1 2fbe 1390 54be
00000270: 8d0e 783d 7643 81bd 999c a23d 385e 82bd
00000280: 2ed5 213d 1f6f a83d 39e1 9b3d cf63 fbbd
00000290: 042d 053e 4aad 35bd 063b e4bd 9625 12bd
000002a0: 24ea 28bd 287e 45bc e145 f03d f883 e3bd
000002b0: 75f3 143e 4f25 423e 76a9 cdbd d88e b5bb
000002c0: 182c 3a3d 283f 5dbd 168b b93d af80 db3c
000002d0: 9c3d 513d 0627 dfbd 650c 033e 03de 913d
000002e0: 28f8 343d f154 f1bd 9e15 aebd 1fce 2b3e
000002f0: 6a96 37bd 0f7c 183d 5f07 e2bd e717 71bd
00000300: c6ef 053e 801f a3bc 1dcb 0a3e 6264 94bd
00000310: 84ac 0d3e f49b 1ebd 22b2 88bc 227f 1dbe
00000320: a49a 3bbd 3e4e 923c 4c22 be3d 6656 13be
00000330: 7cb1 a3bc 2bf4 db3d 4ff8 443e ca1a 4abe
00000340: ca65 d5bd e207 d43c 7666 c5bd 7b97 133b
00000350: 87bf 7b39 3687 dc3c 9704 19be b2aa 06be
00000360: 0227 403d 2832 01be 799b 93bd 5813 623d
00000370: ceb9 023e 18cf fbbd 6405 9bbd e4e0 423d
00000380: 6f15 58b9 607a 29bc e202 873d 6bb4 9a3d
00000390: b00c 9c3d 43a9 08be b55b 173c ab4e 2abd
000003a0: 1ad2 b43d 7236 2bbe afbb 91bc 1ff6 483d
000003b0: 3da7 3ebe 81ad c8bd 721b 2dbe 3f53 113e
000003c0: d570 89bd 6a65 6fbb 9814 393d 6f51 ecb9
000003d0: ca91 143d 6770 35bd 7410 1ebd b222 22be
000003e0: 9f48 2ebe 6852 563c 6509 633d 7fb2 91bd
000003f0: fe63 33ba d2e6 41bc 633b 67bc 9f21 da3c

bias_ih_l1 f4 [200]
0.099513024 -0.1830621 -0.0138206845 0.07022341 -0.17349479 -0.054585114 -0.0050766286 -0.09570152
-0.09959822 -0.053873412 -0.19975223 0.08033309 -0.049149793 -0.0016816108 -0.09556064 0.09519208
-0.1411182 -0.22855113 -0.07341804 -0.21733353 0.102501705 -0.035958417 -0.19516654 -0.012374466
-0.090513855 0.020659162 -0.14880946 0.035286304 -0.22485885 0.12475155 -0.04973643 0.16688208
-0.039222978 -0.13558935 -0.124324776 -0.1449946 -0.028654011 -0.13861832 0.002310807 -0.15733585
0.12218911 -0.025431419 -0.0011606304 0.04156958 -0.07199217 0.021121526 -0.16184923 -0.17705919
0.041176405 0.06057299 0.06259574 -0.12864485 -0.050306834 -0.09735667 -0.031543493 -0.0007759894
-0.04835507 0.10260122 -0.14818136 0.081917115 -0.2017499 -0.11163628 -0.14881654 -0.11079325
-0.108033165 0.007955294 -0.20205452 -0.044476606 -0.09935153 -0.09912438 -0.025627095 0.047718376
-0.09176418 0.037828017 -0.009890502 0.010668379 -0.07132656 -0.07646169 -0.20377135 0.061796285
0.14280058 0.13787782 -0.13213865 -0.08973773 -0.17127945 -0.043310456 -0.19779629 -0.1551685
-0.13742886 0.058349222 0.1595455 -0.14017065 -0.18048528 0.06084316 -0.12146078 -0.0872377
-0.166357 -0.06894303 -0.22679454 0.06966572 -0.23035918 0.035163857 0.033378717 0.12330977
0.041015934 -0.015478274 -0.08324756 -0.023124786 0.039663337 0.054448493 -0.09429986 0.17960379
0.112451814 -0.043723624 -0.10472619 0.09735386 0.01160215 0.057803154 0.15706892 0.07810907
-0.19642065 0.04791176 -0.14794378 0.026354188 -0.02027351 -0.06170462 0.05515537 -0.23077668
0.0074787536 0.14148854 0.15504205 0.10369449 -0.023373926 0.076635465 -0.07867268 -0.045605782
0.06410465 0.05019493 0.059630115 0.040664118 -0.04357253 0.15253514 0.10503922 0.15688902
-0.041717213 -0.045918442 -0.19692351 0.044100426 -0.03210868 0.12043804 -0.08528444 0.022669015
-0.1643282 0.1613003 -0.013941142 -0.1350109 0.051611852 -0.06876344 -0.006124238 -0.07565914
-0.0007953425 0.091366775 0.04580066 -0.21705246 -0.032417186 0.040459204 -0.11420594 -0.12723123
0.081773706 -0.19295236 0.028212659 -0.05463386 -0.15521222 -0.15143417 0.04280158 -0.11615368
-0.044108365 -0.023489244 -0.15809551 0.042648524 -0.022939527 0.1388588 -0.09273242 -0.14828546
0.041219972 0.07902477 -0.17807373 -0.008313283 -0.11292611 -0.038194433 -0.058992047 0.017396335
-0.032650497 0.008568396 -0.13444474 0.019338526 0.08009707 -0.09211365 -0.15804805 -0.13706581
00000000: 7ccd cb3d a274 3bbe 2770 62bc 4bd1 8f3d
00000010: 9ea8 31be a494 5fbd d959 a6bb 29ff c3bd
00000020: 27fa cbbd 5eaa 5cbd d98b 4cbe ad85 a43d
00000030: 4b51 49bd 7f69 dcba 4cb5 c3bd 11f4 c23d
00000040: 4a81 10be 4f09 6abe 335c 96bd ae8c 5ebe
00000050: 6aec d13d 2249 13bd bdd9 47be 46be 4abc
00000060: 545f b9bd 673d a93c 8261 18be 5f88 103d
00000070: 6641 66be be7d ff3d 6db8 4bbd 23e3 2a3e
00000080: 46a8 20bd efd7 0abe fd9d febd 7779 14be
00000090: d1bb eabc f6f1 0dbe e870 173b a61c 21be
000000a0: 493e fa3d 8d55 d0bc 4b20 98ba dd44 2a3d
000000b0: a170 93bd 0d07 ad3c cebb 25be 014f 35be
000000c0: 97a8 283d 621b 783d 3232 803d 7abb 03be
000000d0: 8a0e 4ebd ef62 c7bd c033 01bd c46b 4bba
000000e0: f70f 46bd 9720 d23d dbbc 17be 29c4 a73d
000000f0: 8797 4ebe 90a1 e4bd 5d63 18be 92e7 e2bd
00000100: 7e40 ddbd ec56 023c 61e7 4ebe 1a2d 36bd
00000110: d178 cbbd b901 cbbd eaef d1bc 5874 433d
00000120: dcee bbbd 8df1 1a3d c60b 22bc 6dca 2e3c
00000130: a913 92bd f297 9cbd 70a9 50be 1a1e 7d3d
00000140: 513a 123e d82f 0d3e 5b4f 07be 6ac8 b7bd
00000150: e163 2fbe 4e66 31bd 1c8b 4abe 7ee4 1ebe
00000160: 27ba 0cbe 98ff 6e3d e55f 233e e588 0fbe
00000170: 22d1 38be ad36 793d 6ec0 f8bd aea9 b2bd
00000180: 7d59 2abe 0132 8dbd d43c 68be e7ac 8e3d
00000190: 47e3 6bbe fa07 103d 1fb8 083d d589 fc3d
000001a0: 5300 283d 9698 7dbc b27d aabd 3170 bdbc
000001b0: 0676 223d 6205 5f3d 4920 c1bd 0eea 373e
000001c0: 234d e63d 8b17 33bd af7a d6bd 7661 c73d
000001d0: f216 3e3c 00c3 6c3d add6 203e a6f7 9f3d
000001e0: 7f22 49be 1f3f 443d 937e 17be bde4 d73c
000001f0: a214 a6bc fcbd 7cbd 99ea 613d b950 6cbe
00000200: 5510 f53b 5fe2 103e 58c3 1e3e c75d d43d
00000210: ad7a bfbc 0ef3 9c3d 241f a1bd 21cd 3abd
00000220: 4c49 833d 3399 4d3d b53e 743d 6b8f 263d
00000230: 1c79 32bd 2c32 1c3e cd1e d73d 84a7 203e
00000240: abdf 2abd fa14 3cbd 51a6 49be a6a2 343d
00000250: 6484 03bd 38a8 f63d 9ca9 aebd 5fb4 b93c
00000260: a745 28be e82b 253e 6369 64bc 4c40 0abe
00000270: f366 533d d9d3 8cbd d5ad c8bb 2ef3 9abd
00000280: 887e 50ba 811e bb3d 7999 3b3d 0043 5ebe
00000290: e2c7 04bd 8db8 253d cee4 e9bd e748 02be
000002a0: f978 a73d 4e95 45be 3c1e e73c c1c7 5fbd
000002b0: f4ef 1ebe 8f11 1bbe b650 2f3d fbe1 edbd
000002c0: f9aa 34bd 846c c0bc cae3 21be 38b0 2e3d
000002d0: adeb bbbc 0031 0e3e 7fea bdbd 25d8 17be
000002e0: 46d6 283d bdd7 a13d f658 36be 7034 08bc
000002f0: ce45 e7bd c471 1cbd a5a1 71bd c282 8e3c
00000300: 87bc 05bd 7562 0c3c e2ab 09be d46b 9e3c
00000310: ef09 a43d 15a6 bcbd 59d7 21be fb5a 0cbe

bias_hh_l1 f4 [200]
0.12177427 -0.011576233 -0.13176334 -0.045578595 -0.20233093 -0.1118581 0.09914638 -0.078907534
-0.14370838 -0.14319056 -0.18137315 0.16004007 -0.15740035 0.05707594 -0.20840299 -0.0890562
-0.09999204 -0.20899484 -0.07012673 -0.042922474 0.19566628 -0.09698592 0.0220125 -0.20526753
-0.06466175 0.10338902 -0.04307347 0.20781265 -0.014541009 0.15098526 -0.035189915 0.11478243
-0.14012599 -0.1557866 -0.024936335 0.107391395 -0.07406879 -0.06658623 -0.12521283 0.061565254
-0.013035716 -0.10562395 0.008336747 -0.062499207 0.028160682 -0.19682603 -0.054326266 -0.01845894
-0.17878345 -0.09023186 -0.026816601 -0.103150986 -0.1444324 -0.017709717 -0.1979552 -0.18334444
0.013227164 -0.10652137 -0.10590404 0.03779424 -0.040080834 0.11864347 -0.1021469 -0.121278964
-0.15613043 0.102725305 -0.08435771 -0.14180154 -0.054309007 -0.21385705 -0.008424835 -0.1463441
0.031068502 0.014034557 -0.13988988 -0.1342374 -0.044147346 0.12539166 -0.10045628 0.08549131
-0.09693679 -0.067627706 -0.14815842 -0.056772187 -0.13573475 -0.10848641 -0.11160966 -0.08881012
-0.11881044 -0.20596159 0.015416489 -0.051364984 -0.22522588 0.1513308 -0.18371704 -0.15211612
-0.15253232 -0.008691539 -0.011906762 -0.047025092 -0.18510902 0.03896947 -0.029697394 0.21871689
-0.06466931 0.00046507324 -0.14577761 0.21072768 0.0026415256 0.09350382 0.06749136 0.1461518
-0.052445795 0.17223723 -0.014665387 0.08114082 0.0772776 -0.16630468 0.069859974 0.05549861
-0.17507179 0.115655206 0.060684558 0.03684708 0.14352004 0.18503064 0.059772033 -0.21334204
-0.008133855 0.20988177 0.081893615 0.10434758 -0.07817049 -0.06200548 0.048369538 -0.030217357
0.11187607 -0.121228434 0.017651329 0.053400073 0.21136466 -0.045309473 -0.022308033 0.17870897
0.023455936 0.13156217 0.04688244 -0.038000982 0.07279718 -0.024500966 0.032115452 0.046072844
-0.10341037 -0.09202649 -0.1542896 -0.1600179 -0.11932702 0.12225441 -0.15629807 0.040096086
-0.09195948 -0.090566315 -0.19229247 -0.1250096 -0.08711582 -0.10961957 -0.07287982 -0.10937106
0.05850186 -0.19592194 0.12441941 -0.07135331 0.00053107797 -0.10639222 -0.10323422 0.08234184
-0.1595779 -0.031123776 -0.0011464806 0.1419045 0.07607949 0.1265673 -0.26153237 0.02943404
-0.19124423 -0.13400151 0.06119726 -0.12937915 0.020255942 -0.16604468 -0.10079524 0.024376873
-0.0659971 -0.023995847 -0.08125335 -0.1632685 -0.14847803 -0.20313008 -0.06808496 -0.14087872
00000000: ca64 f93d 3eaa 3dbc f8ec 06be 9fb0 3abd
00000010: d72f 4fbe dc15 e5bd 420d cb3d 469a a1bd
00000020: 4a28 13be 8ca0 12be e2b9 39be 8be1 233e
00000030: 8f2d 21be 76c8 693d 9867 55be 1963 b6bd
00000040: a0c8 ccbd be02 56be 9a9e 8fbd 7acf 2fbd
00000050: be5c 483e 8ea0 c6bd 8f53 b43c a731 52be
00000060: 616d 84bd 9fbd d33d cf6d 30bd d7cc 543e
00000070: 6a3d 6ebc e19b 1a3e 4d23 10bd 0d13 eb3d
00000080: 307d 0fbe 8686 1fbe 4947 ccbc 05f0 db3d
00000090: 61b1 97bd 5d5e 88bd cb37 00be d92b 7c3d
000000a0: c193 55bc 5f51 d8bd da96 083c 2bff 7fbd
000000b0: 3bb1 e63c c38c 49be 3885 5ebd 3437 97bc
000000c0: 0213 37be 7bcb b8bd 7dae dbbc d340 d3bd
000000d0: 16e6 13be f813 91bc c5b4 4abe a5be 3bbe
000000e0: bfb6 583c e027 dabd 38e4 d8bd 22ce 1a3d
000000f0: cd2b 24bd 59fb f23d 6532 d1bd 1b61 f8bd
00000100: a8e0 1fbe a561 d23d bcc3 acbd 6c34 11be
00000110: 1f73 5ebd 58fd 5abe 5208 0abc 3adb 15be
00000120: 5f83 fe3c 33f1 653c 4b3f 0fbe 8775 09be
00000130: d9d3 34bd ac66 003e 06bc cdbd 1116 af3d
00000140: cc86 c6bd 6580 8abd d7b6 17be f489 68bd
00000150: 0dfe 0abe 1f2e debd 9b93 e4bd 15e2 b5bd
00000160: e352 f3bd 98e7 52be 7195 7c3c 1764 52bd
00000170: 9da1 66be 76f6 1a3e 5220 3cbe 54c4 1bbe
00000180: 6f31 1cbe f566 0ebc 9414 43bc 629d 40bd
00000190: 388d 3dbe 739e 1f3d f347 f3bc 52f7 5f3e
000001a0: 5871 84bd 13d5 f339 ba46 15be ffc8 573e
000001b0: 721d 2d3b ee7e bf3d e938 8a3d d1a8 153e
000001c0: 67d1 56bd f55e 303e 1747 70bc 292d a63d
000001d0: b843 9e3d c64b 2abe bf12 8f3d 8352 633d
000001e0: 0546 33be a3dc ec3d 5f90 783d f7ec 163d
000001f0: ebf6 123e ac78 3d3e 85d3 743d 5676 5abe
00000200: dc43 05bc 3feb 563e d7b7 a73d 2fb4 d53d
00000210: da17 a0bd 75f9 7dbd 231f 463d 648a f7bc
00000220: 481f e53d 9d46 f8bd 8599 903c 09ba 5a3d
00000230: fa6f 583e 6d96 39bd 56bf b6bc 7cff 363e
00000240: aa26 c03c 3cb8 063e cd07 403d eba6 1bbd
00000250: b016 953d 40b6 c8bc 7e8b 033d e1b6 3c3d
00000260: d1c8 d3bd 6278 bcbd 18fe 1dbe bbdb 23be
00000270: ba61 f4bd 8560 fa3d 9a0c 20be cb3b 243d
00000280: 4055 bcbd d57a b9bd 51e8 44be 8402 00be
00000290: c769 b2bd 3a80 e0bd 0442 95bd effd dfbd
000002a0: a59f 6f3d c39f 48be 9bcf fe3d af21 92bd
000002b0: 0a38 0b3a 2ae4 d9bd 766c d3bd d7a2 a83d
000002c0: 6468 23be 4af7 febc 8145 96ba 6a4f 113e
000002d0: 90cf 9b3d dc9a 013e 92e7 85be a81f f13c
000002e0: 87d5 43be b137 09be faa9 7a3d f87b 04be
000002f0: caef a53c 9e07 2abe bc6d cebd 02b2 c73c
00000300: 7d29 87bd f092 c4bc 2868 a6bd dc2f 27be
00000310: a00a 18be 5501 50be 2170 8bbd 8342 10be

weight f4 [1, 50]
-0.12736905 -0.027792957 0.0059513687 0.122401156 0.009589756 -0.0007405981 -0.058092665 0.106621206
0.034859926 0.02174991 -0.028642988 0.087769546 0.030691871 0.044904847 -0.04433905 0.12776068
-0.0044109263 -0.04333321 0.1343836 0.035663214 -0.14397733 0.04220414 -0.045361787 0.03030182
0.065235935 0.098817706 0.014133799 -0.16400655 -0.0030530493 0.11930386 0.16369914 0.15069725
-0.053390563 0.022852764 -0.09322011 -0.008371967 0.0069861226 -0.06380788 0.011276931 0.03093435
0.13681316 0.026480354 0.031357136 0.11972887 -0.038890224 0.002113267 -0.09073668 -0.015523575
0.0074967337 0.08343516
00000000: 086d 02be 0eae e3bc b303 c33b 75ad fa3d
00000010: 5a1e 1d3c b224 42ba 93f2 6dbd 385c da3d
00000020: 48c9 0e3d de2c b23c b3a4 eabc 85c0 b33d
00000030: 856d fb3c 25ee 373d dd9c 35bd b2d3 023e
00000040: 8889 90bb 2a7e 31bd db9b 093e 9713 123d
00000050: cb6e 13be 40de 2c3d 48cd 39bd 863b f83c
00000060: 6b9a 853d f060 ca3d 7391 673c 55f1 27be
00000070: ab15 48bb 9555 f43d bfa0 273e 6150 1a3e
00000080: 10b0 5abd b835 bb3c 2fea bebd 932a 09bc
00000090: d8eb e43b b5ad 82bd e0c2 383c 096a fd3c
000000a0: c018 0c3e 54ed d83c 5770 003d 6934 f53d
000000b0: 5b4b 1fbd bd7e 0a3b 27d4 b9bd 9856 7ebc
000000c0: 29a7 f53b 0ee0 aa3d
