train_model_hourly/last_model_5.pth (torch, 127927 bytes, 9 tensors)

weight_ih_l0 f4 [200, 1]
0.044506337 -0.21133077 -0.11718801 -0.11460202 -0.025278077 -0.07280247 0.009702159 -0.10690847
-0.15916628 -0.0043505123 -0.15203999 -0.14696221 0.016416995 0.040416054 0.0033916165 -0.02424291
0.09421051 0.08545608 -0.21231715 -0.05771676 -0.02134865 -0.09627658 -0.119202465 -0.015967287
-0.026492957 -0.123345606 -0.041485675 -0.023100281 -0.055939957 -0.18959874 0.096150264 0.0564302
0.019488439 0.00059152715 -0.12194827 0.021285834 0.066504724 -0.20031363 -0.24123687 -0.07125483
-0.038907804 -0.06286307 -0.170502 0.0010693144 -0.11012706 -0.0014001315 0.093466125 -0.095851436
-0.053926934 -0.1506155 0.015557291 -0.109505616 -0.15883972 -0.008856174 0.09336098 0.037248813
0.0077499053 0.06678711 -0.0155497845 -0.07556748 -0.15139161 -0.0515252 0.06148796 -0.049298108
0.040624246 -0.043844566 -0.076730944 -0.004717287 0.009630121 -0.026362767 0.05658874 -0.16631365
-0.09547576 -0.0157288 0.009025319 -0.11404582 -0.087951966 0.07050178 -0.07038244 -0.106171094
0.047463227 -0.0919856 -0.12403159 -0.13096912 -0.116658136 -0.14690857 0.15004927 -0.14140183
0.018891431 -0.0013525055 -0.12718478 0.04068623 -0.12134682 0.08582397 -0.0027352446 -0.012857228
-0.0048948782 0.031692654 0.10341143 -0.08174753 0.06523428 0.085762925 -0.025911335 0.09656479
0.11133707 0.09542474 -0.17441346 -0.02783232 -0.02747579 0.033293 -0.01437703 0.12104216
-0.07972377 -0.055289846 -0.14049205 -0.0082296 0.14075617 0.1186622 0.03626798 -0.009924442
0.014418716 0.12394241 -0.03295507 -0.1326518 0.013539307 0.05177336 -0.023231493 -0.07290748
0.08764134 -0.020228542 0.02835446 0.0045719706 0.046464793 0.053113345 -0.025957929 0.051184848
-0.15718424 -0.020304736 -0.0640444 -0.061599165 0.045274768 -0.07839422 0.0533338 -0.11410018
-0.12512077 0.10339039 0.13076435 -0.15240261 0.11344651 -0.15826721 -0.09698601 -0.035178643
-0.15035191 -0.0275186 0.030706681 0.097306915 -0.038302112 -0.16380584 -0.032207422 -0.061983973
-0.071546435 0.048929285 -0.12407663 -0.0220907 -0.10444183 -0.14720888 -0.04358276 -0.081026874
-0.16010748 0.037324052 -0.13828316 -0.14907737 0.047290996 -0.12638934 -0.08438813 -0.026217
0.13338533 -0.07510414 0.1397392 -0.043049112 0.025623944 -0.13164592 -0.14228827 0.119845696
-0.1599204 -0.20068875 -0.017892579 0.018132683 -0.1501799 -0.043378893 -0.092889704 -0.04903328
-0.11597854 -0.004932499 0.025268622 -0.112678066 0.106020264 0.10422546 0.035956807 -0.026610225
00000000: 474c 363d 1867 58be 4400 f0bd 77b4 eabd
00000010: f813 cfbc 7619 95bd cef5 1e3c d4f2 dabd
00000020: 7cfc 22be be8e 8ebb 5fb0 1bbe 437d 16be
00000030: ef7c 863c 4e8b 253d e245 5e3b 1199 c6bc
00000040: 71f1 c03d 9903 af3d ab69 59be 6968 6cbd
00000050: 5de3 aebc a82c c5bd 6c20 f4bd d4cd 82bc
00000060: c207 d9bc 9f9c fcbd e2ec 29bd cd3c bdbc
00000070: 4c21 65bd 2c26 42be 6eea c43d 5a23 673d
00000080: 38a6 9f3c b710 1b3a 04c0 f9bd a15f ae3c
00000090: a133 883d 041f 4dbe cc06 77be 0dee 91bd
000000a0: ca5d 1fbd 5abe 80bd 1498 2ebe 3d28 8c3a
000000b0: 4c8a e1bd 9e84 b7ba 2b6b bf3d c24d c4bd
000000c0: 7de2 5cbd f33a 1abe 02e4 7e3c 7b44 e0bd
000000d0: e1a6 22be 7c19 11bc 0b34 bf3d 3692 183d
000000e0: ebf2 fd3b aec7 883d 86c4 7ebc 1fc3 9abd
000000f0: 6706 1bbe 170c 53bd cdda 7b3d d0ec 49bd
00000100: 9c65 263d 5c96 33bd 1d25 9dbd 7993 9abb
00000110: a8c7 1d3c bbf6 d7bc 98c9 673d 204e 2abe
00000120: cc88 c3bd afd9 80bc eede 133c db90 e9bd
00000130: 2920 b4bd 3d63 903d ab24 90bd 3b70 d9bd
00000140: cd68 423d f262 bcbd 4604 febd c51c 06be
00000150: 76ea eebd 336f 16be 84a6 193e a4cb 10be
00000160: 34c2 9a3c 8e46 b1ba ba3c 02be 9ba6 263d
00000170: ae84 f8bd 7ac4 af3d ca41 33bb 1fa7 52bc
00000180: 3765 a0bb 28d0 013d 5fc9 d33d 406b a7bd
00000190: 8d99 853d 79a4 af3d 0244 d4bc c3c3 c53d
000001a0: b104 e43d 0c6e c33d 7199 32be 9b00 e4bc
000001b0: e814 e1bc 3e5e 083d a28d 6bbc f4e4 f73d
000001c0: 3746 a3bd 9b77 62bd 26dd 0fbe 72d5 06bc
000001d0: 6322 103e 2b05 f33d bc8d 143d 209a 22bc
000001e0: 7a3c 6c3c 85d5 fd3d e5fb 06bd e0d5 07be
000001f0: f8d3 5d3c 4e10 543d f94f bebc 8450 95bd
00000200: 4e7d b33d 54b6 a5bc 9d47 e83c 78d0 953b
00000210: de51 3e3d 618d 593d b9a5 d4bc 34a7 513d
00000220: e8f4 20be 1e56 a6bc b629 83bd 684f 7cbd
00000230: 0972 393d 268d a0bd 8b74 5a3d 5bad e9bd
00000240: a91f 00be 57be d33d 17e7 053e 6e0f 1cbe
00000250: a556 e83d cd10 22be 9aa0 c6bd 7b17 10bd
00000260: daf5 19be b06e e1bc 948c fb3c d948 c73d
00000270: ade2 1cbd b8bc 27be eeeb 03bd e8e2 7dbd
00000280: f086 92bd 136a 483d e31b febd 8ef7 b4bc
00000290: 99e5 d5bd edbd 16be d683 32bd 6bf1 a5bd
000002a0: 37f3 23be 1be1 183d 1a9a 0dbe bda7 18be
000002b0: 34b4 413d 356c 01be afd3 acbd 09c5 d6bc
000002c0: 2a96 083e 33d0 99bd cb17 0f3e 4454 30bd
000002d0: 4ee9 d13c 30ce 06be 04b4 11be a971 f53d
000002e0: 2cc2 23be 5a81 4dbe 7593 92bc fe8a 943c
000002f0: c2c8 19be 11ae 31bd f53c bebd 1fd7 48bd
00000300: 2886 edbd cda0 a1bb 2400 cf3c c2c3 e6bd
00000310: 2721 d93d 2874 d53d 7247 133d b0fd d9bc

weight_hh_l0 f4 [200, 50]
0.08215863 -0.008596774 -0.14504023 0.15814115 -0.12829463 -0.06455725 0.13566196 -0.05110641
0.07735024 -0.09022386 0.12353232 -0.1341654 0.1422688 0.14375469 0.059594195 -0.03849293
0.04363315 -0.091227554 -0.051529307 0.051466405 0.10275265 -0.05416653 -0.023458276 -0.10261892
0.014805379 0.058036726 -0.021786872 -0.013793705 0.038818005 -0.01446105 -0.013002845 -0.08326581
0.08968912 -0.07712989 -0.15522885 0.19882365 0.053429525 0.086273976 -0.12975131 -0.07629073
-0.012250376 -0.024798805 0.04627232 0.08123606 0.0082764635 0.18983586 0.031897623 0.0317652
0.0886339 0.03064714 0.01074486 0.044762194 -0.126675 -0.001542133 -0.078973934 -0.026692849
-0.025223264 0.21054485 -0.00017678311 -0.0006180969 0.14413005 -0.09342904 0.16979189 0.015905796
-0.0038041626 0.08094802 0.029009102 -0.15134355 0.08636486 -0.050604917 0.0473088 0.16384281
-0.012735853 0.06004004 -0.09159852 -0.21056305 0.06683928 -0.09995712 -0.14907312 -0.07257869
0.0013780085 -0.109899364 -0.031965204 0.1996503 0.09710824 -0.077903934 0.12345807 0.0067473296
0.053423937 0.049553107 0.10967462 0.21353042 -0.20649876 0.20773816 0.13517249 0.15913291
-0.17960937 0.20746994 -0.20897706 -0.056723583 0.029004792 -0.17808503 0.059189737 0.071581475
-0.16425969 -0.16022716 0.13845131 0.042180832 -0.08686363 0.099899925 -0.04762393 -0.14353532
0.1741521 0.11115748 0.10706757 0.030546056 -0.17772637 0.026388261 -0.05706037 -0.10146984
0.106441304 -0.14874515 -0.08749486 0.12600271 0.07661445 -0.0636544 0.14756446 -0.14854935
-0.0009629999 0.18974413 0.04484479 -0.06556297 -0.2007697 0.14919269 -0.07063812 0.17642295
0.15997192 -0.018612651 -0.069547504 -0.061795138 -0.18126777 0.10034954 -0.0027990981 0.1697368
0.1718894 0.092093065 0.026050152 0.055698268 0.026802925 0.16707687 0.06336926 -0.10182208
0.043083873 0.06477556 -0.15702394 -0.14747289 0.023863515 0.12394294 -0.021684403 0.16395734
0.08707341 -0.06087636 -0.047216263 0.05131877 0.15380214 0.090669766 -0.15284665 0.019258842
0.02860412 -0.039239015 0.09383229 0.09472871 0.1561855 0.16416982 -0.07285771 -0.14421636
-0.00987233 0.018245466 0.07975357 0.13087454 -0.12649576 0.026967324 0.027628988 0.011215861
-0.17218441 0.18631789 -0.048063647 0.04944034 0.11891079 0.007822758 0.057576645 0.11606622
-0.14895897 0.06093088 -0.04172374 0.15855508 -0.0132425865 0.15793362 -0.049607456 -0.04380568
0.043841727 -0.1171418 0.0040222155 0.08375288 0.094714165 -0.07931718 0.11808489 0.1366299
-0.010661553 0.18004158 -0.046587344 0.029681759 -0.008484164 0.13283393 0.015194554 0.0916378
0.047950562 0.10454684 0.05269615 -0.19837862 -0.14208716 -0.023658857 0.001094356 -0.09392343
0.06884588 0.081477396 0.0066482103 -0.12775163 -0.023157174 -0.09940065 0.066171974 -0.10603457
-0.06829958 -0.06729966 0.024251537 0.0028706382 -0.11307261 0.08124702 0.093307674 0.062424127
-0.14168382 0.012625988 -0.07787259 -0.027821826 0.10343828 0.14061141 -0.06624124 0.013674257
0.06954283 0.045985967 -0.004743051 0.06550006 0.061788917 0.08194254 -0.1257968 0.06651472
00000000: c942 a83d 7cd9 0cbc 6d85 14be c1ef 213e
00000010: ab5f 03be 9736 84bd f8ea 0a3e f454 51bd
00000020: cd69 9e3d 4ac7 b8bd 83fe fc3d a862 09be
00000030: eaae 113e 6e34 133e 0b19 743d c3aa 1dbd
00000040: adb8 323d 83d5 babd 6510 53bd 70ce 523d
00000050: fb6f d23d b9dd 5dbd 922b c0bc de29 d2bd
00000060: 4392 723c ebb7 6d3d 627a b2bc fefe 61bc
00000070: a1ff 1e3d 0aee 6cbc e309 55bc 4487 aabd
00000080: eeae b73d 47f6 9dbd 50f4 1ebe 6d98 4b3e
00000090: ebd8 5a3d 69b0 b03d 87dd 04be 503e 9cbd
000000a0: cdb5 48bc dd26 cbbc 0b88 3d3d 175f a63d
000000b0: 019a 073c 5564 423e 15a7 023d 3a1c 023d
000000c0: b185 b53d b60f fb3c 360b 303c 9058 373d
000000d0: 17b7 01be 6621 caba 16bd a1bd f6aa dabc
000000e0: 05a1 cebc 1299 573e db5e 39b9 c807 22ba
000000f0: d496 133e b957 bfbd eddd 2d3e df4c 823c
00000100: 424f 79bb 13c8 a53d 7fa4 ed3c cef9 1abe
00000110: 0fe0 b03d 1a47 4fbd dfc6 413d 69c6 273e
00000120: 0aaa 50bc 8cec 753d 0198 bbbd d79d 57be
00000130: 08e3 883d 52b6 ccbd a0a6 18be 23a4 94bd
00000140: 4b9e b43a eb12 e1bd f2ed 02bd 2171 4c3e
00000150: afe0 c63d 198c 9fbd 96d7 fc3d b418 dd3b
00000160: 0fd3 5a3d 33f8 4a3d 169d e03d b8a7 5a3e
00000170: 6974 53be 50b9 543e a86a 0a3e bdf3 223e
00000180: 85eb 37be 0073 543e 15fe 55be fd56 68bd
00000190: 759b ed3c ec5b 36be f070 723d 4f99 923d
000001a0: b133 28be 9712 24be 2ec6 0d3e cfc5 2c3d
000001b0: 8fe5 b1bd 5598 cc3d 4f11 43bd ecfa 12be
000001c0: ee54 323e 88a6 e33d 3e46 db3d b93b fa3c
000001d0: e7fd 35be 322c d83c 22b8 69bd 6bcf cfbd
000001e0: e6fd d93d a650 18be 8130 b3bd db06 013e
000001f0: 09e8 9c3d 3d5d 82bd 231b 173e 521d 18be
00000200: d471 7cba 494c 423e 2caf 373d e145 86bd
00000210: 9296 4dbe f8c5 183e b8aa 90bd 38a8 343e
00000220: aecf 233e 8f79 98bc ec6e 8ebd e61c 7dbd
00000230: 429e 39be 0f84 cd3d 1371 37bb 7ccf 2d3e
00000240: c603 303e 4a9b bc3d 2167 d53c de23 643d
00000250: cf91 db3c 3316 2b3e bec7 813d 1888 d0bd
00000260: b778 303d 0ca9 843d e2ca 20be 2203 17be
00000270: 6b7d c33c ccd5 fd3d 7da3 b1bc 6fe4 273e
00000280: 8b53 b23d 7d59 79bd d765 41bd a133 523d
00000290: 4f7e 1d3e 12b1 b93d d583 1cbe b8c4 9d3c
000002a0: 3053 ea3c 17b9 20bd 252b c03d 2001 c23d
000002b0: 17ef 1f3e 221c 283e 6c36 95bd 74ad 13be
000002c0: 8ebf 21bc 8477 953c d755 a33d fa03 063e
000002d0: 1b88 01be 94ea dc3c 3056 e23c bbc2 373c
000002e0: 1c51 30be 1eca 3e3e 63de 44bd f481 4a3d
000002f0: 8087 f33d 062b 003c 7dd5 6b3d 20b4 ed3d
00000300: b388 18be a992 793d 83e6 2abd 435c 223e
00000310: 6ff7 58bc 5ab9 213e 3031 4bbd 966d 33bd
00000320: 6293 333d 0ae8 efbd cacc 833b a186 ab3d
00000330: 80f9 c13d 0c71 a2bd 7ed6 f13d b5e8 0b3e
00000340: cbad 2ebc d25c 383e 5fd2 3ebd 2927 f33c
00000350: 2a01 0bbc 9e05 083e 94f2 783c 99ac bb3d
00000360: cf67 443d a71c d63d ebd7 573d c423 4bbe
00000370: 4c7f 11be 38d0 c1bc 7e70 8f3a ed5a c0bd
00000380: 12ff 8c3d 9fdd a63d 3bd9 d93b 53d1 02be
00000390: 1db4 bdbc 9192 cbbd 2c85 873d a728 d9bd
000003a0: a6e0 8bbd 67d4 89bd 29ab c63c 5121 3c3b
000003b0: 9d92 e7bd d664 a63d 1818 bf3d 71b0 7f3d
000003c0: 9015 11be 3bdd 4e3c aa7b 9fbd 99ea e3bc
000003d0: 73d7 d33d 70fc 0f3e 7da9 87bd fe09 603c
000003e0: 796c 8e3d c85b 3c3d 986b 9bbb e524 863d
000003f0: 6016 7d3d 7ed1 a73d e0d0 00be df38 883d

bias_ih_l0 f4 [200]
-0.08283116 -0.24286787 -0.0367579 -0.09769134 -0.085335724 0.117037624 -0.10474333 0.08661637
-0.07928665 -0.019090576 0.028767563 -0.12363766 -0.1123667 -0.039351992 -0.028147804 -0.17356296
0.004568408 -0.13675283 -0.11919005 -0.066923395 -0.047641046 -0.15764162 0.06358528 -0.01993707
-0.17298412 0.0775812 -0.0019844258 0.078757 -0.024796106 -0.049024835 0.13247967 0.07406814
0.093104616 0.051220775 -0.08304897 -0.01886014 -0.03317695 0.056786507 -0.23331808 -0.07353912
-0.0022808695 0.049096927 0.022702627 0.04262586 0.029174307 -0.15983261 0.03686612 0.04369005
0.05591158 -0.08342867 -0.015578237 0.0113530215 0.05122122 -0.0067166854 -0.0022555399 0.011106905
0.056138508 0.07339678 -0.047249187 0.0133490125 -0.17613284 -0.196143 -0.044211973 -0.119017996
-0.0073236623 -0.11350249 0.008142402 0.06475712 -0.14691412 -0.18895489 -0.18296202 -0.2059587
-0.12859365 -0.09408576 -0.07161506 -0.05230699 0.14327763 0.016040424 -0.07996273 -0.09549339
0.089130156 -0.14284854 0.094716564 0.03302516 -0.12758437 -0.113204315 0.05104076 0.00985829
-0.031395 -0.08674101 -0.084005475 -0.0410594 -0.19574448 0.071262546 -0.14918853 0.05676538
0.12475603 0.12978941 0.14068766 0.033883546 -0.15312967 -0.006598856 0.11601007 -0.16582689
0.069892675 0.03533389 0.04504784 -0.03740852 -0.07255965 -0.017888665 -0.07957531 0.059737176
0.051997315 -0.05998619 -0.15147309 -0.06231054 0.07932953 0.15323126 -0.15335596 0.033990413
-0.0850813 -0.067499876 -0.025189202 -0.09936964 0.018516598 0.13296042 -0.16248788 0.07821283
0.07266204 -0.15033685 0.15506174 -0.012554485 0.14136226 -0.13105464 0.1497688 -0.008048772
-0.165918 0.058806393 0.040473532 -0.055820346 0.056957226 -0.08319493 -0.0084741535 -0.11510271
-0.08305425 -0.06906422 0.152458 -0.061863117 0.1660531 0.025247313 0.014402229 -0.0714498
-0.17049076 0.04036414 -0.07653897 0.117797084 -0.07767332 -0.18225357 -0.018003786 -0.0969064
0.051622953 -0.066542305 -0.11742801 0.107563205 -0.011162875 -0.025493607 -0.07236206 0.13733405
-0.20418622 -0.22351392 -0.11643123 0.042615812 0.059303235 -0.13274758 -0.13453123 -0.013732201
-0.07677863 0.010682583 -0.110993214 -0.13187484 -0.13466209 -0.14001833 -0.096463956 -0.08884221
0.019674273 0.04972764 -0.060249817 -0.051119443 -0.15865421 -0.05744878 -0.21365502 -0.008528804
-0.22378153 0.058098182 0.079301625 0.019264413 0.036197193 0.010448247 0.104862005 -0.1061458
00000000: 62a3 a9bd 5bb2 78be 748f 16bd 6612 c8bd
00000010: 7fc4 aebd 6cb1 ef3d ac83 d6bd ec63 b13d
00000020: 0a61 a2bd d763 9cbc f4a9 eb3c be35 fdbd
00000030: 8320 e6bd 8e2f 21bd 3996 e6bc 7dba 31be
00000040: 95b2 953b ef08 0cbe ea19 f4bd 220f 89bd
00000050: 4223 43bd ce6c 21be 0039 823d 1153 a3bc
00000060: c022 31be e4e2 9e3d 240d 02bb 5a4b a13d
00000070: 3421 cbbc 44ce 48bd c0a8 073e 09b1 973d
00000080: a2ad be3d e0cc 513d 9415 aabd 9580 9abc
00000090: 8ee4 07bd f898 683d efea 6ebe ae9b 96bd
000000a0: a47a 15bb dc19 493d dcfa b93c 7498 2e3d
000000b0: f5fe ee3c 29ab 23be ee00 173d 56f4 323d
000000c0: 8a03 653d a7dc aabd dd3b 7fbc 0602 3a3c
000000d0: 58cd 513d a417 dcbb aed1 13bb bcf9 353c
000000e0: 7ef1 653d 0d51 963d 5d88 41bd d1b5 5a3c
000000f0: 2b5c 34be b6d9 48be 9d17 35bd b5bf f3bd
00000100: 55fb efbb fe73 e8bd b667 053c 629f 843d
00000110: a870 16be 647d 41be 655a 3bbe d6e6 52be
00000120: 0eae 03be 09b0 c0bd ebaa 92bd db3f 56bd
00000130: 5fb7 123e 3567 833c 80c3 a3bd 0a92 c3bd
00000140: df89 b63d e346 12be c2fa c13d 6445 073d
00000150: 7aa5 02be aad7 e7bd 1e10 513d aa84 213c
00000160: 0b98 00bd 45a5 b1bd 100b acbd e72d 28bd
00000170: 3e71 48be 19f2 913d e1c4 18be d182 683d
00000180: 1780 ff3d 84e7 043e 6d10 103e 79c9 0a3d
00000190: 06ce 1cbe 373b d8bb b096 ed3d 86ce 29be
000001a0: e423 8f3d 45ba 103d 1584 383d ad39 19bd
000001b0: 279a 94bd 408b 92bc 61f8 a2bd f8ae 743d
000001c0: 23fb 543d 14b4 75bd c31b 1bbe 5639 7fbd
000001d0: 8577 a23d a8e8 1c3e 5809 1dbe 8839 0b3d
000001e0: 1b3f aebd 603d 8abd 9659 cebc 4f82 cbbd
000001f0: 1fb0 973c c726 083e 3963 26be 0c2e a03d
00000200: d6cf 943d e7f1 19be 81c8 1e3e 54b1 4dbc
00000210: 45c1 103e 3033 06be fe5c 193e ffde 03bc
00000220: 68e6 29be f9de 703d 93c7 253d e0a3 64bd
00000230: fb4b 693d 1a62 aabd 2dd7 0abc f8ba ebbd
00000240: 5918 aabd 8b71 8dbd f31d 1c3e 2e64 7dbd
00000250: d309 2a3e 74d3 ce3c 54f7 6b3c 4654 92bd
00000260: 2195 2ebe de54 253d 77c0 9cbd 993f f13d
00000270: 3113 9fbd aea0 3abe ad7c 93bc dd76 c6bd
00000280: 9772 533d 5547 88bd 197e f0bd 194a dc3d
00000290: 7ee4 36bc f8d7 d0bc 8f32 94bd 4ca1 0c3e
000002a0: 3116 51be d5e0 64be 7f73 eebd eb8d 2e3d
000002b0: f3e7 723d fbee 07be 8ec2 09be 07fd 60bc
000002c0: 1d3e 9dbd 0006 2f3c 6950 e3bd 330a 07be
000002d0: dce4 09be f760 0fbe e58e c5bd e8f2 b5bd
000002e0: f12b a13c 36af 4b3d 83c8 76bd 9f62 51bd
000002f0: 4076 22be 694f 6bbd 62c8 5abe 66bc 0bbc
00000300: fc26 65be 5cf8 6d3d e468 a23d 67d0 9d3c
00000310: 8243 143d 202f 2b3c e4c1 d63d f862 d9bd

bias_hh_l0 f4 [200]
0.10540468 -0.022017503 -0.0885309 0.036045514 -0.07107391 -0.009607532 -0.027294707 -0.08355694
-0.10336335 -0.088563204 -0.09874703 -0.10264588 -0.06723952 -0.045092 0.11640125 -0.028857194
-0.04738036 -0.011164072 -0.038772613 0.013241292 0.05106835 0.030865638 -0.047341008 0.096004106
0.08936702 -0.073489785 0.13561243 0.008461913 -0.020014279 -0.042111438 0.037672356 -0.13877797
-0.13063896 0.08071107 -0.17258027 0.033948965 0.07285343 -0.046940356 -0.04048793 -0.05499161
-0.16777463 -0.16811894 0.01562556 -0.0019969118 -0.0043525235 -0.12512466 -0.007803437 0.11648304
0.16512148 -0.14968437 -0.1159229 -0.110369384 0.08477996 0.020254755 -0.0618437 -0.054010756
0.123278104 -0.16613132 0.05442947 -0.09879282 -0.15294783 -0.08471848 0.06190519 -0.05954859
0.14105926 0.04973358 0.05228982 0.023906311 0.038955685 -0.06434405 0.006347097 0.009148612
-0.08029225 -0.05291576 -0.08331439 0.0032978205 -0.12241614 0.101567864 -0.1002409 -0.062471855
-0.032106295 0.10586971 0.012184957 -0.092977785 -0.022668079 -0.009023147 -0.009448072 0.047294736
-0.21762954 -0.052290466 -0.055430792 0.050598584 -0.2235362 -0.12097798 -0.07391348 0.03626765
0.044823576 -0.13244072 -0.06877222 -0.18648842 -0.0647758 -0.037292447 -0.10057426 0.031099496
0.007923881 0.13668644 -0.15840214 -0.10116051 -0.022006396 0.057104733 0.078409426 -0.047590658
-0.07564145 -0.1544964 -0.030757988 0.032877434 -0.023573633 -0.011313535 0.01564406 0.0085756
-0.0931821 0.049268782 -0.109789215 -0.034949046 0.054869175 -0.07970299 0.03214683 0.0152490735
0.1466149 0.098370425 0.032682534 0.033594742 -0.1012081 -0.14227816 -0.06963873 0.011540771
-0.038373414 0.038879596 -0.031760808 -0.10279616 -0.09167544 -0.05018915 0.00038150567 -0.15101394
0.08367636 0.05121592 0.055115562 -0.080230825 0.074075386 -0.0632978 0.06813191 0.014817089
0.10828385 0.07778585 -0.084357545 -0.040563595 0.04583065 -0.029233504 -0.10483776 -0.21166259
0.0010414955 -0.18205315 0.020821452 0.004442899 -0.080839455 -0.111502856 -0.023609936 -0.016018992
-0.041499436 -0.17296073 -0.05537061 0.048902184 0.10119453 0.094398975 0.08816525 0.016926037
0.14152178 -0.064447254 0.11462866 -0.17148247 -0.026626082 0.090713345 0.046373066 0.07778596
0.007658623 -0.11412944 -0.041028447 -0.17962673 -0.06288141 0.0609993 -0.07665519 -0.1408549
0.04426968 0.13606289 0.084454976 -0.082138784 -0.10271943 -0.13402756 -0.05193397 -0.049652997
00000000: 69de d73d 0d5e b4bc b04f b5bd 76a4 133d
00000010: 338f 91bd e968 1dbc 2699 dfbc e71f abbd
00000020: 2ab0 d3bd a060 b5bd e23b cabd 0138 d2bd
00000030: e0b4 89bd 64b2 38bd c763 ee3d ec65 ecbc
00000040: e911 42bd 83e9 36bc 08d0 1ebd 01f2 583c
00000050: 0c2d 513d efd9 fc3c a5e8 41bd cd9d c43d
00000060: 0e06 b73d d081 96bd fcdd 0a3e d6a3 0a3c
00000070: fcf4 a3bc 0b7d 2cbd 544e 1a3d d01b 0ebe
00000080: 38c6 05be d84b a53d e2b8 30be 120e 0b3d
00000090: 2e34 953d 8844 40bd acd6 25bd e23e 61bd
000000a0: 1dcd 2bbe 5f27 2cbe 2d01 803c 9fde 02bb
000000b0: 9d9f 8ebb ae20 00be f9b3 ffbb a98e ee3d
000000c0: 9b15 293e dc46 19be fc68 edbd 5809 e2bd
000000d0: 1ea1 ad3d 4ded a53c d24f 7dbd 623a 5dbd
000000e0: 3b79 fc3d 541e 2abe 70f1 5e3d e453 cabd
000000f0: 5b9e 1cbe e280 adbd 4c90 7d3d 39e9 73bd
00000100: d771 103e 70b5 4b3d da2d 563d 2bd7 c33c
00000110: ff8f 1f3d d0c6 83bd 4ffb cf3b 0fe4 153c
00000120: 4370 a4bd 32be 58bd bca0 aabd 3f20 583b
00000130: 50b5 fabd d002 d03d 1a4b cdbd 7de2 7fbd
00000140: e481 03bd 38d2 d83d 6aa3 473c 236b bebd
00000150: 68b2 b9bc d2d5 13bc 16cc 1abc 20b8 413d
00000160: 47da 5ebe 872e 56bd 660b 63bd 7640 4f3d
00000170: ace6 64be 4ec3 f7bd f35f 97bd 638d 143d
00000180: ed98 373d 8a9e 07be 73d8 8cbd d2f6 3ebe
00000190: 2da9 84bd f7bf 18bd e1f9 cdbd 5fc4 fe3c
000001a0: 2ad3 013c 88f7 0b3e 2c34 22be 3e2d cfbd
000001b0: c246 b4bc a7e6 693d 1f95 a03d 6cee 42bd
000001c0: e8e9 9abd 4e34 1ebe 2df8 fbbc 7daa 063d
000001d0: 7e1d c1bc 685c 39bc f927 803c ac80 0c3c
000001e0: 42d6 bebd 10ce 493d 2bd9 e0bd bb26 0fbd
000001f0: 80be 603d 523b a3bd 65ac 033d 40d7 793c
00000200: 3722 163e 6f76 c93d 1fde 053d a49a 093d
00000210: 3146 cfbd 5eb1 11be c09e 8ebd 8115 3d3c
00000220: 712d 1dbd 3640 1f3d 9f17 02bd cb86 d2bd
00000230: 55c0 bbbd 2393 4dbd d304 c839 66a3 1abe
00000240: 835e ab3d c9c7 513d dbc0 613d 0f50 a4bd
00000250: d6b4 973d 47a2 81bd be88 8b3d 60c3 723c
00000260: ecc3 dd3d 304e 9f3d a6c3 acbd 0326 26bd
00000270: ebb8 3b3d 1a7b efbc 2eb5 d6bd 14be 58be
00000280: ca82 883a 246c 3abe c091 aa3c bd95 913b
00000290: 288f a5bd 9c5b e4bd a069 c1bc 433a 83bc
000002a0: 50fb 29bd 9e1c 31be 4bcc 62bd a84d 483d
000002b0: 143f cf3d 4054 c13d fc8f b43d 79a8 8a3c
000002c0: 16eb 103e ecfc 83bd 6ec2 ea3d 1a99 2fbe
000002d0: f11e dabc ebc7 b93d aff1 3d3d 3f4e 9f3d
000002e0: 30f5 fa3b b2bc e9bd 720d 28bd 12f0 37be
000002f0: f8c7 80bd 67da 793d 65fd 9cbd 443c 10be
00000300: 2054 353d 1254 0b3e bbf6 ac3d 6138 a8bd
00000310: 915e d2bd 853e 09be b7b8 54bd f160 4bbd

weight_ih_l1 f4 [200, 50]
0.07738902 0.0669139 -0.13389932 -0.035291433 0.01897619 -0.02673194 0.044922803 0.14859469
-0.011341344 -0.05667097 0.10185979 -0.06859088 -0.022851167 0.15648092 0.16619526 0.18838671
-0.00082323153 0.027434902 -0.085100204 0.16509722 -0.055788744 0.041167185 0.0637986 0.14700015
0.015629912 0.03687747 0.114170134 -0.016982572 -0.009979359 0.17061394 -0.14848123 -0.20722273
-0.07542798 0.12386416 0.17255025 -0.1469322 0.14138754 -0.17957774 -0.12842412 0.039961312
-0.15092789 0.09402977 0.07926078 0.16317195 0.13205035 -0.1037247 -0.073357694 0.16797441
-0.13531953 -0.1692926 0.08304435 -0.005611749 0.02926351 -0.14072028 -0.027452422 -0.04017233
-0.06544027 0.009264624 0.0658805 -0.016865702 -0.08094495 0.021729162 -0.121253304 -0.021409469
-0.17432764 0.029622063 0.15544844 0.031838235 0.08258106 0.096320026 0.028944898 0.17355968
-0.00038514088 -0.0015608633 0.12563573 0.13260952 -0.091738015 -0.10273492 0.05542932 -0.17039268
0.08837625 0.014574334 0.008029904 -0.07833106 0.060031593 0.1469339 -0.17773384 0.10724706
0.048855156 0.010217559 0.042846706 -0.1653852 -0.109370306 -0.20011984 -0.1513687 0.01219111
0.17313527 0.028075585 0.090547785 0.10789046 -0.009812371 -0.10931127 0.078638084 0.089687414
-0.114033684 -0.14593281 0.107587956 -0.09682872 -0.14538527 0.12802361 0.07243244 -0.07845338
0.12637137 0.0055934093 0.108112775 -0.02951919 0.07945897 0.06384891 0.084353514 -0.029826196
-0.022407703 -0.07776326 -0.055882756 0.05313279 0.06578469 0.0109773 -0.09093149 0.0484471
-0.087072745 0.03347861 -0.10866049 -0.1508026 0.09896821 -0.12554054 -0.17000599 -0.0044705444
0.0029035923 0.14699559 0.16069315 -0.06769858 -0.02362501 0.098136775 -0.1687549 -0.09252928
-0.11644643 -0.011185107 0.0015178816 0.10184416 0.10669119 0.17826097 0.0357678 0.0629803
-0.10501613 0.08226721 -0.046066526 0.04474526 -0.024216201 -0.06570025 0.027997466 0.06252485
0.03436663 -0.005571394 0.10179555 0.03092274 0.062205717 -0.1070956 -0.04014243 0.1045368
-0.031978764 -0.13646546 -0.10222348 0.032642096 0.04220686 0.019194655 0.0034284575 -0.15631226
0.09373138 0.12056658 0.11737053 -0.017505014 -0.03864105 0.08937018 -0.074582025 0.035904907
-0.16186239 0.018240307 0.032277513 -0.02386019 -0.1098605 -0.037110742 -0.044500258 -0.025244735
0.0659933 -0.0033662394 -0.038440324 0.13159814 -0.09980737 -0.08938015 0.03182113 -0.00076784805
-0.12488484 -0.092655025 -0.006362846 0.09284184 0.058098923 0.06362243 0.034212805 -0.08947043
0.018228887 0.13254073 0.072798856 -0.06747328 -0.011508856 0.06873551 -0.076577395 -0.115742475
-0.060928915 -0.057866503 0.1240839 -0.041265104 -0.11939584 -0.11208664 -0.0869775 -0.12884122
-0.04929435 -0.1444833 -0.11782297 -0.13464443 0.0035097653 0.17081234 0.08487033 0.0014498812
-0.13653734 0.107579954 -0.12905169 0.16591562 -0.02926286 -0.0092540495 0.13216138 0.07526525
-0.10174205 0.07830412 -0.060341146 -0.13888547 -0.08917135 0.022803156 0.00046288656 -0.07783429
0.095383756 -0.055272136 0.14203271 0.025406804 -0.12280435 0.035582673 -0.15604994 0.03274841
00000000: 227e 9e3d 280a 893d e71c 09be c08d 10bd
00000010: f473 9b3c f1fc dabc f900 383d 3529 183e
00000020: 0bd1 39bc d21f 68bd de9b d03d 6079 8cbd
00000030: 5f32 bbbc 893c 203e 172f 2a3e 72e8 403e
00000040: 22ce 57ba 29bf e03c 0449 aebd 3f0f 293e
00000050: bd82 64bd ec9e 283d d7a8 823d 3587 163e
00000060: 4d0a 803c d40c 173d 08d2 e93d 091f 8bbc
00000070: 7780 23bc 6cb5 2e3e 770b 18be 3232 54be
00000080: fc79 9abd 7eac fd3d 03b1 303e 6575 16be
00000090: e5c7 103e 3ae3 37be 9d81 03be 79ae 233d
000000a0: d78c 1abe ae92 c03d 7a53 a23d 8c16 273e
000000b0: 3538 073e 9e6d d4bd 8f3c 96bd 7c01 2c3e
000000c0: 3491 0abe 0a5b 2dbe 2813 aa3d c3e2 b7bb
000000d0: 07ba ef3c fa18 10be e7e3 e0bc be8b 24bd
000000e0: 8c05 86bd a6ca 173c 5bec 863d f129 8abc
000000f0: 77c6 a5bd 5b01 b23c a753 f8bd e962 afbc
00000100: f282 32be f8a9 f23c e02d 1f3e cf68 023d
00000110: 4220 a93d 6f43 c53d da1d ed3c a1b9 313e
00000120: bcec c9b9 e295 ccba a7a6 003e caca 073e
00000130: 24e1 bbbd b066 d2bd db09 633d 6b7b 2ebe
00000140: 9bfe b43d 30c9 6e3c dc8f 033c 096c a0bd
00000150: b0e3 753d d775 163e dcff 35be 59a4 db3d
00000160: 581c 483d 8c67 273c 0780 2f3d bd5a 29be
00000170: 8afd dfbd 37ec 4cbe 6600 1bbe 39bd 473c
00000180: 5f4a 313e c5fe e53c 1e71 b93d acf5 dc3d
00000190: 11c4 20bc 96de dfbd 010d a13d 09ae b73d
000001a0: 7e8a e9bd 696f 15be 1357 dc3d 234e c6bd
000001b0: e0df 14be 9f18 033e 7657 943d 2aac a0bd
000001c0: 7f67 013e eb48 b73b 3b6a dd3d 3ad2 f1bc
000001d0: 62bb a23d 38c3 823d 89c1 ac3d 1156 f4bc
000001e0: 5c90 b7bc 5842 9fbd 51e5 64bd c5a1 593d
000001f0: 20ba 863d 22da 333c 4a3a babd 7770 463d
00000200: 3253 b2bd de20 093d 6489 debd ff6b 1abe
00000210: d8af ca3d b38d 00be 0d16 2ebe a57d 92bb
00000220: 324a 3e3b 0386 163e bf8c 243e 8ea5 8abd
00000230: 3d89 c1bc effb c83d 16ce 2cbe fe7f bdbd
00000240: 777b eebd bd41 37bc a8f3 c63a ac93 d03d
00000250: e980 da3d 0b8a 363e 4281 123d d1fb 803d
00000260: b212 d7bd b67b a83d 41b0 3cbd ce46 373d
00000270: 0e61 c6bc da8d 86bd f15a e53c 070d 803d
00000280: 06c4 0c3d 3e90 b6bb 2f7a d03d b051 fd3c
00000290: 6ccb 7e3d f054 dbbd 646c 24bd 6417 d63d
000002a0: 2afc 02bd 9abd 0bbe 8b5a d1bd b8b3 053d
000002b0: 1ae1 2c3d 1c3e 9d3c f9af 603b 5210 20be
000002c0: 3df6 bf3d 9ceb f63d f65f f03d ad66 8fbc
000002d0: 1446 1ebd b707 b73d 76be 98bd 0611 133d
000002e0: 41bf 25be b26c 953c 6d35 043d 7276 c3bc
000002f0: 8bfe e0bd 6f01 18bd e745 36bd 0cce cebc
00000300: 7f27 873d 209c 5cbb 9a73 1dbd aac1 063e
00000310: ce67 ccbd f10c b7bd e056 023d 6949 49ba
00000320: 9fc3 ffbd ebc1 bdbd 6c7f d0bb dd23 be3d
00000330: 23f9 6d3d 7a4c 823d ba22 0c3d 463c b7bd
00000340: bf54 953c c2b8 073e 9117 953d 6e2f 8abd
00000350: a48f 3cbc 34c5 8c3d 9cd4 9cbd 640a edbd
00000360: 9990 79bd 6d05 6dbd b31f fe3d 9905 29bd
00000370: ce85 f4bd ae8d e5bd 4221 b2bd f4ee 03be
00000380: dfe8 49bd 6ef3 13be 2b4d f1bd 3be0 09be
00000390: 1704 663b 6ee9 2e3e 7fd0 ad3d f109 be3a
000003a0: 72d0 0bbe e152 dc3d 2026 04be c9e5 293e
000003b0: aab8 efbc 4c9e 17bc 5055 073e ab24 9a3d
000003c0: 235e d0bd e95d a03d 4728 77bd fe37 0ebe
000003d0: 789f b6bd afcd ba3c 95af f239 9667 9fbd
000003e0: 8f58 c33d 0965 62bd 0671 113e ee21 d03c
000003f0: d980 fbbd 23bf 113d 8ecb 1fbe 3223 063d

weight_hh_l1 f4 [200, 50]
-0.008632402 0.15579583 -0.14198974 0.14126122 -0.20727848 -0.059036303 0.0077804867 -0.10326037
-0.18920293 0.048092768 -0.088990405 0.1842114 -0.08876945 -0.09004961 -0.09176031 0.09153512
-0.05708776 0.17805856 -0.09107472 0.0132677555 0.059322175 -0.0035519737 -0.010135116 -0.03546657
0.10488898 0.13157214 -0.021714652 0.01264685 -0.060646404 0.04595314 -0.003458086 -0.08330519
0.15617692 0.038390968 -0.07502676 0.05263506 0.015158151 0.1517597 -0.14770703 -0.09740183
0.1939985 0.07873169 -0.115408815 0.018636363 0.0058425623 0.19032823 -0.0026117882 -0.0052070795
0.20324877 -0.16812618 0.0339559 -0.15011911 -0.10193388 0.12080378 -0.031422857 -0.06891471
-0.019703794 -0.07103535 0.101264946 -0.086803354 -0.098830745 0.09405181 0.05102977 -0.0056584044
0.04876129 -0.05840386 0.093654566 -0.13942826 -0.037495006 -0.03496955 0.06445237 -0.08279396
0.07760113 0.11421374 -0.021137618 0.101778224 0.014101475 0.13095468 0.042525437 -0.023530368
-0.053580828 0.104371786 0.06562072 0.046413474 0.19539541 -0.05850047 0.025427435 -0.14286675
0.18657762 0.13374078 0.01114118 -0.14696343 -0.04498058 -0.022384163 0.06699535 -0.10108538
0.061314594 -0.11843598 -0.05318411 -0.048809472 -0.16595809 -0.006629924 0.089456886 -0.09546801
-0.05900312 0.060632426 0.08412308 -0.054884095 0.06575707 -0.14687309 0.08948256 -0.09067332
-0.04753563 0.13760418 0.08080437 0.10525178 -0.11561905 -0.05233882 -0.07313471 0.04891153
0.12101147 -0.06320104 0.050244704 -0.03014176 -0.06773772 -0.026382651 -0.04430117 0.10871189
-0.096249014 0.023647463 0.038401235 0.102339685 -0.011563755 0.004728412 0.0053201434 -0.057253033
0.17854108 0.027441967 0.19593838 -0.09025336 0.06593928 -0.13709906 -0.013829357 0.2081418
0.1073013 0.1222232 0.14015722 -0.08224156 0.105425194 -0.013078054 0.022692459 -0.02075984
-0.13572872 -0.10057267 -0.1440089 0.15314321 -0.068887085 0.009302472 -0.16092086 -0.15260851
-0.139621 0.020845152 -0.050179064 0.04534806 -0.075516626 -0.042383336 -0.08026231 0.14394826
-0.0006468104 0.14682567 0.032872386 0.12083642 -0.028597374 0.04708154 -0.21541402 -0.09474468
0.13322717 -0.077417135 -0.15619084 0.08058125 -0.10671375 0.07859781 0.040873554 -0.049792804
0.0047781332 0.0013588193 -0.03392008 -0.022174159 0.01696275 0.03774075 0.015304786 -0.059640683
0.04608135 0.1366926 0.07202442 -0.010694901 0.048149336 -0.07000323 -0.027210312 -0.14419405
-0.08143112 -0.06148811 -0.14651546 0.14742436 0.03111585 0.14150368 -0.019084683 -0.06726988
0.06524448 -0.063153386 0.0063399887 0.1310217 0.13417478 0.04236936 -0.09987078 0.012991494
-0.022581767 -0.014866794 0.14579827 -0.07845124 -0.03438317 -0.034215543 0.07714636 -0.05227063
-0.17848285 -0.0373114 0.05162903 0.08994578 0.056250364 -0.13174567 -0.086631894 0.022618093
0.058652487 0.081771925 0.03629334 -0.08971732 0.10755564 -0.1722098 -0.032593567 -0.12381548
0.02873426 -0.054999907 0.11688491 0.20063981 0.058477253 -0.06376883 -0.048389137 0.10620104
0.11064557 0.0486065 -0.21257688 0.10418194 0.06608377 0.018425478 -0.10269127 -0.04557831
00000000: eb6e 0dbc f188 1f3e c265 11be c8a6 103e
00000010: cf40 54be 0dd0 71bd 74f3 fe3b 2c7a d3bd
00000020: 6abe 41be ecfc 443d 9a40 b6bd eaa1 3c3e
00000030: c2cc b5bd ee6b b8bd d4ec bbbd c476 bb3d
00000040: dbd4 69bd fc54 363e 6285 babd 0061 593c
00000050: cffb 723d 3bc8 68bb c20d 26bc 6545 11bd
00000060: 09d0 d63d d9ba 063e ede2 b1bc bc34 4f3c
00000070: 5d68 78bd 5c39 3c3d 0ea1 62bb e99b aabd
00000080: d8ec 1f3e d93f 1d3d a1a7 99bd dc97 573d
00000090: e559 783c e566 1b3e 8340 17be 9c7a c7bd
000000a0: 8ba7 463e 153e a13d 755b ecbd 49ab 983c
000000b0: f772 bf3b 67e5 423e 892a 2bbb 26a0 aabb
000000c0: 7220 503e 4529 2cbe 5815 0b3d d3b8 19be
000000d0: b6c2 d0bd f967 f73d 41b5 00bd 2823 8dbd
000000e0: da69 a1bc fb7a 91bd ff63 cf3d f5c5 b1bd
000000f0: c667 cabd 3c9e c03d 9804 513d 236a b9bb
00000100: ebb9 473d e338 6fbd f7cd bf3d 48c6 0ebe
00000110: 5d94 19bd 3b3c 0fbd 9bff 833d e18f a9bd
00000120: 57ed 9e3d e5e8 e93d cc28 adbc 1a71 d03d
00000130: df09 673c fc18 063e 272f 2e3d c2c2 c0bc
00000140: 9277 5bbd e0c0 d53d 2864 863d 0e1c 3e3d
00000150: bc15 483e 309e 6fbd 324d d03c a94b 12be
00000160: 340e 3f3e 58f3 083e 7f89 363c 957d 16be
00000170: 8f3d 38bd fe5e b7bc dc34 893d da05 cfbd
00000180: 0325 7b3d 908e f2bd 95d7 59bd 71ec 47bd
00000190: ebf0 29be d53f d9bb 2c35 b73d bb84 c3bd
000001a0: 41ad 71bd b559 783d b948 ac3d 25ce 60bd
000001b0: a5ab 863d e665 16be a242 b73d efb2 b9bd
000001c0: b9b4 42bd 1ce8 0c3e c37c a53d 3f8e d73d
000001d0: aec9 ecbd 3b61 56bd a7c7 95bd 7557 483d
000001e0: ddd4 f73d 8c6f 81bd 64cd 4d3d daeb f6bc
000001f0: 13ba 8abd 6e20 d8bc 2575 35bd 57a4 de3d
00000200: 341e c5bd 53b8 c13c 9d4a 1d3d 7897 d13d
00000210: e775 3dbc cbf0 9a3b 9954 ae3b 2882 6abd
00000220: 79d3 363e facd e03c 12a4 483e c1d6 b8bd
00000230: 2c0b 873d b263 0cbe 8794 62bc 2023 553e
00000240: c9c0 db3d 2850 fa3d 6085 0f3e 436e a8bd
00000250: 2ae9 d73d 5645 56bc 89e5 b93c 8a10 aabc
00000260: 78fc 0abe 0bf9 cdbd 1277 13be 93d1 1c3e
00000270: ac14 8dbd 6569 183c 70c8 24be 6845 1cbe
00000280: cff8 0ebe 74c3 aa3c 9088 4dbd e3be 393d
00000290: 76a8 9abd 269a 2dbd 9160 a4bd 2c67 133e
000002a0: b68e 29ba 7859 163e 32a5 063d 1679 f73d
000002b0: 0a45 eabc 93d8 403d 7e95 5cbe 8009 c2bd
000002c0: b46c 083e e08c 9ebd 7ef0 1fbe c807 a53d
000002d0: bd8c dabd e3f7 a03d 076b 273d 8af3 4bbd
000002e0: e391 9c3b 691a b23a c8ef 0abd 95a6 b5bc
000002f0: 77f5 8a3c 0b96 1a3d edc0 7a3c ca49 74bd
00000300: ccbf 3c3d 25f9 0b3e 8a81 933d ab39 2fbc
00000310: 3d38 453d da5d 8fbd 29e8 debc 9ba7 13be
00000320: 5cc5 a6bd f5da 7bbd 2608 16be 69f6 163e
00000330: abe6 fe3c 57e6 103e 7b57 9cbc cac4 89bd
00000340: e69e 853d 9056 81bd aebf cf3b 8d2a 063e
00000350: 1d65 093e 7e8b 2d3d 0d89 ccbd 46da 543c
00000360: 66fd b8bc db93 73bc 244c 153e 0bab a0bd
00000370: 5ed5 0cbd 9925 0cbd e9fe 9d3d ba19 56bd
00000380: 35c4 36be d7d3 18bd f678 533d 7e35 b83d
00000390: c866 663d 56e8 06be 106c b1bd 9449 b93c
000003a0: 973d 703d 0a78 a73d 53a8 143d b7bd b7bd
000003b0: 2246 dc3d c457 30be d580 05bd f892 fdbd
000003c0: 1c64 eb3c 9547 61bd 5b61 ef3d 8674 4d3e
000003d0: d885 6f3d 3b99 82bd b033 46bd ee7f d93d
000003e0: 259a e23d 9c17 473d c1ad 59be 575d d53d
000003f0: ed56 873d 07f1 963c cd4f d2bd 52b0 3abd

bias_ih_l1 f4 [200]
-0.061131094 0.12641644 0.14919133 0.0822412 -0.05759063 -0.103675954 -0.033045977 0.04687497
-0.06072868 -0.17233855 0.14897223 -0.10247988 -0.1982143 -0.033759717 -0.097771116 -0.020260155
-0.12892832 0.017400589 -0.082145825 0.05983669 0.080376916 -0.09721723 0.13201748 0.10856411
-0.19573466 -0.082969114 -0.051868044 -0.10146621 -0.162824 0.011893152 -0.043814693 -0.09861434
0.054275144 -0.123640776 0.041680712 -0.08163596 -0.034595862 -0.113044284 -0.16103007 -0.17226101
-0.15164287 -0.08721639 0.053947356 -0.17172538 0.047638714 0.17770427 -0.098280534 -0.046390805
0.14468962 -0.055649374 -0.09770286 0.15968905 -0.067614816 -0.11164561 -0.04009976 0.048789997
0.15937041 0.037592404 -0.08331222 0.02391214 -0.007508011 -0.09956757 0.06310577 -0.17114972
0.15039012 -0.22410372 0.031592473 0.11035992 0.04969984 -0.12498626 -0.038550176 0.030489305
0.10510883 -0.094466515 -0.01728841 0.0069056195 -0.06735726 0.066177115 -0.12300931 -0.053036213
-0.11228509 0.09928348 0.07773707 0.01405262 -0.03256989 0.12954345 -0.022601344 -0.065536395
-0.18696287 -0.05368377 -0.14711201 -0.1371731 0.009139365 -0.14609711 0.05191637 0.06877006
-0.004126565 -0.21187878 -0.0029878868 0.038058512 -0.03813186 -0.13788882 0.11540333 -0.15713772
0.15286744 -0.18502893 -0.10837674 0.034708366 0.14510211 0.040119857 0.09180863 0.0028207803
-0.08965604 -0.078626655 0.039246887 0.03375605 -0.04676071 -0.10470698 -0.08958271 0.07174435
-0.16158774 0.08377711 -0.1263624 0.08809199 0.032877628 -0.18207401 0.06390693 0.16159153
0.009038269 0.002216879 -0.06798779 0.052986186 0.06330952 0.12714665 0.03282154 -0.0778834
0.05932088 -0.05860273 -0.0760501 -0.15952532 -0.040568143 -0.0054410626 0.017827535 -0.06805494
-0.21245505 -0.09670612 0.048839536 0.058247633 -0.14458354 0.16278052 -0.08435648 0.070297174
-0.028503647 0.10797148 0.067769684 0.14519897 -0.027924255 0.022005018 -0.040641863 0.031571347
0.032884322 -0.09966687 -0.015797377 0.025709562 0.067889854 -0.14160158 -0.09438659 -0.02602446
-0.12803468 -0.075189576 -0.13032073 -0.105342984 0.06663578 -0.09452051 -0.16174595 -0.04219753
-0.022794377 0.02186696 -0.0682375 -0.044440515 -0.06773323 0.0542046 -0.035933528 0.08911382
-0.17001587 0.073396675 0.007764495 -0.15406813 -0.20547692 -0.053031776 -0.02695583 -0.13134477
-0.1356282 -0.17994869 0.06772972 0.14365938 -0.06420059 0.021459263 -0.106377 0.13455495
00000000: 9964 7abd 5073 013e 9dc5 183e 136e a83d
00000010: 27e4 6bbd 0f54 d4bd 385b 07bd f8ff 3f3d
00000020: a3be 78bd 8479 30be 2d8c 183e f9e0 d1bd
00000030: b1f8 4abe a147 0abd 393c c8bd a0f8 a5bc
00000040: c905 04be ae8b 8e3c 123c a8bd 5117 753d
00000050: a79c a43d d419 c7bd 972f 073e dc56 de3d
00000060: ab6e 48be b6eb a9bd 9673 54bd 84cd cfbd
00000070: 56bb 26be 7fdb 423c 0977 33bd 51f6 c9bd
00000080: 9d4f 5e3d 6037 fdbd 65b9 2a3d c130 a7bd
00000090: 64b4 0dbd c383 e7bd 11e5 24be 3165 30be
000000a0: 4548 1bbe 829e b2bd e7f7 5c3d c7d8 2fbe
000000b0: d020 433d 1cf8 353e 4e47 c9bd 4904 3ebd
000000c0: 8429 143e 99f0 63bd 7018 c8bd 8785 233e
000000d0: a379 8abd 74a6 e4bd a53f 24bd 05d8 473d
000000e0: ff31 233e 7efa 193d 999f aabd 64e3 c33c
000000f0: c305 f6bb 15ea cbbd 993d 813d df41 2fbe
00000100: deff 193e 727b 65be 1c67 013d 6204 e23d
00000110: 0f92 4b3d ccf8 ffbd cae6 1dbd b5c4 f93c
00000120: 4c43 d73d a977 c1bd 6ca0 8dbc 8948 e23b
00000130: 9af2 89bd de87 873d 4eec fbbd 803c 59bd
00000140: baf5 e5bd 2355 cb3d 9d34 9f3d f63c 663c
00000150: 0168 05bd 0aa7 043e 7426 b9bc f237 86bd
00000160: 3273 3fbe 83e3 5bbd 88a4 16be 1b77 0cbe
00000170: 46bd 153c 7b9a 15be 42a6 543d 51d7 8c3d
00000180: 2338 87bb c0f6 58be 6cd0 43bb 3ee3 1b3d
00000190: 2730 1cbd ba32 0dbe 9558 ec3d b6e8 20be
000001a0: 4889 1c3e 3978 3dbe a0f4 ddbd 5c2a 0e3d
000001b0: a695 143e b854 243d 2a06 bc3d d7dc 383b
000001c0: 969d b7bd 0307 a1bd 58c1 203d c943 0a3d
000001d0: 2988 3fbd 9d70 d6bd 2477 b7bd b4ee 923d
000001e0: 4277 25be 5593 ab3d 2565 01be 9369 b43d
000001f0: b1aa 063d 9c71 3abe a3e1 823d 4078 253e
00000200: 3f15 143c 0f49 113b 2f3d 8bbd 0b08 593d
00000210: 6ca8 813d bb32 023e e16f 063d 5581 9fbd
00000220: 73fa 723d 6b09 70bd 28c0 9bbd 9b5a 23be
00000230: c82a 26bd f14a b2bb 0d0b 923c 6360 8bbd
00000240: d18d 59be dc0d c6bd f70b 483d 1295 6e3d
00000250: b50d 14be f0af 263e 17c3 acbd f7f7 8f3d
00000260: 7b80 e9bc 2720 dd3d d5ca 8a3d 0aaf 143e
00000270: 68c1 e4bc de43 b43c 1578 26bd f550 013d
00000280: b6b1 063d 251e ccbd 8069 81bc dc9c d23c
00000290: d609 8b3d 0100 11be c24d c1bd 4031 d5bc
000002a0: 861b 03be fefc 99bd cc72 05be 10be d7bd
000002b0: 5778 883d f893 c1bd bba0 25be 51d7 2cbd
000002c0: 46bb babc 5722 b33c 1ac0 8bbd 4207 36bd
000002d0: b8b7 8abd a505 5e3d 092f 13bd 4e81 b63d
000002e0: a418 2ebe ff50 963d 4e6d fe3b 09c4 1dbe
000002f0: 8b68 52be d937 59bd 79d2 dcbc 3e7f 06be
00000300: 1ee2 0abe 7844 38be e1b5 8a3d 721b 133e
00000310: 997b 83bd 56cb af3c 2fdc d9bd c6c8 093e

bias_hh_l1 f4 [200]
-0.027736077 0.09754142 -0.10402223 0.13106382 0.04639071 -0.07125573 -0.06360044 -0.06603044
0.10917909 -0.11476769 -0.06693167 -0.16345042 0.031090885 -0.14321512 0.13395065 -0.013043076
0.07696048 -0.09055791 -0.04082967 -0.18040968 -0.0599272 -0.12169543 0.08928092 0.046150543
-0.19319727 -0.11718878 0.06529554 -0.046356637 -0.17234433 -0.040547542 -0.17508563 0.16987975
0.13956812 0.008516748 -0.008228862 0.09099442 -0.07622849 -0.10237427 -0.050709818 -0.07435879
-0.27625087 -0.16490526 0.048571486 -0.16755548 -0.03015559 -0.08029804 -0.08584394 -0.13970031
-0.007548227 0.16286933 0.0125659965 0.17250143 -0.070072375 0.097606555 -0.12723058 -0.038652986
-0.02870849 -0.042237498 0.040278506 -0.12973277 -0.07464588 -0.17009713 0.002361376 -0.09265608
-0.027712597 -0.07880395 0.13105409 -0.05106008 0.11456065 -0.07698928 0.10730556 -0.024270933
0.11744464 0.048731264 -0.15353005 0.09228488 0.023777217 0.08859159 -0.08385843 -0.1479609
-0.20073693 0.07597704 0.050806496 -0.073567346 -0.14094272 0.055500038 -0.039936543 -0.040189207
-0.112336405 -0.21676612 -0.24653217 0.027282162 -0.014135448 0.059494488 -0.05917798 -0.04633997
-0.13201977 -0.023293974 0.11927235 -0.02921833 -0.024094963 -0.2031226 0.12133845 0.016791549
0.10100491 0.034562457 -0.13569745 0.10429877 0.17849392 -0.0951073 0.13189584 -0.02801927
-0.11840036 0.026377214 0.112299636 -0.120919816 -0.12791465 0.04206358 -0.015058188 -0.116310254
0.056943428 -0.11146124 -0.21355882 0.109704256 0.010478373 -0.031433225 -0.18336546 0.017049888
0.14165467 0.1579587 -0.04352111 0.18968467 -0.18623346 -0.014720885 0.06622567 -0.12828043
-0.12621501 -0.06337778 0.023850545 0.07984894 0.00093472353 -0.044114992 -0.07749573 -0.014612122
-0.091274254 -0.20806618 0.016691012 0.021664532 -0.1574126 0.14753038 -0.0015895724 0.1384896
-0.11070918 -0.12646522 -0.009300753 -0.111788794 0.11589502 0.025427176 0.09372559 -0.01632361
-0.045521636 -0.27782616 -0.18356557 -0.032687068 0.12596582 -0.18260811 0.0004593649 -0.072216265
0.0394834 -0.07363338 -0.082520045 -0.1570074 0.09950148 0.11574545 -0.19005764 0.039105702
-0.16685988 -0.011886996 0.02053018 0.035628997 -0.17867239 -0.08445435 -0.038130876 -0.11739655
0.035958458 -0.05213053 -0.07015307 0.059767198 0.011176723 -0.13910261 -0.16619864 -0.12847419
-0.1666888 -0.04522467 0.16682048 0.15545142 -0.070639245 -0.022816706 -0.106271036 0.158588
00000000: c536 e3bc ccc3 c73d 9b09 d5bd 9835 063e
00000010: 2f04 3e3d 86ee 91bd f340 82bd f83a 87bd
00000020: 4999 df3d 530b ebbd 7913 89bd 8c5f 27be
00000030: 50b2 fe3c fca6 12be 5c2a 093e a0b2 55bc
00000040: 759d 9d3d 6d76 b9bd 033d 27bd 51bd 38be
00000050: 3976 75bd 743b f9bd ead8 b63d 5a08 3d3d
00000060: 81d5 45be ac00 f0bd abb9 853d 75e0 3dbd
00000070: 087b 30be 2e15 26bd a649 33be f5f4 2d3e
00000080: f2ea 0e3e d589 0b3c 59d2 06bc 485b ba3d
00000090: af1d 9cbd 9aa9 d1bd 19b5 4fbd 6c49 98bd
000000a0: c170 8dbe eddc 28be e5f2 463d aa93 2bbe
000000b0: db08 f7bc 4c73 a4bd f3ce afbd 990d 0fbe
000000c0: 1e57 f7bb 38c7 263e 9ce1 4d3c 37a4 303e
000000d0: 1b82 8fbd f2e5 c73d bc48 02be 9852 1ebd
000000e0: 112e ebbc 3a01 2dbd 13fb 243d abd8 04be
000000f0: f0df 98bd f12d 2ebe 51c1 1a3b 79c2 bdbd
00000100: 8705 e3bc f763 a1bd 0b33 063e 6024 51bd
00000110: c69e ea3d 8eac 9dbd 04c3 db3d d6d3 c6bc
00000120: d186 f03d 6f9a 473d fb36 1dbe dbff bc3d
00000130: 70c8 c23c 826f b53d f8bd abbd 1083 17be
00000140: fb8d 4dbe da99 9b3d 791a 503d 7aaa 96bd
00000150: 4a53 10be 0254 633d 8094 23bd 709d 24bd
00000160: a110 e6bd f0f7 5dbe ee72 7cbe d77e df3c
00000170: 5e98 67bc 7eb0 733d 9c64 72bd fbce 3dbd
00000180: 3130 07be 01d3 bebc 1045 f43d 475b efbc
00000190: cd62 c5bc 5fff 4fbe 4b80 f83d 6e8e 893c
000001a0: aadb ce3d 5d91 0d3d 46f4 0abe 989a d53d
000001b0: 1cc7 363e 9ec7 c2bd b40f 073e ab88 e5bc
000001c0: e37b f2bd 0715 d83c 5afd e53d cfa4 f7bd
000001d0: 0ffc 02be dc4a 2c3d 9eb6 76bc 1234 eebd
000001e0: 833d 693d ca45 e4bd 2aaf 5abe a0ac e03d
000001f0: 7bad 2b3c 20c0 00bd 28c4 3bbe 35ac 8b3c
00000200: ec0d 113e edbf 213e 3143 32bd b33c 423e
00000210: fcb3 3ebe de2f 71bc 53a1 873d f25b 03be
00000220: 823e 01be 36cc 81bd 3862 c33c d787 a33d
00000230: 3c08 753a ecb1 34bd 15b6 9ebd af67 6fbc
00000240: ffed babd 4d0f 55be 97bb 883c d179 b13c
00000250: c530 21be 3412 173e 3359 d0ba 38d0 0d3e
00000260: 7fbb e2bd 1980 01be 2f62 18bc 86f1 e4bd
00000270: 5e5a ed3d a74c d03c 34f3 bf3d 17b9 85bc
00000280: e574 3abd 3b3f 8ebe 9df8 3bbe e0e2 05bd
00000290: 2ffd 003e 9ffd 3abe ead6 f039 1fe6 93bd
000002a0: 58b9 213d 19cd 96bd 4500 a9bd 8cc6 20be
000002b0: 6fc7 cb3d f30b ed3d 789e 42be 4d2d 203d
000002c0: 51dd 2abe adc1 42bc e82e a83c b6ef 113d
000002d0: e5f5 36be 67f6 acbd 1f2f 1cbd 9a6d f0bd
000002e0: 2d49 133d d386 55bd 6aac 8fbd 73ce 743d
000002f0: 931e 373c ea70 0ebe fa2f 2abe bd8e 03be
00000300: 78b0 2abe 813d 39bd fdd2 2a3e a82e 1f3e
00000310: 4fab 90bd 1aea babc a1a4 d9bd e564 223e

weight f4 [1, 50]
0.067562774 -0.178886 0.06013964 -0.08445005 0.07133685 -0.13287158 -0.16190322 0.0772752
0.14958622 -0.018469332 0.08289999 -0.058554024 -0.08655399 -0.079320565 0.15730591 -0.028540062
-0.038440973 -0.06715713 -0.09015133 0.0119873 -0.05982466 0.017501486 -0.11594751 -0.0018027041
0.024193924 -0.12802406 -0.05534976 0.10657978 0.02182274 0.016755229 -0.040210318 0.12810943
-0.10070334 0.08195678 -0.05344594 -0.087120816 -0.021406453 0.0020656209 0.017183896 0.010275153
-0.03163572 0.042886544 0.0019187096 -0.055563495 -0.14685053 -0.17993572 -0.0082515245 0.03822316
-0.05698712 0.16694099
00000000: 5a5e 8a3d e42d 37be fc54 763d 26f4 acbd
00000010: 0e19 923d 7d0f 08be f5c9 25be 7642 9e3d
00000020: 212d 193e ff4c 97bc 78c7 a93d 58d6 6fbd
00000030: 3843 b1bd d272 a2bd cd14 213e d9cc e9bc
00000040: 4874 1dbd ad89 89bd 43a1 b8bd 6166 443c
00000050: b40a 75bd 475f 8f3c e375 edbd b648 ecba
00000060: 5632 c63c bd18 03be 6eb6 62bd 8046 da3d
00000070: 9ac5 b23c 4342 893c 93b3 24bd 1e2f 033e
00000080: 8d3d cebd f5d8 a73d 21ea 5abd 666c b2bd
00000090: 965c afbc 5e5f 073b 3ec5 8c3c 1e59 283c
000000a0: 7594 01bd cda9 2f3d 367d fb3a 8c96 63bd
000000b0: fc5f 16be 1241 38be 6731 07bc e38f 1c3d
000000c0: 546b 69bd 94f2 2a3e
